…
      sampler {
        min_scale: 0.3
        max_scale: 1
        min_aspect_ratio: 0.5
        max_aspect_ratio: 2
      }
      sample_constraint {
        min_jaccard_overlap: 0.9
      }
      max_sample: 1
      max_trials: 50
    }
    batch_sampler {
      sampler {
        min_scale: 0.3
        max_scale: 1
        min_aspect_ratio: 0.5
        max_aspect_ratio: 2
      }
      sample_constraint {
        max_jaccard_overlap: 1
      }
      max_sample: 1
      max_trials: 50
    }
    label_map_file: "data/plate/labelmap_plate.prototxt"
  }
}
layer {
  name: "Convolution1"
  type: "Convolution"
  bottom: "data"
  top: "Convolution1"
  convolution_param {
    num_output: 64
    bias_term: false
    pad: 1
    kernel_size: 3
    stride: 2
    weight_filler {
      type: "xavier"
    }
    bias_filler {
      type: "constant"
    }
  }
}
layer {
  name: "BatchNorm1"
  type: "BatchNorm"
  bottom: "Convolution1"
  top: "BatchNorm1"
}
layer {
  name: "Scale1"
  type: "Scale"
  bottom: "BatchNorm1"
  top: "BatchNorm1"
  scale_param {
    filler {
      value: 1
    }
    bias_term: true
    bias_filler {
      value: 0
    }
  }
}
layer {
  name: "ReLU1"
  type: "ReLU"
  bottom: "BatchNorm1"
  top: "BatchNorm1"
}
layer {
  name: "Convolution2"
  type: "Convolution"
  bottom: "BatchNorm1"
  top: "Convolution2"
  convolution_param {
    num_output: 64
    bias_term: false
    pad: 0
    kernel_size: 1
    stride: 1
    weight_filler {
      type: "xavier"
    }
    bias_filler {
      type: "constant"
    }
  }
}
layer {
  name: "ConvolutionDepthwise1"
  type: "ConvolutionDepthwise"
  bottom: "Convolution2"
  top: "ConvolutionDepthwise1"
  convolution_param {
    num_output: 64
    bias_term: false
    pad: 1
    kernel_size: 3
    stride: 1
    weight_filler {
      type: "xavier"
    }
    bias_filler {
      type: "constant"
    }
  }
}
layer {
  name: "BatchNorm2"
  type: "BatchNorm"
  bottom: "ConvolutionDepthwise1"
  top: "BatchNorm2"
}
layer {
  name: "Scale2"
  type: "Scale"
  bottom: "BatchNorm2"
  top: "BatchNorm2"
  scale_param {
    filler {
      value: 1
    }
    bias_term: true
    bias_filler {
      value: 0
    }
  }
}
layer {
  name: "ReLU2"
  type: "ReLU"
  bottom: "BatchNorm2"
  top: "BatchNorm2"
}
layer {
  name: "Convolution3"
  type: "Convolution"
  bottom: "BatchNorm2"
  top: "Convolution3"
  convolution_param {
    num_output: 128
    bias_term: false
    pad: 0
    kernel_size: 1
    stride: 1
    weight_filler {
      type: "xavier"
    }
    bias_filler {
      type: "constant"
    }
  }
}
layer {
  name: "ConvolutionDepthwise2"
  type: "ConvolutionDepthwise"
  bottom: "Convolution3"
  top: "ConvolutionDepthwise2"
  convolution_param {
    num_output: 128
    bias_term: false
    pad: 1
    kernel_size: 3
    stride: 1
    weight_filler {
      type: "xavier"
    }
    bias_filler {
      type: "constant"
    }
  }
}
layer {
  name: "BatchNorm3"
  type: "BatchNorm"
  bottom: "ConvolutionDepthwise2"
  top: "BatchNorm3"
}
layer {
  name: "Scale3"
  type: "Scale"
  bottom: "BatchNorm3"
  top: "BatchNorm3"
  scale_param {
    filler {
      value: 1
    }
    bias_term: true
    bias_filler {
      value: 0
    }
  }
}
layer {
  name: "ReLU3"
  type: "ReLU"
  bottom: "BatchNorm3"
  top: "BatchNorm3"
}
layer {
  name: "Pooling1"
  type: "Pooling"
  bottom: "BatchNorm3"
  top: "Pooling1"
  pooling_param {
    pool: MAX
    kernel_size: 2
    stride: 2
  }
}
layer {
  name: "Convolution4"
  type: "Convolution"
  bottom: "Pooling1"
  top: "Convolution4"
  convolution_param {
    num_output: 32
    bias_term: false
    pad: 0
    kernel_size: 1
    stride: 1
    weight_filler {
      type: "xavier"
    }
    bias_filler {
      type: "constant"
    }
  }
}
layer {
  name: "BatchNorm4"
  type: "BatchNorm"
  bottom: "Convolution4"
  top: "Convolution4"
}
layer {
  name: "Scale4"
  type: "Scale"
  bottom: "Convolution4"
  top: "Convolution4"
  scale_param {
    filler {
      value: 1
    }
    bias_term: true
    bias_filler {
      value: 0
    }
  }
}
layer {
  name: "ConvolutionDepthwise3"
  type: "ConvolutionDepthwise"
  bottom: "Convolution4"
  top: "ConvolutionDepthwise3"
  convolution_param {
    num_output: 32
    bias_term: false
    pad: 1
    kernel_size: 3
    stride: 1
    weight_filler {
      type: "xavier"
    }
    bias_filler {
      type: "constant"
    }
  }
}
layer {
  name: "BatchNorm5"
  type: "BatchNorm"
  bottom: "ConvolutionDepthwise3"
  top: "ConvolutionDepthwise3"
}
layer {
  name: "Scale5"
  type: "Scale"
  bottom: "ConvolutionDepthwise3"
  top: "ConvolutionDepthwise3"
  scale_param {
    filler {
      value: 1
    }
    bias_term: true
    bias_filler {
      value: 0
    }
  }
}
layer {
  name: "ReLU4"
  type: "ReLU"
  bottom: "ConvolutionDepthwise3"
  top: "ConvolutionDepthwise3"
}
layer {
  name: "Concat1"
  type: "Concat"
  bottom: "Pooling1"
  bottom: "ConvolutionDepthwise3"
  top: "Concat1"
  concat_param {
    axis: 1
  }
}
layer {
  name: "Convolution5"
  type: "Convolution"
  bottom: "Concat1"
  top: "Convolution5"
  convolution_param {
    num_output: 32
    bias_term: false
    pad: 0
    kernel_size: 1
    stride: 1
    weight_filler {
      type: "xavier"
    }
    bias_filler {
      type: "constant"
    }
  }
}
layer {
  name: "BatchNorm6"
  type: "BatchNorm"
  bottom: "Convolution5"
  top: "Convolution5"
}
layer {
  name: "Scale6"
  type: "Scale"
  bottom: "Convolution5"
  top: "Convolution5"
  scale_param {
    filler {
      value: 1
    }
    bias_term: true
    bias_filler {
      value: 0
    }
  }
}
layer {
  name: "ConvolutionDepthwise4"
  type: "ConvolutionDepthwise"
  bottom: "Convolution5"
  top: "ConvolutionDepthwise4"
  convolution_param {
    num_output: 32
    bias_term: false
    pad: 1
    kernel_size: 3
    stride: 1
    weight_filler {
      type: "xavier"
    }
    bias_filler {
      type: "constant"
    }
  }
}
layer {
  name: "BatchNorm7"
  type: "BatchNorm"
  bottom: "ConvolutionDepthwise4"
  top: "ConvolutionDepthwise4"
}
layer {
  name: "Scale7"
  type: "Scale"
  bottom: "ConvolutionDepthwise4"
  top: "ConvolutionDepthwise4"
  scale_param {
    filler {
      value: 1
    }
    bias_term: true
    bias_filler {
      value: 0
    }
  }
}
layer {
  name: "ReLU5"
  type: "ReLU"
  bottom: "ConvolutionDepthwise4"
  top: "ConvolutionDepthwise4"
}
layer {
  name: "Concat2"
  type: "Concat"
  bottom: "Concat1"
  bottom: "ConvolutionDepthwise4"
  top: "Concat2"
  concat_param {
    axis: 1
  }
}
layer {
  name: "Convolution6"
  type: "Convolution"
  bottom: "Concat2"
  top: "Convolution6"
  convolution_param {
    num_output: 32
    bias_term: false
    pad: 0
    kernel_size: 1
    stride: 1
    weight_filler {
      type: "xavier"
    }
    bias_filler {
      type: "constant"
    }
  }
}
layer {
  name: "BatchNorm8"
  type: "BatchNorm"
  bottom: "Convolution6"
  top: "Convolution6"
}
layer {
  name: "Scale8"
  type: "Scale"
  bottom: "Convolution6"
  top: "Convolution6"
  scale_param {
    filler {
      value: 1
    }
    bias_term: true
    bias_filler {
      value: 0
    }
  }
}
layer {
  name: "ConvolutionDepthwise5"
  type: "ConvolutionDepthwise"
  bottom: "Convolution6"
  top: "ConvolutionDepthwise5"
  convolution_param {
    num_output: 32
    bias_term: false
    pad: 1
    kernel_size: 3
    stride: 1
    weight_filler {
      type: "xavier"
    }
    bias_filler {
      type: "constant"
    }
  }
}
layer {
  name: "BatchNorm9"
  type: "BatchNorm"
  bottom: "ConvolutionDepthwise5"
  top: "ConvolutionDepthwise5"
}
layer {
  name: "Scale9"
  type: "Scale"
  bottom: "ConvolutionDepthwise5"
  top: "ConvolutionDepthwise5"
  scale_param {
    filler {
      value: 1
    }
    bias_term: true
    bias_filler {
      value: 0
    }
  }
}
layer {
  name: "ReLU6"
  type: "ReLU"
  bottom: "ConvolutionDepthwise5"
  top: "ConvolutionDepthwise5"
}
layer {
  name: "Concat3"
  type: "Concat"
  bottom: "Concat2"
  bottom: "ConvolutionDepthwise5"
  top: "Concat3"
  concat_param {
    axis: 1
  }
}
layer {
  name: "Convolution7"
  type: "Convolution"
  bottom: "Concat3"
  top: "Convolution7"
  convolution_param {
    num_output: 32
    bias_term: false
    pad: 0
    kernel_size: 1
    stride: 1
    weight_filler {
      type: "xavier"
    }
    bias_filler {
      type: "constant"
    }
  }
}
layer {
  name: "BatchNorm10"
  type: "BatchNorm"
  bottom: "Convolution7"
  top: "Convolution7"
}
layer {
  name: "Scale10"
  type: "Scale"
  bottom: "Convolution7"
  top: "Convolution7"
  scale_param {
    filler {
      value: 1
    }
    bias_term: true
    bias_filler {
      value: 0
    }
  }
}
layer {
  name: "ConvolutionDepthwise6"
  type: "ConvolutionDepthwise"
  bottom: "Convolution7"
  top: "ConvolutionDepthwise6"
  convolution_param {
    num_output: 32
    bias_term: false
    pad: 1
    kernel_size: 3
    stride: 1
    weight_filler {
      type: "xavier"
    }
    bias_filler {
      type: "constant"
    }
  }
}
layer {
  name: "BatchNorm11"
  type: "BatchNorm"
  bottom: "ConvolutionDepthwise6"
  top: "ConvolutionDepthwise6"
}
layer {
  name: "Scale11"
  type: "Scale"
  bottom: "ConvolutionDepthwise6"
  top: "ConvolutionDepthwise6"
  scale_param {
    filler {
      value: 1
    }
    bias_term: true
    bias_filler {
      value: 0
    }
  }
}
layer {
  name: "ReLU7"
  type: "ReLU"
  bottom: "ConvolutionDepthwise6"
  top: "ConvolutionDepthwise6"
}
layer {
  name: "Concat4"
  type: "Concat"
  bottom: "Concat3"
  bottom: "ConvolutionDepthwise6"
  top: "Concat4"
  concat_param {
    axis: 1
  }
}
layer {
  name: "Convolution8"
  type: "Convolution"
  bottom: "Concat4"
  top: "Convolution8"
  convolution_param {
    num_output: 128
    bias_term: false
    pad: 0
    kernel_size: 1
    stride: 1
    weight_filler {
      type: "xavier"
    }
    bias_filler {
      type: "constant"
    }
  }
}
layer {
  name: "BatchNorm12"
  type: "BatchNorm"
  bottom: "Convolution8"
  top: "BatchNorm12"
}
layer {
  name: "Scale12"
  type: "Scale"
  bottom: "BatchNorm12"
  top: "BatchNorm12"
  scale_param {
    filler {
      value: 1
    }
    bias_term: true
    bias_filler {
      value: 0
    }
  }
}
layer {
  name: "ReLU8"
  type: "ReLU"
  bottom: "BatchNorm12"
  top: "ReLU8"
}
layer {
  name: "Pooling2"
  type: "Pooling"
  bottom: "ReLU8"
  top: "Pooling2"
  pooling_param {
    pool: MAX
    kernel_size: 2
    stride: 2
  }
}
layer {
  name: "Convolution9"
  type: "Convolution"
  bottom: "Pooling2"
  top: "Convolution9"
  convolution_param {
    num_output: 48
    bias_term: false
    pad: 0
    kernel_size: 1
    stride: 1
    weight_filler {
      type: "xavier"
    }
    bias_filler {
      type: "constant"
    }
  }
}
layer {
  name: "BatchNorm13"
  type: "BatchNorm"
  bottom: "Convolution9"
  top: "Convolution9"
}
layer {
  name: "Scale13"
  type: "Scale"
  bottom: "Convolution9"
  top: "Convolution9"
  scale_param {
    filler {
      value: 1
    }
    bias_term: true
    bias_filler {
      value: 0
    }
  }
}
layer {
  name: "ConvolutionDepthwise7"
  type: "ConvolutionDepthwise"
  bottom: "Convolution9"
  top: "ConvolutionDepthwise7"
  convolution_param {
    num_output: 48
    bias_term: false
    pad: 1
    kernel_size: 3
    stride: 1
    weight_filler {
      type: "xavier"
    }
    bias_filler {
      type: "constant"
    }
  }
}
layer {
  name: "BatchNorm14"
  type: "BatchNorm"
  bottom: "ConvolutionDepthwise7"
  top: "ConvolutionDepthwise7"
}
layer {
  name: "Scale14"
  type: "Scale"
  bottom: "ConvolutionDepthwise7"
  top: "ConvolutionDepthwise7"
  scale_param {
    filler {
      value: 1
    }
    bias_term: true
    bias_filler {
      value: 0
    }
  }
}
layer {
  name: "ReLU9"
  type: "ReLU"
  bottom: "ConvolutionDepthwise7"
  top: "ConvolutionDepthwise7"
}
layer {
  name: "Concat5"
  type: "Concat"
  bottom: "Pooling2"
  bottom: "ConvolutionDepthwise7"
  top: "Concat5"
  concat_param {
    axis: 1
  }
}
layer {
  name: "Convolution10"
  type: "Convolution"
  bottom: "Concat5"
  top: "Convolution10"
  convolution_param {
    num_output: 48
    bias_term: false
    pad: 0
    kernel_size: 1
    stride: 1
    weight_filler {
      type: "xavier"
    }
    bias_filler {
      type: "constant"
    }
  }
}
layer {
  name: "BatchNorm15"
  type: "BatchNorm"
  bottom: "Convolution10"
  top: "Convolution10"
}
layer {
  name: "Scale15"
  type: "Scale"
  bottom: "Convolution10"
  top: "Convolution10"
  scale_param {
    filler {
      value: 1
    }
    bias_term: true
    bias_filler {
      value: 0
    }
  }
}
layer {
  name: "ConvolutionDepthwise8"
  type: "ConvolutionDepthwise"
  bottom: "Convolution10"
  top: "ConvolutionDepthwise8"
  convolution_param {
    num_output: 48
    bias_term: false
    pad: 1
    kernel_size: 3
    stride: 1
    weight_filler {
      type: "xavier"
    }
    bias_filler {
      type: "constant"
    }
  }
}
layer {
  name: "BatchNorm16"
  type: "BatchNorm"
  bottom: "ConvolutionDepthwise8"
  top: "ConvolutionDepthwise8"
}
layer {
  name: "Scale16"
  type: "Scale"
  bottom: "ConvolutionDepthwise8"
  top: "ConvolutionDepthwise8"
  scale_param {
    filler {
      value: 1
    }
    bias_term: true
    bias_filler {
      value: 0
    }
  }
}
layer {
  name: "ReLU10"
  type: "ReLU"
  bottom: "ConvolutionDepthwise8"
  top: "ConvolutionDepthwise8"
}
layer {
  name: "Concat6"
  type: "Concat"
  bottom: "Concat5"
  bottom: "ConvolutionDepthwise8"
  top: "Concat6"
  concat_param {
    axis: 1
  }
}
layer {
  name: "Convolution11"
  type: "Convolution"
  bottom: "Concat6"
  top: "Convolution11"
  convolution_param {
    num_output: 48
    bias_term: false
    pad: 0
    kernel_size: 1
    stride: 1
    weight_filler {
      type: "xavier"
    }
    bias_filler {
      type: "constant"
    }
  }
}
layer {
  name: "BatchNorm17"
  type: "BatchNorm"
  bottom: "Convolution11"
  top: "Convolution11"
}
layer {
  name: "Scale17"
  type: "Scale"
  bottom: "Convolution11"
  top: "Convolution11"
  scale_param {
    filler {
      value: 1
    }
    bias_term: true
    bias_filler {
      value: 0
    }
  }
}
layer {
  name: "ConvolutionDepthwise9"
  type: "ConvolutionDepthwise"
  bottom: "Convolution11"
  top: "ConvolutionDepthwise9"
  convolution_param {
    num_output: 48
    bias_term: false
    pad: 1
    kernel_size: 3
    stride: 1
    weight_filler {
      type: "xavier"
    }
    bias_filler {
      type: "constant"
    }
  }
}
layer {
  name: "BatchNorm18"
  type: "BatchNorm"
  bottom: "ConvolutionDepthwise9"
  top: "ConvolutionDepthwise9"
}
layer {
  name: "Scale18"
  type: "Scale"
  bottom: "ConvolutionDepthwise9"
  top: "ConvolutionDepthwise9"
  scale_param {
    filler {
      value: 1
    }
    bias_term: true
    bias_filler {
      value: 0
    }
  }
}
layer {
  name: "ReLU11"
  type: "ReLU"
  bottom: "ConvolutionDepthwise9"
  top: "ConvolutionDepthwise9"
}
layer {
  name: "Concat7"
  type: "Concat"
  bottom: "Concat6"
  bottom: "ConvolutionDepthwise9"
  top: "Concat7"
  concat_param {
    axis: 1
  }
}
layer {
  name: "Convolution12"
  type: "Convolution"
  bottom: "Concat7"
  top: "Convolution12"
  convolution_param {
    num_output: 48
    bias_term: false
    pad: 0
    kernel_size: 1
    stride: 1
    weight_filler {
      type: "xavier"
    }
    bias_filler {
      type: "constant"
    }
  }
}
layer {
  name: "BatchNorm19"
  type: "BatchNorm"
  bottom: "Convolution12"
  top: "Convolution12"
}
layer {
  name: "Scale19"
  type: "Scale"
  bottom: "Convolution12"
  top: "Convolution12"
  scale_param {
    filler {
      value: 1
    }
    bias_term: true
    bias_filler {
      value: 0
    }
  }
}
layer {
  name: "ConvolutionDepthwise10"
  type: "ConvolutionDepthwise"
  bottom: "Convolution12"
  top: "ConvolutionDepthwise10"
  convolution_param {
    num_output: 48
    bias_term: false
    pad: 1
    kernel_size: 3
    stride: 1
    weight_filler {
      type: "xavier"
    }
    bias_filler {
      type: "constant"
    }
  }
}
layer {
  name: "BatchNorm20"
  type: "BatchNorm"
  bottom: "ConvolutionDepthwise10"
  top: "ConvolutionDepthwise10"
}
layer {
  name: "Scale20"
  type: "Scale"
  bottom: "ConvolutionDepthwise10"
  top: "ConvolutionDepthwise10"
  scale_param {
    filler {
      value: 1
    }
    bias_term: true
    bias_filler {
      value: 0
    }
  }
}
layer {
  name: "ReLU12"
  type: "ReLU"
  bottom: "ConvolutionDepthwise10"
  top: "ConvolutionDepthwise10"
}
layer {
  name: "Concat8"
  type: "Concat"
  bottom: "Concat7"
  bottom: "ConvolutionDepthwise10"
  top: "Concat8"
  concat_param {
    axis: 1
  }
}
layer {
  name: "Convolution13"
  type: "Convolution"
  bottom: "Concat8"
  top: "Convolution13"
  convolution_param {
    num_output: 48
    bias_term: false
    pad: 0
    kernel_size: 1
    stride: 1
    weight_filler {
      type: "xavier"
    }
    bias_filler {
      type: "constant"
    }
  }
}
layer {
  name: "BatchNorm21"
  type: "BatchNorm"
  bottom: "Convolution13"
  top: "Convolution13"
}
layer {
  name: "Scale21"
  type: "Scale"
  bottom: "Convolution13"
  top: "Convolution13"
  scale_param {
    filler {
      value: 1
    }
    bias_term: true
    bias_filler {
      value: 0
    }
  }
}
layer {
  name: "ConvolutionDepthwise11"
  type: "ConvolutionDepthwise"
  bottom: "Convolution13"
  top: "ConvolutionDepthwise11"
  convolution_param {
    num_output: 48
    bias_term: false
    pad: 1
    kernel_size: 3
    stride: 1
    weight_filler {
      type: "xavier"
    }
    bias_filler {
      type: "constant"
    }
  }
}
layer {
  name: "BatchNorm22"
  type: "BatchNorm"
  bottom: "ConvolutionDepthwise11"
  top: "ConvolutionDepthwise11"
}
layer {
  name: "Scale22"
  type: "Scale"
  bottom: "ConvolutionDepthwise11"
  top: "ConvolutionDepthwise11"
  scale_param {
    filler {
      value: 1
    }
    bias_term: true
    bias_filler {
      value: 0
    }
  }
}
layer {
  name: "ReLU13"
  type: "ReLU"
  bottom: "ConvolutionDepthwise11"
  top: "ConvolutionDepthwise11"
}
layer {
  name: "Concat9"
  type: "Concat"
  bottom: "Concat8"
  bottom: "ConvolutionDepthwise11"
  top: "Concat9"
  concat_param {
    axis: 1
  }
}
layer {
  name: "Convolution14"
  type: "Convolution"
  bottom: "Concat9"
  top: "Convolution14"
  convolution_param {
    num_output: 48
    bias_term: false
    pad: 0
    kernel_size: 1
    stride: 1
    weight_filler {
      type: "xavier"
    }
    bias_filler {
      type: "constant"
    }
  }
}
layer {
  name: "BatchNorm23"
  type: "BatchNorm"
  bottom: "Convolution14"
  top: "Convolution14"
}
layer {
  name: "Scale23"
  type: "Scale"
  bottom: "Convolution14"
  top: "Convolution14"
  scale_param {
    filler {
      value: 1
    }
    bias_term: true
    bias_filler {
      value: 0
    }
  }
}
layer {
  name: "ConvolutionDepthwise12"
  type: "ConvolutionDepthwise"
  bottom: "Convolution14"
  top: "ConvolutionDepthwise12"
  convolution_param {
    num_output: 48
    bias_term: false
    pad: 1
    kernel_size: 3
    stride: 1
    weight_filler {
      type: "xavier"
    }
    bias_filler {
      type: "constant"
    }
  }
}
layer {
  name: "BatchNorm24"
  type: "BatchNorm"
  bottom: "ConvolutionDepthwise12"
  top: "ConvolutionDepthwise12"
}
layer {
  name: "Scale24"
  type: "Scale"
  bottom: "ConvolutionDepthwise12"
  top: "ConvolutionDepthwise12"
  scale_param {
    filler {
      value: 1
    }
    bias_term: true
    bias_filler {
      value: 0
    }
  }
}
layer {
  name: "ReLU14"
  type: "ReLU"
  bottom: "ConvolutionDepthwise12"
  top: "ConvolutionDepthwise12"
}
layer {
  name: "Concat10"
  type: "Concat"
  bottom: "Concat9"
  bottom: "ConvolutionDepthwise12"
  top: "Concat10"
  concat_param {
    axis: 1
  }
}
layer {
  name: "Convolution15"
  type: "Convolution"
  bottom: "Concat10"
  top: "Convolution15"
  convolution_param {
    num_output: 128
    bias_term: false
    pad: 0
    kernel_size: 1
    stride: 1
    weight_filler {
      type: "xavier"
    }
    bias_filler {
      type: "constant"
    }
  }
}
layer {
  name: "BatchNorm25"
  type: "BatchNorm"
  bottom: "Convolution15"
  top: "BatchNorm25"
}
layer {
  name: "Scale25"
  type: "Scale"
  bottom: "BatchNorm25"
  top: "BatchNorm25"
  scale_param {
    filler {
      value: 1
    }
    bias_term: true
    bias_filler {
      value: 0
    }
  }
}
layer {
  name: "First"
  type: "ReLU"
  bottom: "BatchNorm25"
  top: "First"
}
layer {
  name: "Pooling3"
  type: "Pooling"
  bottom: "First"
  top: "Pooling3"
  pooling_param {
    pool: MAX
    kernel_size: 2
    stride: 2
  }
}
layer {
  name: "Convolution16"
  type: "Convolution"
  bottom: "Pooling3"
  top: "Convolution16"
  convolution_param {
    num_output: 64
    bias_term: false
    pad: 0
    kernel_size: 1
    stride: 1
    weight_filler {
      type: "xavier"
    }
    bias_filler {
      type: "constant"
    }
  }
}
layer {
  name: "BatchNorm26"
  type: "BatchNorm"
  bottom: "Convolution16"
  top: "BatchNorm26"
}
layer {
  name: "Scale26"
  type: "Scale"
  bottom: "BatchNorm26"
  top: "BatchNorm26"
  scale_param {
    filler {
      value: 1
    }
    bias_term: true
    bias_filler {
      value: 0
    }
  }
}
layer {
  name: "ReLU15"
  type: "ReLU"
  bottom: "BatchNorm26"
  top: "BatchNorm26"
}
layer {
  name: "Pooling4"
  type: "Pooling"
  bottom: "First"
  top: "Pooling4"
  pooling_param {
    pool: MAX
    kernel_size: 2
    stride: 2
  }
}
layer {
  name: "Convolution17"
  type: "Convolution"
  bottom: "Pooling4"
  top: "Convolution17"
  convolution_param {
    num_output: 64
    bias_term: false
    pad: 0
    kernel_size: 1
    stride: 1
    weight_filler {
      type: "xavier"
    }
    bias_filler {
      type: "constant"
    }
  }
}
layer {
  name: "BatchNorm27"
  type: "BatchNorm"
  bottom: "Convolution17"
  top: "Convolution17"
}
layer {
  name: "Scale27"
  type: "Scale"
  bottom: "Convolution17"
  top: "Convolution17"
  scale_param {
    filler {
      value: 1
    }
    bias_term: true
    bias_filler {
      value: 0
    }
  }
}
layer {
  name: "ConvolutionDepthwise13"
  type: "ConvolutionDepthwise"
  bottom: "Convolution17"
  top: "ConvolutionDepthwise13"
  convolution_param {
    num_output: 64
    bias_term: false
    pad: 1
    kernel_size: 3
    stride: 1
    weight_filler {
      type: "xavier"
    }
    bias_filler {
      type: "constant"
    }
  }
}
layer {
  name: "BatchNorm28"
  type: "BatchNorm"
  bottom: "ConvolutionDepthwise13"
  top: "ConvolutionDepthwise13"
}
layer {
  name: "Scale28"
  type: "Scale"
  bottom: "ConvolutionDepthwise13"
  top: "ConvolutionDepthwise13"
  scale_param {
    filler {
      value: 1
    }
    bias_term: true
    bias_filler {
      value: 0
    }
  }
}
layer {
  name: "ReLU16"
  type: "ReLU"
  bottom: "ConvolutionDepthwise13"
  top: "ConvolutionDepthwise13"
}
layer {
  name: "Concat11"
  type: "Concat"
  bottom: "Pooling4"
  bottom: "ConvolutionDepthwise13"
  top: "Concat11"
  concat_param {
    axis: 1
  }
}
layer {
  name: "Convolution18"
  type: "Convolution"
  bottom: "Concat11"
  top: "Convolution18"
  convolution_param {
    num_output: 64
    bias_term: false
    pad: 0
    kernel_size: 1
    stride: 1
    weight_filler {
      type: "xavier"
    }
    bias_filler {
      type: "constant"
    }
  }
}
layer {
  name: "BatchNorm29"
  type: "BatchNorm"
  bottom: "Convolution18"
  top: "Convolution18"
}
layer {
  name: "Scale29"
  type: "Scale"
  bottom: "Convolution18"
  top: "Convolution18"
  scale_param {
    filler {
      value: 1
    }
    bias_term: true
    bias_filler {
      value: 0
    }
  }
}
layer {
  name: "ConvolutionDepthwise14"
  type: "ConvolutionDepthwise"
  bottom: "Convolution18"
  top: "ConvolutionDepthwise14"
  convolution_param {
    num_output: 64
    bias_term: false
    pad: 1
    kernel_size: 3
    stride: 1
    weight_filler {
      type: "xavier"
    }
    bias_filler {
      type: "constant"
    }
  }
}
layer {
  name: "BatchNorm30"
  type: "BatchNorm"
  bottom: "ConvolutionDepthwise14"
  top: "ConvolutionDepthwise14"
}
layer {
  name: "Scale30"
  type: "Scale"
  bottom: "ConvolutionDepthwise14"
  top: "ConvolutionDepthwise14"
  scale_param {
    filler {
      value: 1
    }
    bias_term: true
    bias_filler {
      value: 0
    }
  }
}
layer {
  name: "ReLU17"
  type: "ReLU"
  bottom: "ConvolutionDepthwise14"
  top: "ConvolutionDepthwise14"
}
layer {
  name: "Concat12"
  type: "Concat"
  bottom: "Concat11"
  bottom: "ConvolutionDepthwise14"
  top: "Concat12"
  concat_param {
    axis: 1
  }
}
layer {
  name: "Convolution19"
  type: "Convolution"
  bottom: "Concat12"
  top: "Convolution19"
  convolution_param {
    num_output: 64
    bias_term: false
    pad: 0
    kernel_size: 1
    stride: 1
    weight_filler {
      type: "xavier"
    }
    bias_filler {
      type: "constant"
    }
  }
}
layer {
  name: "BatchNorm31"
  type: "BatchNorm"
  bottom: "Convolution19"
  top: "Convolution19"
}
layer {
  name: "Scale31"
  type: "Scale"
  bottom: "Convolution19"
  top: "Convolution19"
  scale_param {
    filler {
      value: 1
    }
    bias_term: true
    bias_filler {
      value: 0
    }
  }
}
layer {
  name: "ConvolutionDepthwise15"
  type: "ConvolutionDepthwise"
  bottom: "Convolution19"
  top: "ConvolutionDepthwise15"
  convolution_param {
    num_output: 64
    bias_term: false
    pad: 1
    kernel_size: 3
    stride: 1
    weight_filler {
      type: "xavier"
    }
    bias_filler {
      type: "constant"
    }
  }
}
layer {
  name: "BatchNorm32"
  type: "BatchNorm"
  bottom: "ConvolutionDepthwise15"
  top: "ConvolutionDepthwise15"
}
layer {
  name: "Scale32"
  type: "Scale"
  bottom: "ConvolutionDepthwise15"
  top: "ConvolutionDepthwise15"
  scale_param {
    filler {
      value: 1
    }
    bias_term: true
    bias_filler {
      value: 0
    }
  }
}
layer {
  name: "ReLU18"
  type: "ReLU"
  bottom: "ConvolutionDepthwise15"
  top: "ConvolutionDepthwise15"
}
layer {
  name: "Concat13"
  type: "Concat"
  bottom: "Concat12"
  bottom: "ConvolutionDepthwise15"
  top: "Concat13"
  concat_param {
    axis: 1
  }
}
layer {
  name: "Convolution20"
  type: "Convolution"
  bottom: "Concat13"
  top: "Convolution20"
  convolution_param {
    num_output: 64
    bias_term: false
    pad: 0
    kernel_size: 1
    stride: 1
    weight_filler {
      type: "xavier"
    }
    bias_filler {
      type: "constant"
    }
  }
}
layer {
  name: "BatchNorm33"
  type: "BatchNorm"
  bottom: "Convolution20"
  top: "Convolution20"
}
layer {
  name: "Scale33"
  type: "Scale"
  bottom: "Convolution20"
  top: "Convolution20"
  scale_param {
    filler {
      value: 1
    }
    bias_term: true
    bias_filler {
      value: 0
    }
  }
}
layer {
  name: "ConvolutionDepthwise16"
  type: "ConvolutionDepthwise"
  bottom: "Convolution20"
  top: "ConvolutionDepthwise16"
  convolution_param {
    num_output: 64
    bias_term: false
    pad: 1
    kernel_size: 3
    stride: 1
    weight_filler {
      type: "xavier"
    }
    bias_filler {
      type: "constant"
    }
  }
}
layer {
  name: "BatchNorm34"
  type: "BatchNorm"
  bottom: "ConvolutionDepthwise16"
  top: "ConvolutionDepthwise16"
}
layer {
  name: "Scale34"
  type: "Scale"
  bottom: "ConvolutionDepthwise16"
  top: "ConvolutionDepthwise16"
  scale_param {
    filler {
      value: 1
    }
    bias_term: true
    bias_filler {
      value: 0
    }
  }
}
layer {
  name: "ReLU19"
  type: "ReLU"
  bottom: "ConvolutionDepthwise16"
  top: "ConvolutionDepthwise16"
}
layer {
  name: "Concat14"
  type: "Concat"
  bottom: "Concat13"
  bottom: "ConvolutionDepthwise16"
  top: "Concat14"
  concat_param {
    axis: 1
  }
}
layer {
  name: "Convolution21"
  type: "Convolution"
  bottom: "Concat14"
  top: "Convolution21"
  convolution_param {
    num_output: 64
    bia
I0418 00:22:55.409098 30699 layer_factory.hpp:77] Creating layer data
I0418 00:22:55.410125 30714 db_lmdb.cpp:35] Opened lmdb /home/itachi/data/VOCdevkit/plate/lmdb/plate_trainval_lmdb
I0418 00:22:55.413372 30699 net.cpp:112] Creating Layer data
I0418 00:22:55.413385 30699 net.cpp:420] data -> data
I0418 00:22:55.413419 30699 net.cpp:420] data -> label
I0418 00:22:55.533725 30699 annotated_data_layer.cpp:74] output data size: 2,3,300,300
I0418 00:22:55.536718 30699 net.cpp:162] Setting up data
I0418 00:22:55.536732 30699 net.cpp:169] Top shape: 2 3 300 300 (540000)
I0418 00:22:55.536739 30699 net.cpp:169] Top shape: 1 1 1 8 (8)
I0418 00:22:55.536742 30699 net.cpp:177] Memory required for data: 2160032
I0418 00:22:55.536751 30699 layer_factory.hpp:77] Creating layer data_data_0_split
I0418 00:22:55.544612 30699 net.cpp:112] Creating Layer data_data_0_split
I0418 00:22:55.544623 30699 net.cpp:446] data_data_0_split <- data
I0418 00:22:55.544646 30699 net.cpp:420] data_data_0_split -> data_data_0_split_0
I0418 00:22:55.544658 30699 net.cpp:420] data_data_0_split -> data_data_0_split_1
I0418 00:22:55.544664 30699 net.cpp:420] data_data_0_split -> data_data_0_split_2
I0418 00:22:55.544672 30699 net.cpp:420] data_data_0_split -> data_data_0_split_3
I0418 00:22:55.544677 30699 net.cpp:420] data_data_0_split -> data_data_0_split_4
I0418 00:22:55.544683 30699 net.cpp:420] data_data_0_split -> data_data_0_split_5
I0418 00:22:55.544690 30699 net.cpp:420] data_data_0_split -> data_data_0_split_6
I0418 00:22:55.544785 30699 net.cpp:162] Setting up data_data_0_split
I0418 00:22:55.544813 30699 net.cpp:169] Top shape: 2 3 300 300 (540000)
I0418 00:22:55.544831 30699 net.cpp:169] Top shape: 2 3 300 300 (540000)
I0418 00:22:55.544836 30699 net.cpp:169] Top shape: 2 3 300 300 (540000)
I0418 00:22:55.544839 30699 net.cpp:169] Top shape: 2 3 300 300 (540000)
I0418 00:22:55.544842 30699 net.cpp:169] Top shape: 2 3 300 300 (540000)
I0418 00:22:55.544845 30699 net.cpp:169] Top shape: 2 3 300 300 (540000)
I0418 00:22:55.544847 30699 net.cpp:169] Top shape: 2 3 300 300 (540000)
I0418 00:22:55.544850 30699 net.cpp:177] Memory required for data: 17280032
I0418 00:22:55.544852 30699 layer_factory.hpp:77] Creating layer Convolution1
I0418 00:22:55.544872 30699 net.cpp:112] Creating Layer Convolution1
I0418 00:22:55.544875 30699 net.cpp:446] Convolution1 <- data_data_0_split_0
I0418 00:22:55.544879 30699 net.cpp:420] Convolution1 -> Convolution1
I0418 00:22:58.987186 30699 net.cpp:162] Setting up Convolution1
I0418 00:22:58.987201 30699 net.cpp:169] Top shape: 2 64 150 150 (2880000)
I0418 00:22:58.987208 30699 net.cpp:177] Memory required for data: 28800032
I0418 00:22:58.987223 30699 layer_factory.hpp:77] Creating layer BatchNorm1
I0418 00:22:58.987241 30699 net.cpp:112] Creating Layer BatchNorm1
I0418 00:22:58.987244 30699 net.cpp:446] BatchNorm1 <- Convolution1
I0418 00:22:58.987248 30699 net.cpp:420] BatchNorm1 -> BatchNorm1
I0418 00:22:58.987417 30699 net.cpp:162] Setting up BatchNorm1
I0418 00:22:58.987421 30699 net.cpp:169] Top shape: 2 64 150 150 (2880000)
I0418 00:22:58.987434 30699 net.cpp:177] Memory required for data: 40320032
I0418 00:22:58.987440 30699 layer_factory.hpp:77] Creating layer Scale1
I0418 00:22:58.987447 30699 net.cpp:112] Creating Layer Scale1
I0418 00:22:58.987449 30699 net.cpp:446] Scale1 <- BatchNorm1
I0418 00:22:58.987463 30699 net.cpp:407] Scale1 -> BatchNorm1 (in-place)
I0418 00:22:58.987510 30699 layer_factory.hpp:77] Creating layer Scale1
I0418 00:22:58.987624 30699 net.cpp:162] Setting up Scale1
I0418 00:22:58.987629 30699 net.cpp:169] Top shape: 2 64 150 150 (2880000)
I0418 00:22:58.987643 30699 net.cpp:177] Memory required for data: 51840032
I0418 00:22:58.987648 30699 layer_factory.hpp:77] Creating layer ReLU1
I0418 00:22:58.987653 30699 net.cpp:112] Creating Layer ReLU1
I0418 00:22:58.987654 30699 net.cpp:446] ReLU1 <- BatchNorm1
I0418 00:22:58.987658 30699 net.cpp:407] ReLU1 -> BatchNorm1 (in-place)
I0418 00:22:58.992925 30699 net.cpp:162] Setting up ReLU1
I0418 00:22:58.992933 30699 net.cpp:169] Top shape: 2 64 150 150 (2880000)
I0418 00:22:58.992938 30699 net.cpp:177] Memory required for data: 63360032
I0418 00:22:58.992940 30699 layer_factory.hpp:77] Creating layer Convolution2
I0418 00:22:58.992959 30699 net.cpp:112] Creating Layer Convolution2
I0418 00:22:58.992965 30699 net.cpp:446] Convolution2 <- BatchNorm1
I0418 00:22:58.992971 30699 net.cpp:420] Convolution2 -> Convolution2
I0418 00:22:58.994369 30699 net.cpp:162] Setting up Convolution2
I0418 00:22:58.994377 30699 net.cpp:169] Top shape: 2 64 150 150 (2880000)
I0418 00:22:58.994381 30699 net.cpp:177] Memory required for data: 74880032
I0418 00:22:58.994386 30699 layer_factory.hpp:77] Creating layer ConvolutionDepthwise1
I0418 00:22:58.994395 30699 net.cpp:112] Creating Layer ConvolutionDepthwise1
I0418 00:22:58.994402 30699 net.cpp:446] ConvolutionDepthwise1 <- Convolution2
I0418 00:22:58.994410 30699 net.cpp:420] ConvolutionDepthwise1 -> ConvolutionDepthwise1
I0418 00:22:58.994506 30699 net.cpp:162] Setting up ConvolutionDepthwise1
I0418 00:22:58.994511 30699 net.cpp:169] Top shape: 2 64 150 150 (2880000)
I0418 00:22:58.994515 30699 net.cpp:177] Memory required for data: 86400032
I0418 00:22:58.994529 30699 layer_factory.hpp:77] Creating layer BatchNorm2
I0418 00:22:58.994534 30699 net.cpp:112] Creating Layer BatchNorm2
I0418 00:22:58.994535 30699 net.cpp:446] BatchNorm2 <- ConvolutionDepthwise1
I0418 00:22:58.994541 30699 net.cpp:420] BatchNorm2 -> BatchNorm2
I0418 00:22:58.994675 30699 net.cpp:162] Setting up BatchNorm2
I0418 00:22:58.994680 30699 net.cpp:169] Top shape: 2 64 150 150 (2880000)
I0418 00:22:58.994701 30699 net.cpp:177] Memory required for data: 97920032
I0418 00:22:58.994719 30699 layer_factory.hpp:77] Creating layer Scale2
I0418 00:22:58.994735 30699 net.cpp:112] Creating Layer Scale2
I0418 00:22:58.994738 30699 net.cpp:446] Scale2 <- BatchNorm2
I0418 00:22:58.994742 30699 net.cpp:407] Scale2 -> BatchNorm2 (in-place)
I0418 00:22:58.994771 30699 layer_factory.hpp:77] Creating layer Scale2
I0418 00:22:58.994854 30699 net.cpp:162] Setting up Scale2
I0418 00:22:58.994858 30699 net.cpp:169] Top shape: 2 64 150 150 (2880000)
I0418 00:22:58.994863 30699 net.cpp:177] Memory required for data: 109440032
I0418 00:22:58.994868 30699 layer_factory.hpp:77] Creating layer ReLU2
I0418 00:22:58.994874 30699 net.cpp:112] Creating Layer ReLU2
I0418 00:22:58.994876 30699 net.cpp:446] ReLU2 <- BatchNorm2
I0418 00:22:58.994879 30699 net.cpp:407] ReLU2 -> BatchNorm2 (in-place)
I0418 00:22:58.995129 30699 net.cpp:162] Setting up ReLU2
I0418 00:22:58.995134 30699 net.cpp:169] Top shape: 2 64 150 150 (2880000)
I0418 00:22:58.995138 30699 net.cpp:177] Memory required for data: 120960032
I0418 00:22:58.995141 30699 layer_factory.hpp:77] Creating layer Convolution3
I0418 00:22:58.995148 30699 net.cpp:112] Creating Layer Convolution3
I0418 00:22:58.995152 30699 net.cpp:446] Convolution3 <- BatchNorm2
I0418 00:22:58.995157 30699 net.cpp:420] Convolution3 -> Convolution3
I0418 00:22:58.997117 30699 net.cpp:162] Setting up Convolution3
I0418 00:22:58.997128 30699 net.cpp:169] Top shape: 2 128 150 150 (5760000)
I0418 00:22:58.997133 30699 net.cpp:177] Memory required for data: 144000032
I0418 00:22:58.997138 30699 layer_factory.hpp:77] Creating layer ConvolutionDepthwise2
I0418 00:22:58.997148 30699 net.cpp:112] Creating Layer ConvolutionDepthwise2
I0418 00:22:58.997151 30699 net.cpp:446] ConvolutionDepthwise2 <- Convolution3
I0418 00:22:58.997157 30699 net.cpp:420] ConvolutionDepthwise2 -> ConvolutionDepthwise2
I0418 00:22:58.997241 30699 net.cpp:162] Setting up ConvolutionDepthwise2
I0418 00:22:58.997246 30699 net.cpp:169] Top shape: 2 128 150 150 (5760000)
I0418 00:22:58.997249 30699 net.cpp:177] Memory required for data: 167040032
I0418 00:22:58.997254 30699 layer_factory.hpp:77] Creating layer BatchNorm3
I0418 00:22:58.997261 30699 net.cpp:112] Creating Layer BatchNorm3
I0418 00:22:58.997263 30699 net.cpp:446] BatchNorm3 <- ConvolutionDepthwise2
I0418 00:22:58.997267 30699 net.cpp:420] BatchNorm3 -> BatchNorm3
I0418 00:22:58.997397 30699 net.cpp:162] Setting up BatchNorm3
I0418 00:22:58.997401 30699 net.cpp:169] Top shape: 2 128 150 150 (5760000)
I0418 00:22:58.997406 30699 net.cpp:177] Memory required for data: 190080032
I0418 00:22:58.997413 30699 layer_factory.hpp:77] Creating layer Scale3
I0418 00:22:58.997421 30699 net.cpp:112] Creating Layer Scale3
I0418 00:22:58.997424 30699 net.cpp:446] Scale3 <- BatchNorm3
I0418 00:22:58.997428 30699 net.cpp:407] Scale3 -> BatchNorm3 (in-place)
I0418 00:22:58.997454 30699 layer_factory.hpp:77] Creating layer Scale3
I0418 00:22:58.997539 30699 net.cpp:162] Setting up Scale3
I0418 00:22:58.997543 30699 net.cpp:169] Top shape: 2 128 150 150 (5760000)
I0418 00:22:58.997547 30699 net.cpp:177] Memory required for data: 213120032
I0418 00:22:58.997552 30699 layer_factory.hpp:77] Creating layer ReLU3
I0418 00:22:58.997557 30699 net.cpp:112] Creating Layer ReLU3
I0418 00:22:58.997561 30699 net.cpp:446] ReLU3 <- BatchNorm3
I0418 00:22:58.997565 30699 net.cpp:407] ReLU3 -> BatchNorm3 (in-place)
I0418 00:22:58.997934 30699 net.cpp:162] Setting up ReLU3
I0418 00:22:58.997951 30699 net.cpp:169] Top shape: 2 128 150 150 (5760000)
I0418 00:22:58.997957 30699 net.cpp:177] Memory required for data: 236160032
I0418 00:22:58.997959 30699 layer_factory.hpp:77] Creating layer Pooling1
I0418 00:22:58.997968 30699 net.cpp:112] Creating Layer Pooling1
I0418 00:22:58.997972 30699 net.cpp:446] Pooling1 <- BatchNorm3
I0418 00:22:58.997977 30699 net.cpp:420] Pooling1 -> Pooling1
I0418 00:22:58.998013 30699 net.cpp:162] Setting up Pooling1
I0418 00:22:58.998016 30699 net.cpp:169] Top shape: 2 128 75 75 (1440000)
I0418 00:22:58.998034 30699 net.cpp:177] Memory required for data: 241920032
I0418 00:22:58.998037 30699 layer_factory.hpp:77] Creating layer Pooling1_Pooling1_0_split
I0418 00:22:58.998049 30699 net.cpp:112] Creating Layer Pooling1_Pooling1_0_split
I0418 00:22:58.998054 30699 net.cpp:446] Pooling1_Pooling1_0_split <- Pooling1
I0418 00:22:58.998057 30699 net.cpp:420] Pooling1_Pooling1_0_split -> Pooling1_Pooling1_0_split_0
I0418 00:22:58.998064 30699 net.cpp:420] Pooling1_Pooling1_0_split -> Pooling1_Pooling1_0_split_1
I0418 00:22:58.998090 30699 net.cpp:162] Setting up Pooling1_Pooling1_0_split
I0418 00:22:58.998092 30699 net.cpp:169] Top shape: 2 128 75 75 (1440000)
I0418 00:22:58.998096 30699 net.cpp:169] Top shape: 2 128 75 75 (1440000)
I0418 00:22:58.998100 30699 net.cpp:177] Memory required for data: 253440032
I0418 00:22:58.998103 30699 layer_factory.hpp:77] Creating layer Convolution4
I0418 00:22:58.998112 30699 net.cpp:112] Creating Layer Convolution4
I0418 00:22:58.998116 30699 net.cpp:446] Convolution4 <- Pooling1_Pooling1_0_split_0
I0418 00:22:58.998121 30699 net.cpp:420] Convolution4 -> Convolution4
I0418 00:22:58.999490 30699 net.cpp:162] Setting up Convolution4
I0418 00:22:58.999497 30699 net.cpp:169] Top shape: 2 32 75 75 (360000)
I0418 00:22:58.999502 30699 net.cpp:177] Memory required for data: 254880032
I0418 00:22:58.999507 30699 layer_factory.hpp:77] Creating layer BatchNorm4
I0418 00:22:58.999516 30699 net.cpp:112] Creating Layer BatchNorm4
I0418 00:22:58.999519 30699 net.cpp:446] BatchNorm4 <- Convolution4
I0418 00:22:58.999523 30699 net.cpp:407] BatchNorm4 -> Convolution4 (in-place)
I0418 00:22:58.999652 30699 net.cpp:162] Setting up BatchNorm4
I0418 00:22:58.999656 30699 net.cpp:169] Top shape: 2 32 75 75 (360000)
I0418 00:22:58.999660 30699 net.cpp:177] Memory required for data: 256320032
I0418 00:22:58.999663 30699 layer_factory.hpp:77] Creating layer Scale4
I0418 00:22:58.999670 30699 net.cpp:112] Creating Layer Scale4
I0418 00:22:58.999671 30699 net.cpp:446] Scale4 <- Convolution4
I0418 00:22:58.999675 30699 net.cpp:407] Scale4 -> Convolution4 (in-place)
I0418 00:22:58.999701 30699 layer_factory.hpp:77] Creating layer Scale4
I0418 00:22:58.999773 30699 net.cpp:162] Setting up Scale4
I0418 00:22:58.999778 30699 net.cpp:169] Top shape: 2 32 75 75 (360000)
I0418 00:22:58.999780 30699 net.cpp:177] Memory required for data: 257760032
I0418 00:22:58.999784 30699 layer_factory.hpp:77] Creating layer ConvolutionDepthwise3
I0418 00:22:58.999791 30699 net.cpp:112] Creating Layer ConvolutionDepthwise3
I0418 00:22:58.999795 30699 net.cpp:446] ConvolutionDepthwise3 <- Convolution4
I0418 00:22:58.999799 30699 net.cpp:420] ConvolutionDepthwise3 -> ConvolutionDepthwise3
I0418 00:22:58.999862 30699 net.cpp:162] Setting up ConvolutionDepthwise3
I0418 00:22:58.999866 30699 net.cpp:169] Top shape: 2 32 75 75 (360000)
I0418 00:22:58.999868 30699 net.cpp:177] Memory required for data: 259200032
I0418 00:22:58.999871 30699 layer_factory.hpp:77] Creating layer BatchNorm5
I0418 00:22:58.999876 30699 net.cpp:112] Creating Layer BatchNorm5
I0418 00:22:58.999879 30699 net.cpp:446] BatchNorm5 <- ConvolutionDepthwise3
I0418 00:22:58.999882 30699 net.cpp:407] BatchNorm5 -> ConvolutionDepthwise3 (in-place)
I0418 00:22:59.000005 30699 net.cpp:162] Setting up BatchNorm5
I0418 00:22:59.000007 30699 net.cpp:169] Top shape: 2 32 75 75 (360000)
I0418 00:22:59.000010 30699 net.cpp:177] Memory required for data: 260640032
I0418 00:22:59.000015 30699 layer_factory.hpp:77] Creating layer Scale5
I0418 00:22:59.000018 30699 net.cpp:112] Creating Layer Scale5
I0418 00:22:59.000021 30699 net.cpp:446] Scale5 <- ConvolutionDepthwise3
I0418 00:22:59.000025 30699 net.cpp:407] Scale5 -> ConvolutionDepthwise3 (in-place)
I0418 00:22:59.000047 30699 layer_factory.hpp:77] Creating layer Scale5
I0418 00:22:59.000118 30699 net.cpp:162] Setting up Scale5
I0418 00:22:59.000120 30699 net.cpp:169] Top shape: 2 32 75 75 (360000)
I0418 00:22:59.000124 30699 net.cpp:177] Memory required for data: 262080032
I0418 00:22:59.000138 30699 layer_factory.hpp:77] Creating layer ReLU4
I0418 00:22:59.000144 30699 net.cpp:112] Creating Layer ReLU4
I0418 00:22:59.000146 30699 net.cpp:446] ReLU4 <- ConvolutionDepthwise3
I0418 00:22:59.000149 30699 net.cpp:407] ReLU4 -> ConvolutionDepthwise3 (in-place)
I0418 00:22:59.000558 30699 net.cpp:162] Setting up ReLU4
I0418 00:22:59.000564 30699 net.cpp:169] Top shape: 2 32 75 75 (360000)
I0418 00:22:59.000568 30699 net.cpp:177] Memory required for data: 263520032
I0418 00:22:59.000571 30699 layer_factory.hpp:77] Creating layer Concat1
I0418 00:22:59.000581 30699 net.cpp:112] Creating Layer Concat1
I0418 00:22:59.000586 30699 net.cpp:446] Concat1 <- Pooling1_Pooling1_0_split_1
I0418 00:22:59.000588 30699 net.cpp:446] Concat1 <- ConvolutionDepthwise3
I0418 00:22:59.000591 30699 net.cpp:420] Concat1 -> Concat1
I0418 00:22:59.000612 30699 net.cpp:162] Setting up Concat1
I0418 00:22:59.000615 30699 net.cpp:169] Top shape: 2 160 75 75 (1800000)
I0418 00:22:59.000618 30699 net.cpp:177] Memory required for data: 270720032
I0418 00:22:59.000622 30699 layer_factory.hpp:77] Creating layer Concat1_Concat1_0_split
I0418 00:22:59.000624 30699 net.cpp:112] Creating Layer Concat1_Concat1_0_split
I0418 00:22:59.000627 30699 net.cpp:446] Concat1_Concat1_0_split <- Concat1
I0418 00:22:59.000630 30699 net.cpp:420] Concat1_Concat1_0_split -> Concat1_Concat1_0_split_0
I0418 00:22:59.000634 30699 net.cpp:420] Concat1_Concat1_0_split -> Concat1_Concat1_0_split_1
I0418 00:22:59.000658 30699 net.cpp:162] Setting up Concat1_Concat1_0_split
I0418 00:22:59.000663 30699 net.cpp:169] Top shape: 2 160 75 75 (1800000)
I0418 00:22:59.000666 30699 net.cpp:169] Top shape: 2 160 75 75 (1800000)
I0418 00:22:59.000669 30699 net.cpp:177] Memory required for data: 285120032
I0418 00:22:59.000671 30699 layer_factory.hpp:77] Creating layer Convolution5
I0418 00:22:59.000679 30699 net.cpp:112] Creating Layer Convolution5
I0418 00:22:59.000680 30699 net.cpp:446] Convolution5 <- Concat1_Concat1_0_split_0
I0418 00:22:59.000684 30699 net.cpp:420] Convolution5 -> Convolution5
I0418 00:22:59.001938 30699 net.cpp:162] Setting up Convolution5
I0418 00:22:59.001952 30699 net.cpp:169] Top shape: 2 32 75 75 (360000)
I0418 00:22:59.001957 30699 net.cpp:177] Memory required for data: 286560032
I0418 00:22:59.001967 30699 layer_factory.hpp:77] Creating layer BatchNorm6
I0418 00:22:59.001973 30699 net.cpp:112] Creating Layer BatchNorm6
I0418 00:22:59.001978 30699 net.cpp:446] BatchNorm6 <- Convolution5
I0418 00:22:59.001983 30699 net.cpp:407] BatchNorm6 -> Convolution5 (in-place)
I0418 00:22:59.002104 30699 net.cpp:162] Setting up BatchNorm6
I0418 00:22:59.002108 30699 net.cpp:169] Top shape: 2 32 75 75 (360000)
I0418 00:22:59.002111 30699 net.cpp:177] Memory required for data: 288000032
I0418 00:22:59.002116 30699 layer_factory.hpp:77] Creating layer Scale6
I0418 00:22:59.002120 30699 net.cpp:112] Creating Layer Scale6
I0418 00:22:59.002122 30699 net.cpp:446] Scale6 <- Convolution5
I0418 00:22:59.002125 30699 net.cpp:407] Scale6 -> Convolution5 (in-place)
I0418 00:22:59.002151 30699 layer_factory.hpp:77] Creating layer Scale6
I0418 00:22:59.002226 30699 net.cpp:162] Setting up Scale6
I0418 00:22:59.002229 30699 net.cpp:169] Top shape: 2 32 75 75 (360000)
I0418 00:22:59.002233 30699 net.cpp:177] Memory required for data: 289440032
I0418 00:22:59.002238 30699 layer_factory.hpp:77] Creating layer ConvolutionDepthwise4
I0418 00:22:59.002246 30699 net.cpp:112] Creating Layer ConvolutionDepthwise4
I0418 00:22:59.002250 30699 net.cpp:446] ConvolutionDepthwise4 <- Convolution5
I0418 00:22:59.002257 30699 net.cpp:420] ConvolutionDepthwise4 -> ConvolutionDepthwise4
I0418 00:22:59.002323 30699 net.cpp:162] Setting up ConvolutionDepthwise4
I0418 00:22:59.002327 30699 net.cpp:169] Top shape: 2 32 75 75 (360000)
I0418 00:22:59.002331 30699 net.cpp:177] Memory required for data: 290880032
I0418 00:22:59.002336 30699 layer_factory.hpp:77] Creating layer BatchNorm7
I0418 00:22:59.002344 30699 net.cpp:112] Creating Layer BatchNorm7
I0418 00:22:59.002347 30699 net.cpp:446] BatchNorm7 <- ConvolutionDepthwise4
I0418 00:22:59.002363 30699 net.cpp:407] BatchNorm7 -> ConvolutionDepthwise4 (in-place)
I0418 00:22:59.002485 30699 net.cpp:162] Setting up BatchNorm7
I0418 00:22:59.002490 30699 net.cpp:169] Top shape: 2 32 75 75 (360000)
I0418 00:22:59.002492 30699 net.cpp:177] Memory required for data: 292320032
I0418 00:22:59.002497 30699 layer_factory.hpp:77] Creating layer Scale7
I0418 00:22:59.002504 30699 net.cpp:112] Creating Layer Scale7
I0418 00:22:59.002507 30699 net.cpp:446] Scale7 <- ConvolutionDepthwise4
I0418 00:22:59.002511 30699 net.cpp:407] Scale7 -> ConvolutionDepthwise4 (in-place)
I0418 00:22:59.002533 30699 layer_factory.hpp:77] Creating layer Scale7
I0418 00:22:59.002605 30699 net.cpp:162] Setting up Scale7
I0418 00:22:59.002609 30699 net.cpp:169] Top shape: 2 32 75 75 (360000)
I0418 00:22:59.002611 30699 net.cpp:177] Memory required for data: 293760032
I0418 00:22:59.002615 30699 layer_factory.hpp:77] Creating layer ReLU5
I0418 00:22:59.002619 30699 net.cpp:112] Creating Layer ReLU5
I0418 00:22:59.002621 30699 net.cpp:446] ReLU5 <- ConvolutionDepthwise4
I0418 00:22:59.002624 30699 net.cpp:407] ReLU5 -> ConvolutionDepthwise4 (in-place)
I0418 00:22:59.003888 30699 net.cpp:162] Setting up ReLU5
I0418 00:22:59.003897 30699 net.cpp:169] Top shape: 2 32 75 75 (360000)
I0418 00:22:59.003902 30699 net.cpp:177] Memory required for data: 295200032
I0418 00:22:59.003906 30699 layer_factory.hpp:77] Creating layer Concat2
I0418 00:22:59.003912 30699 net.cpp:112] Creating Layer Concat2
I0418 00:22:59.003916 30699 net.cpp:446] Concat2 <- Concat1_Concat1_0_split_1
I0418 00:22:59.003921 30699 net.cpp:446] Concat2 <- ConvolutionDepthwise4
I0418 00:22:59.003924 30699 net.cpp:420] Concat2 -> Concat2
I0418 00:22:59.003947 30699 net.cpp:162] Setting up Concat2
I0418 00:22:59.003952 30699 net.cpp:169] Top shape: 2 192 75 75 (2160000)
I0418 00:22:59.003954 30699 net.cpp:177] Memory required for data: 303840032
I0418 00:22:59.003957 30699 layer_factory.hpp:77] Creating layer Concat2_Concat2_0_split
I0418 00:22:59.003962 30699 net.cpp:112] Creating Layer Concat2_Concat2_0_split
I0418 00:22:59.003968 30699 net.cpp:446] Concat2_Concat2_0_split <- Concat2
I0418 00:22:59.003970 30699 net.cpp:420] Concat2_Concat2_0_split -> Concat2_Concat2_0_split_0
I0418 00:22:59.003975 30699 net.cpp:420] Concat2_Concat2_0_split -> Concat2_Concat2_0_split_1
I0418 00:22:59.003998 30699 net.cpp:162] Setting up Concat2_Concat2_0_split
I0418 00:22:59.004011 30699 net.cpp:169] Top shape: 2 192 75 75 (2160000)
I0418 00:22:59.004014 30699 net.cpp:169] Top shape: 2 192 75 75 (2160000)
I0418 00:22:59.004017 30699 net.cpp:177] Memory required for data: 321120032
I0418 00:22:59.004019 30699 layer_factory.hpp:77] Creating layer Convolution6
I0418 00:22:59.004036 30699 net.cpp:112] Creating Layer Convolution6
I0418 00:22:59.004040 30699 net.cpp:446] Convolution6 <- Concat2_Concat2_0_split_0
I0418 00:22:59.004043 30699 net.cpp:420] Convolution6 -> Convolution6
I0418 00:22:59.005296 30699 net.cpp:162] Setting up Convolution6
I0418 00:22:59.005304 30699 net.cpp:169] Top shape: 2 32 75 75 (360000)
I0418 00:22:59.005308 30699 net.cpp:177] Memory required for data: 322560032
I0418 00:22:59.005312 30699 layer_factory.hpp:77] Creating layer BatchNorm8
I0418 00:22:59.005317 30699 net.cpp:112] Creating Layer BatchNorm8
I0418 00:22:59.005321 30699 net.cpp:446] BatchNorm8 <- Convolution6
I0418 00:22:59.005323 30699 net.cpp:407] BatchNorm8 -> Convolution6 (in-place)
I0418 00:22:59.005450 30699 net.cpp:162] Setting up BatchNorm8
I0418 00:22:59.005455 30699 net.cpp:169] Top shape: 2 32 75 75 (360000)
I0418 00:22:59.005458 30699 net.cpp:177] Memory required for data: 324000032
I0418 00:22:59.005465 30699 layer_factory.hpp:77] Creating layer Scale8
I0418 00:22:59.005471 30699 net.cpp:112] Creating Layer Scale8
I0418 00:22:59.005475 30699 net.cpp:446] Scale8 <- Convolution6
I0418 00:22:59.005478 30699 net.cpp:407] Scale8 -> Convolution6 (in-place)
I0418 00:22:59.005506 30699 layer_factory.hpp:77] Creating layer Scale8
I0418 00:22:59.005583 30699 net.cpp:162] Setting up Scale8
I0418 00:22:59.005596 30699 net.cpp:169] Top shape: 2 32 75 75 (360000)
I0418 00:22:59.005600 30699 net.cpp:177] Memory required for data: 325440032
I0418 00:22:59.005606 30699 layer_factory.hpp:77] Creating layer ConvolutionDepthwise5
I0418 00:22:59.005614 30699 net.cpp:112] Creating Layer ConvolutionDepthwise5
I0418 00:22:59.005618 30699 net.cpp:446] ConvolutionDepthwise5 <- Convolution6
I0418 00:22:59.005625 30699 net.cpp:420] ConvolutionDepthwise5 -> ConvolutionDepthwise5
I0418 00:22:59.005694 30699 net.cpp:162] Setting up ConvolutionDepthwise5
I0418 00:22:59.005698 30699 net.cpp:169] Top shape: 2 32 75 75 (360000)
I0418 00:22:59.005702 30699 net.cpp:177] Memory required for data: 326880032
I0418 00:22:59.005707 30699 layer_factory.hpp:77] Creating layer BatchNorm9
I0418 00:22:59.005712 30699 net.cpp:112] Creating Layer BatchNorm9
I0418 00:22:59.005715 30699 net.cpp:446] BatchNorm9 <- ConvolutionDepthwise5
I0418 00:22:59.005722 30699 net.cpp:407] BatchNorm9 -> ConvolutionDepthwise5 (in-place)
I0418 00:22:59.005841 30699 net.cpp:162] Setting up BatchNorm9
I0418 00:22:59.005844 30699 net.cpp:169] Top shape: 2 32 75 75 (360000)
I0418 00:22:59.005848 30699 net.cpp:177] Memory required for data: 328320032
I0418 00:22:59.005856 30699 layer_factory.hpp:77] Creating layer Scale9
I0418 00:22:59.005861 30699 net.cpp:112] Creating Layer Scale9
I0418 00:22:59.005865 30699 net.cpp:446] Scale9 <- ConvolutionDepthwise5
I0418 00:22:59.005869 30699 net.cpp:407] Scale9 -> ConvolutionDepthwise5 (in-place)
I0418 00:22:59.005895 30699 layer_factory.hpp:77] Creating layer Scale9
I0418 00:22:59.005975 30699 net.cpp:162] Setting up Scale9
I0418 00:22:59.005981 30699 net.cpp:169] Top shape: 2 32 75 75 (360000)
I0418 00:22:59.005985 30699 net.cpp:177] Memory required for data: 329760032
I0418 00:22:59.005990 30699 layer_factory.hpp:77] Creating layer ReLU6
I0418 00:22:59.005995 30699 net.cpp:112] Creating Layer ReLU6
I0418 00:22:59.006000 30699 net.cpp:446] ReLU6 <- ConvolutionDepthwise5
I0418 00:22:59.006005 30699 net.cpp:407] ReLU6 -> ConvolutionDepthwise5 (in-place)
I0418 00:22:59.006414 30699 net.cpp:162] Setting up ReLU6
I0418 00:22:59.006420 30699 net.cpp:169] Top shape: 2 32 75 75 (360000)
I0418 00:22:59.006424 30699 net.cpp:177] Memory required for data: 331200032
I0418 00:22:59.006426 30699 layer_factory.hpp:77] Creating layer Concat3
I0418 00:22:59.006433 30699 net.cpp:112] Creating Layer Concat3
I0418 00:22:59.006435 30699 net.cpp:446] Concat3 <- Concat2_Concat2_0_split_1
I0418 00:22:59.006438 30699 net.cpp:446] Concat3 <- ConvolutionDepthwise5
I0418 00:22:59.006444 30699 net.cpp:420] Concat3 -> Concat3
I0418 00:22:59.006469 30699 net.cpp:162] Setting up Concat3
I0418 00:22:59.006472 30699 net.cpp:169] Top shape: 2 224 75 75 (2520000)
I0418 00:22:59.006476 30699 net.cpp:177] Memory required for data: 341280032
I0418 00:22:59.006479 30699 layer_factory.hpp:77] Creating layer Concat3_Concat3_0_split
I0418 00:22:59.006484 30699 net.cpp:112] Creating Layer Concat3_Concat3_0_split
I0418 00:22:59.006489 30699 net.cpp:446] Concat3_Concat3_0_split <- Concat3
I0418 00:22:59.006494 30699 net.cpp:420] Concat3_Concat3_0_split -> Concat3_Concat3_0_split_0
I0418 00:22:59.006500 30699 net.cpp:420] Concat3_Concat3_0_split -> Concat3_Concat3_0_split_1
I0418 00:22:59.006525 30699 net.cpp:162] Setting up Concat3_Concat3_0_split
I0418 00:22:59.006527 30699 net.cpp:169] Top shape: 2 224 75 75 (2520000)
I0418 00:22:59.006531 30699 net.cpp:169] Top shape: 2 224 75 75 (2520000)
I0418 00:22:59.006533 30699 net.cpp:177] Memory required for data: 361440032
I0418 00:22:59.006536 30699 layer_factory.hpp:77] Creating layer Convolution7
I0418 00:22:59.006546 30699 net.cpp:112] Creating Layer Convolution7
I0418 00:22:59.006549 30699 net.cpp:446] Convolution7 <- Concat3_Concat3_0_split_0
I0418 00:22:59.006553 30699 net.cpp:420] Convolution7 -> Convolution7
I0418 00:22:59.007885 30699 net.cpp:162] Setting up Convolution7
I0418 00:22:59.007894 30699 net.cpp:169] Top shape: 2 32 75 75 (360000)
I0418 00:22:59.007897 30699 net.cpp:177] Memory required for data: 362880032
I0418 00:22:59.007913 30699 layer_factory.hpp:77] Creating layer BatchNorm10
I0418 00:22:59.007920 30699 net.cpp:112] Creating Layer BatchNorm10
I0418 00:22:59.007925 30699 net.cpp:446] BatchNorm10 <- Convolution7
I0418 00:22:59.007931 30699 net.cpp:407] BatchNorm10 -> Convolution7 (in-place)
I0418 00:22:59.008055 30699 net.cpp:162] Setting up BatchNorm10
I0418 00:22:59.008059 30699 net.cpp:169] Top shape: 2 32 75 75 (360000)
I0418 00:22:59.008062 30699 net.cpp:177] Memory required for data: 364320032
I0418 00:22:59.008069 30699 layer_factory.hpp:77] Creating layer Scale10
I0418 00:22:59.008074 30699 net.cpp:112] Creating Layer Scale10
I0418 00:22:59.008075 30699 net.cpp:446] Scale10 <- Convolution7
I0418 00:22:59.008078 30699 net.cpp:407] Scale10 -> Convolution7 (in-place)
I0418 00:22:59.008102 30699 layer_factory.hpp:77] Creating layer Scale10
I0418 00:22:59.008683 30699 net.cpp:162] Setting up Scale10
I0418 00:22:59.008690 30699 net.cpp:169] Top shape: 2 32 75 75 (360000)
I0418 00:22:59.008694 30699 net.cpp:177] Memory required for data: 365760032
I0418 00:22:59.008699 30699 layer_factory.hpp:77] Creating layer ConvolutionDepthwise6
I0418 00:22:59.008705 30699 net.cpp:112] Creating Layer ConvolutionDepthwise6
I0418 00:22:59.008709 30699 net.cpp:446] ConvolutionDepthwise6 <- Convolution7
I0418 00:22:59.008714 30699 net.cpp:420] ConvolutionDepthwise6 -> ConvolutionDepthwise6
I0418 00:22:59.008785 30699 net.cpp:162] Setting up ConvolutionDepthwise6
I0418 00:22:59.008790 30699 net.cpp:169] Top shape: 2 32 75 75 (360000)
I0418 00:22:59.008792 30699 net.cpp:177] Memory required for data: 367200032
I0418 00:22:59.008795 30699 layer_factory.hpp:77] Creating layer BatchNorm11
I0418 00:22:59.008798 30699 net.cpp:112] Creating Layer BatchNorm11
I0418 00:22:59.008800 30699 net.cpp:446] BatchNorm11 <- ConvolutionDepthwise6
I0418 00:22:59.008806 30699 net.cpp:407] BatchNorm11 -> ConvolutionDepthwise6 (in-place)
I0418 00:22:59.008934 30699 net.cpp:162] Setting up BatchNorm11
I0418 00:22:59.008937 30699 net.cpp:169] Top shape: 2 32 75 75 (360000)
I0418 00:22:59.008940 30699 net.cpp:177] Memory required for data: 368640032
I0418 00:22:59.008950 30699 layer_factory.hpp:77] Creating layer Scale11
I0418 00:22:59.008957 30699 net.cpp:112] Creating Layer Scale11
I0418 00:22:59.008960 30699 net.cpp:446] Scale11 <- ConvolutionDepthwise6
I0418 00:22:59.008966 30699 net.cpp:407] Scale11 -> ConvolutionDepthwise6 (in-place)
I0418 00:22:59.008994 30699 layer_factory.hpp:77] Creating layer Scale11
I0418 00:22:59.009074 30699 net.cpp:162] Setting up Scale11
I0418 00:22:59.009088 30699 net.cpp:169] Top shape: 2 32 75 75 (360000)
I0418 00:22:59.009091 30699 net.cpp:177] Memory required for data: 370080032
I0418 00:22:59.009104 30699 layer_factory.hpp:77] Creating layer ReLU7
I0418 00:22:59.009109 30699 net.cpp:112] Creating Layer ReLU7
I0418 00:22:59.009112 30699 net.cpp:446] ReLU7 <- ConvolutionDepthwise6
I0418 00:22:59.009116 30699 net.cpp:407] ReLU7 -> ConvolutionDepthwise6 (in-place)
I0418 00:22:59.009428 30699 net.cpp:162] Setting up ReLU7
I0418 00:22:59.009433 30699 net.cpp:169] Top shape: 2 32 75 75 (360000)
I0418 00:22:59.009438 30699 net.cpp:177] Memory required for data: 371520032
I0418 00:22:59.009443 30699 layer_factory.hpp:77] Creating layer Concat4
I0418 00:22:59.009450 30699 net.cpp:112] Creating Layer Concat4
I0418 00:22:59.009454 30699 net.cpp:446] Concat4 <- Concat3_Concat3_0_split_1
I0418 00:22:59.009457 30699 net.cpp:446] Concat4 <- ConvolutionDepthwise6
I0418 00:22:59.009464 30699 net.cpp:420] Concat4 -> Concat4
I0418 00:22:59.009482 30699 net.cpp:162] Setting up Concat4
I0418 00:22:59.009485 30699 net.cpp:169] Top shape: 2 256 75 75 (2880000)
I0418 00:22:59.009488 30699 net.cpp:177] Memory required for data: 383040032
I0418 00:22:59.009491 30699 layer_factory.hpp:77] Creating layer Convolution8
I0418 00:22:59.009500 30699 net.cpp:112] Creating Layer Convolution8
I0418 00:22:59.009503 30699 net.cpp:446] Convolution8 <- Concat4
I0418 00:22:59.009507 30699 net.cpp:420] Convolution8 -> Convolution8
I0418 00:22:59.011770 30699 net.cpp:162] Setting up Convolution8
I0418 00:22:59.011780 30699 net.cpp:169] Top shape: 2 128 75 75 (1440000)
I0418 00:22:59.011785 30699 net.cpp:177] Memory required for data: 388800032
I0418 00:22:59.011790 30699 layer_factory.hpp:77] Creating layer BatchNorm12
I0418 00:22:59.011798 30699 net.cpp:112] Creating Layer BatchNorm12
I0418 00:22:59.011801 30699 net.cpp:446] BatchNorm12 <- Convolution8
I0418 00:22:59.011806 30699 net.cpp:420] BatchNorm12 -> BatchNorm12
I0418 00:22:59.011941 30699 net.cpp:162] Setting up BatchNorm12
I0418 00:22:59.011945 30699 net.cpp:169] Top shape: 2 128 75 75 (1440000)
I0418 00:22:59.011950 30699 net.cpp:177] Memory required for data: 394560032
I0418 00:22:59.011953 30699 layer_factory.hpp:77] Creating layer Scale12
I0418 00:22:59.011958 30699 net.cpp:112] Creating Layer Scale12
I0418 00:22:59.011960 30699 net.cpp:446] Scale12 <- BatchNorm12
I0418 00:22:59.011965 30699 net.cpp:407] Scale12 -> BatchNorm12 (in-place)
I0418 00:22:59.011993 30699 layer_factory.hpp:77] Creating layer Scale12
I0418 00:22:59.012068 30699 net.cpp:162] Setting up Scale12
I0418 00:22:59.012071 30699 net.cpp:169] Top shape: 2 128 75 75 (1440000)
I0418 00:22:59.012075 30699 net.cpp:177] Memory required for data: 400320032
I0418 00:22:59.012080 30699 layer_factory.hpp:77] Creating layer ReLU8
I0418 00:22:59.012086 30699 net.cpp:112] Creating Layer ReLU8
I0418 00:22:59.012090 30699 net.cpp:446] ReLU8 <- BatchNorm12
I0418 00:22:59.012095 30699 net.cpp:420] ReLU8 -> ReLU8
I0418 00:22:59.012414 30699 net.cpp:162] Setting up ReLU8
I0418 00:22:59.012420 30699 net.cpp:169] Top shape: 2 128 75 75 (1440000)
I0418 00:22:59.012424 30699 net.cpp:177] Memory required for data: 406080032
I0418 00:22:59.012428 30699 layer_factory.hpp:77] Creating layer Pooling2
I0418 00:22:59.012436 30699 net.cpp:112] Creating Layer Pooling2
I0418 00:22:59.012440 30699 net.cpp:446] Pooling2 <- ReLU8
I0418 00:22:59.012444 30699 net.cpp:420] Pooling2 -> Pooling2
I0418 00:22:59.012472 30699 net.cpp:162] Setting up Pooling2
I0418 00:22:59.012475 30699 net.cpp:169] Top shape: 2 128 38 38 (369664)
I0418 00:22:59.012478 30699 net.cpp:177] Memory required for data: 407558688
I0418 00:22:59.012480 30699 layer_factory.hpp:77] Creating layer Pooling2_Pooling2_0_split
I0418 00:22:59.012486 30699 net.cpp:112] Creating Layer Pooling2_Pooling2_0_split
I0418 00:22:59.012490 30699 net.cpp:446] Pooling2_Pooling2_0_split <- Pooling2
I0418 00:22:59.012493 30699 net.cpp:420] Pooling2_Pooling2_0_split -> Pooling2_Pooling2_0_split_0
I0418 00:22:59.012498 30699 net.cpp:420] Pooling2_Pooling2_0_split -> Pooling2_Pooling2_0_split_1
I0418 00:22:59.012519 30699 net.cpp:162] Setting up Pooling2_Pooling2_0_split
I0418 00:22:59.012523 30699 net.cpp:169] Top shape: 2 128 38 38 (369664)
I0418 00:22:59.012526 30699 net.cpp:169] Top shape: 2 128 38 38 (369664)
I0418 00:22:59.012528 30699 net.cpp:177] Memory required for data: 410516000
I0418 00:22:59.012531 30699 layer_factory.hpp:77] Creating layer Convolution9
I0418 00:22:59.012537 30699 net.cpp:112] Creating Layer Convolution9
I0418 00:22:59.012540 30699 net.cpp:446] Convolution9 <- Pooling2_Pooling2_0_split_0
I0418 00:22:59.012544 30699 net.cpp:420] Convolution9 -> Convolution9
I0418 00:22:59.013886 30699 net.cpp:162] Setting up Convolution9
I0418 00:22:59.013893 30699 net.cpp:169] Top shape: 2 48 38 38 (138624)
I0418 00:22:59.013897 30699 net.cpp:177] Memory required for data: 411070496
I0418 00:22:59.013901 30699 layer_factory.hpp:77] Creating layer BatchNorm13
I0418 00:22:59.013906 30699 net.cpp:112] Creating Layer BatchNorm13
I0418 00:22:59.013909 30699 net.cpp:446] BatchNorm13 <- Convolution9
I0418 00:22:59.013914 30699 net.cpp:407] BatchNorm13 -> Convolution9 (in-place)
I0418 00:22:59.014056 30699 net.cpp:162] Setting up BatchNorm13
I0418 00:22:59.014061 30699 net.cpp:169] Top shape: 2 48 38 38 (138624)
I0418 00:22:59.014065 30699 net.cpp:177] Memory required for data: 411624992
I0418 00:22:59.014070 30699 layer_factory.hpp:77] Creating layer Scale13
I0418 00:22:59.014076 30699 net.cpp:112] Creating Layer Scale13
I0418 00:22:59.014092 30699 net.cpp:446] Scale13 <- Convolution9
I0418 00:22:59.014097 30699 net.cpp:407] Scale13 -> Convolution9 (in-place)
I0418 00:22:59.014127 30699 layer_factory.hpp:77] Creating layer Scale13
I0418 00:22:59.014201 30699 net.cpp:162] Setting up Scale13
I0418 00:22:59.014205 30699 net.cpp:169] Top shape: 2 48 38 38 (138624)
I0418 00:22:59.014209 30699 net.cpp:177] Memory required for data: 412179488
I0418 00:22:59.014214 30699 layer_factory.hpp:77] Creating layer ConvolutionDepthwise7
I0418 00:22:59.014221 30699 net.cpp:112] Creating Layer ConvolutionDepthwise7
I0418 00:22:59.014225 30699 net.cpp:446] ConvolutionDepthwise7 <- Convolution9
I0418 00:22:59.014230 30699 net.cpp:420] ConvolutionDepthwise7 -> ConvolutionDepthwise7
I0418 00:22:59.014294 30699 net.cpp:162] Setting up ConvolutionDepthwise7
I0418 00:22:59.014298 30699 net.cpp:169] Top shape: 2 48 38 38 (138624)
I0418 00:22:59.014302 30699 net.cpp:177] Memory required for data: 412733984
I0418 00:22:59.014304 30699 layer_factory.hpp:77] Creating layer BatchNorm14
I0418 00:22:59.014309 30699 net.cpp:112] Creating Layer BatchNorm14
I0418 00:22:59.014312 30699 net.cpp:446] BatchNorm14 <- ConvolutionDepthwise7
I0418 00:22:59.014317 30699 net.cpp:407] BatchNorm14 -> ConvolutionDepthwise7 (in-place)
I0418 00:22:59.014436 30699 net.cpp:162] Setting up BatchNorm14
I0418 00:22:59.014439 30699 net.cpp:169] Top shape: 2 48 38 38 (138624)
I0418 00:22:59.014442 30699 net.cpp:177] Memory required for data: 413288480
I0418 00:22:59.014446 30699 layer_factory.hpp:77] Creating layer Scale14
I0418 00:22:59.014453 30699 net.cpp:112] Creating Layer Scale14
I0418 00:22:59.014456 30699 net.cpp:446] Scale14 <- ConvolutionDepthwise7
I0418 00:22:59.014459 30699 net.cpp:407] Scale14 -> ConvolutionDepthwise7 (in-place)
I0418 00:22:59.014483 30699 layer_factory.hpp:77] Creating layer Scale14
I0418 00:22:59.014554 30699 net.cpp:162] Setting up Scale14
I0418 00:22:59.014556 30699 net.cpp:169] Top shape: 2 48 38 38 (138624)
I0418 00:22:59.014559 30699 net.cpp:177] Memory required for data: 413842976
I0418 00:22:59.014562 30699 layer_factory.hpp:77] Creating layer ReLU9
I0418 00:22:59.014566 30699 net.cpp:112] Creating Layer ReLU9
I0418 00:22:59.014569 30699 net.cpp:446] ReLU9 <- ConvolutionDepthwise7
I0418 00:22:59.014571 30699 net.cpp:407] ReLU9 -> ConvolutionDepthwise7 (in-place)
I0418 00:22:59.014987 30699 net.cpp:162] Setting up ReLU9
I0418 00:22:59.014994 30699 net.cpp:169] Top shape: 2 48 38 38 (138624)
I0418 00:22:59.014998 30699 net.cpp:177] Memory required for data: 414397472
I0418 00:22:59.015000 30699 layer_factory.hpp:77] Creating layer Concat5
I0418 00:22:59.015007 30699 net.cpp:112] Creating Layer Concat5
I0418 00:22:59.015012 30699 net.cpp:446] Concat5 <- Pooling2_Pooling2_0_split_1
I0418 00:22:59.015017 30699 net.cpp:446] Concat5 <- ConvolutionDepthwise7
I0418 00:22:59.015020 30699 net.cpp:420] Concat5 -> Concat5
I0418 00:22:59.015040 30699 net.cpp:162] Setting up Concat5
I0418 00:22:59.015043 30699 net.cpp:169] Top shape: 2 176 38 38 (508288)
I0418 00:22:59.015046 30699 net.cpp:177] Memory required for data: 416430624
I0418 00:22:59.015048 30699 layer_factory.hpp:77] Creating layer Concat5_Concat5_0_split
I0418 00:22:59.015053 30699 net.cpp:112] Creating Layer Concat5_Concat5_0_split
I0418 00:22:59.015054 30699 net.cpp:446] Concat5_Concat5_0_split <- Concat5
I0418 00:22:59.015058 30699 net.cpp:420] Concat5_Concat5_0_split -> Concat5_Concat5_0_split_0
I0418 00:22:59.015063 30699 net.cpp:420] Concat5_Concat5_0_split -> Concat5_Concat5_0_split_1
I0418 00:22:59.015086 30699 net.cpp:162] Setting up Concat5_Concat5_0_split
I0418 00:22:59.015090 30699 net.cpp:169] Top shape: 2 176 38 38 (508288)
I0418 00:22:59.015094 30699 net.cpp:169] Top shape: 2 176 38 38 (508288)
I0418 00:22:59.015095 30699 net.cpp:177] Memory required for data: 420496928
I0418 00:22:59.015097 30699 layer_factory.hpp:77] Creating layer Convolution10
I0418 00:22:59.015107 30699 net.cpp:112] Creating Layer Convolution10
I0418 00:22:59.015111 30699 net.cpp:446] Convolution10 <- Concat5_Concat5_0_split_0
I0418 00:22:59.015130 30699 net.cpp:420] Convolution10 -> Convolution10
I0418 00:22:59.016397 30699 net.cpp:162] Setting up Convolution10
I0418 00:22:59.016404 30699 net.cpp:169] Top shape: 2 48 38 38 (138624)
I0418 00:22:59.016408 30699 net.cpp:177] Memory required for data: 421051424
I0418 00:22:59.016412 30699 layer_factory.hpp:77] Creating layer BatchNorm15
I0418 00:22:59.016417 30699 net.cpp:112] Creating Layer BatchNorm15
I0418 00:22:59.016419 30699 net.cpp:446] BatchNorm15 <- Convolution10
I0418 00:22:59.016423 30699 net.cpp:407] BatchNorm15 -> Convolution10 (in-place)
I0418 00:22:59.016549 30699 net.cpp:162] Setting up BatchNorm15
I0418 00:22:59.016553 30699 net.cpp:169] Top shape: 2 48 38 38 (138624)
I0418 00:22:59.016556 30699 net.cpp:177] Memory required for data: 421605920
I0418 00:22:59.016561 30699 layer_factory.hpp:77] Creating layer Scale15
I0418 00:22:59.016567 30699 net.cpp:112] Creating Layer Scale15
I0418 00:22:59.016571 30699 net.cpp:446] Scale15 <- Convolution10
I0418 00:22:59.016577 30699 net.cpp:407] Scale15 -> Convolution10 (in-place)
I0418 00:22:59.016604 30699 layer_factory.hpp:77] Creating layer Scale15
I0418 00:22:59.016680 30699 net.cpp:162] Setting up Scale15
I0418 00:22:59.016682 30699 net.cpp:169] Top shape: 2 48 38 38 (138624)
I0418 00:22:59.016686 30699 net.cpp:177] Memory required for data: 422160416
I0418 00:22:59.016692 30699 layer_factory.hpp:77] Creating layer ConvolutionDepthwise8
I0418 00:22:59.016700 30699 net.cpp:112] Creating Layer ConvolutionDepthwise8
I0418 00:22:59.016702 30699 net.cpp:446] ConvolutionDepthwise8 <- Convolution10
I0418 00:22:59.016719 30699 net.cpp:420] ConvolutionDepthwise8 -> ConvolutionDepthwise8
I0418 00:22:59.016783 30699 net.cpp:162] Setting up ConvolutionDepthwise8
I0418 00:22:59.016788 30699 net.cpp:169] Top shape: 2 48 38 38 (138624)
I0418 00:22:59.016791 30699 net.cpp:177] Memory required for data: 422714912
I0418 00:22:59.016795 30699 layer_factory.hpp:77] Creating layer BatchNorm16
I0418 00:22:59.016809 30699 net.cpp:112] Creating Layer BatchNorm16
I0418 00:22:59.016814 30699 net.cpp:446] BatchNorm16 <- ConvolutionDepthwise8
I0418 00:22:59.016819 30699 net.cpp:407] BatchNorm16 -> ConvolutionDepthwise8 (in-place)
I0418 00:22:59.016957 30699 net.cpp:162] Setting up BatchNorm16
I0418 00:22:59.016960 30699 net.cpp:169] Top shape: 2 48 38 38 (138624)
I0418 00:22:59.016964 30699 net.cpp:177] Memory required for data: 423269408
I0418 00:22:59.016971 30699 layer_factory.hpp:77] Creating layer Scale16
I0418 00:22:59.016978 30699 net.cpp:112] Creating Layer Scale16
I0418 00:22:59.016980 30699 net.cpp:446] Scale16 <- ConvolutionDepthwise8
I0418 00:22:59.016985 30699 net.cpp:407] Scale16 -> ConvolutionDepthwise8 (in-place)
I0418 00:22:59.017022 30699 layer_factory.hpp:77] Creating layer Scale16
I0418 00:22:59.017104 30699 net.cpp:162] Setting up Scale16
I0418 00:22:59.017108 30699 net.cpp:169] Top shape: 2 48 38 38 (138624)
I0418 00:22:59.017112 30699 net.cpp:177] Memory required for data: 423823904
I0418 00:22:59.017118 30699 layer_factory.hpp:77] Creating layer ReLU10
I0418 00:22:59.017123 30699 net.cpp:112] Creating Layer ReLU10
I0418 00:22:59.017127 30699 net.cpp:446] ReLU10 <- ConvolutionDepthwise8
I0418 00:22:59.017132 30699 net.cpp:407] ReLU10 -> ConvolutionDepthwise8 (in-place)
I0418 00:22:59.018473 30699 net.cpp:162] Setting up ReLU10
I0418 00:22:59.018481 30699 net.cpp:169] Top shape: 2 48 38 38 (138624)
I0418 00:22:59.018496 30699 net.cpp:177] Memory required for data: 424378400
I0418 00:22:59.018499 30699 layer_factory.hpp:77] Creating layer Concat6
I0418 00:22:59.018508 30699 net.cpp:112] Creating Layer Concat6
I0418 00:22:59.018513 30699 net.cpp:446] Concat6 <- Concat5_Concat5_0_split_1
I0418 00:22:59.018518 30699 net.cpp:446] Concat6 <- ConvolutionDepthwise8
I0418 00:22:59.018522 30699 net.cpp:420] Concat6 -> Concat6
I0418 00:22:59.018555 30699 net.cpp:162] Setting up Concat6
I0418 00:22:59.018559 30699 net.cpp:169] Top shape: 2 224 38 38 (646912)
I0418 00:22:59.018563 30699 net.cpp:177] Memory required for data: 426966048
I0418 00:22:59.018587 30699 layer_factory.hpp:77] Creating layer Concat6_Concat6_0_split
I0418 00:22:59.018591 30699 net.cpp:112] Creating Layer Concat6_Concat6_0_split
I0418 00:22:59.018594 30699 net.cpp:446] Concat6_Concat6_0_split <- Concat6
I0418 00:22:59.018597 30699 net.cpp:420] Concat6_Concat6_0_split -> Concat6_Concat6_0_split_0
I0418 00:22:59.018601 30699 net.cpp:420] Concat6_Concat6_0_split -> Concat6_Concat6_0_split_1
I0418 00:22:59.018638 30699 net.cpp:162] Setting up Concat6_Concat6_0_split
I0418 00:22:59.018642 30699 net.cpp:169] Top shape: 2 224 38 38 (646912)
I0418 00:22:59.018646 30699 net.cpp:169] Top shape: 2 224 38 38 (646912)
I0418 00:22:59.018657 30699 net.cpp:177] Memory required for data: 432141344
I0418 00:22:59.018659 30699 layer_factory.hpp:77] Creating layer Convolution11
I0418 00:22:59.018669 30699 net.cpp:112] Creating Layer Convolution11
I0418 00:22:59.018672 30699 net.cpp:446] Convolution11 <- Concat6_Concat6_0_split_0
I0418 00:22:59.018676 30699 net.cpp:420] Convolution11 -> Convolution11
I0418 00:22:59.020027 30699 net.cpp:162] Setting up Convolution11
I0418 00:22:59.020035 30699 net.cpp:169] Top shape: 2 48 38 38 (138624)
I0418 00:22:59.020038 30699 net.cpp:177] Memory required for data: 432695840
I0418 00:22:59.020042 30699 layer_factory.hpp:77] Creating layer BatchNorm17
I0418 00:22:59.020046 30699 net.cpp:112] Creating Layer BatchNorm17
I0418 00:22:59.020051 30699 net.cpp:446] BatchNorm17 <- Convolution11
I0418 00:22:59.020056 30699 net.cpp:407] BatchNorm17 -> Convolution11 (in-place)
I0418 00:22:59.020182 30699 net.cpp:162] Setting up BatchNorm17
I0418 00:22:59.020186 30699 net.cpp:169] Top shape: 2 48 38 38 (138624)
I0418 00:22:59.020190 30699 net.cpp:177] Memory required for data: 433250336
I0418 00:22:59.020195 30699 layer_factory.hpp:77] Creating layer Scale17
I0418 00:22:59.020203 30699 net.cpp:112] Creating Layer Scale17
I0418 00:22:59.020206 30699 net.cpp:446] Scale17 <- Convolution11
I0418 00:22:59.020210 30699 net.cpp:407] Scale17 -> Convolution11 (in-place)
I0418 00:22:59.020236 30699 layer_factory.hpp:77] Creating layer Scale17
I0418 00:22:59.020311 30699 net.cpp:162] Setting up Scale17
I0418 00:22:59.020315 30699 net.cpp:169] Top shape: 2 48 38 38 (138624)
I0418 00:22:59.020318 30699 net.cpp:177] Memory required for data: 433804832
I0418 00:22:59.020321 30699 layer_factory.hpp:77] Creating layer ConvolutionDepthwise9
I0418 00:22:59.020328 30699 net.cpp:112] Creating Layer ConvolutionDepthwise9
I0418 00:22:59.020330 30699 net.cpp:446] ConvolutionDepthwise9 <- Convolution11
I0418 00:22:59.020335 30699 net.cpp:420] ConvolutionDepthwise9 -> ConvolutionDepthwise9
I0418 00:22:59.020401 30699 net.cpp:162] Setting up ConvolutionDepthwise9
I0418 00:22:59.020404 30699 net.cpp:169] Top shape: 2 48 38 38 (138624)
I0418 00:22:59.020407 30699 net.cpp:177] Memory required for data: 434359328
I0418 00:22:59.020411 30699 layer_factory.hpp:77] Creating layer BatchNorm18
I0418 00:22:59.020414 30699 net.cpp:112] Creating Layer BatchNorm18
I0418 00:22:59.020416 30699 net.cpp:446] BatchNorm18 <- ConvolutionDepthwise9
I0418 00:22:59.020419 30699 net.cpp:407] BatchNorm18 -> ConvolutionDepthwise9 (in-place)
I0418 00:22:59.020539 30699 net.cpp:162] Setting up BatchNorm18
I0418 00:22:59.020542 30699 net.cpp:169] Top shape: 2 48 38 38 (138624)
I0418 00:22:59.020545 30699 net.cpp:177] Memory required for data: 434913824
I0418 00:22:59.020550 30699 layer_factory.hpp:77] Creating layer Scale18
I0418 00:22:59.020555 30699 net.cpp:112] Creating Layer Scale18
I0418 00:22:59.020556 30699 net.cpp:446] Scale18 <- ConvolutionDepthwise9
I0418 00:22:59.020560 30699 net.cpp:407] Scale18 -> ConvolutionDepthwise9 (in-place)
I0418 00:22:59.020588 30699 layer_factory.hpp:77] Creating layer Scale18
I0418 00:22:59.020663 30699 net.cpp:162] Setting up Scale18
I0418 00:22:59.020668 30699 net.cpp:169] Top shape: 2 48 38 38 (138624)
I0418 00:22:59.020671 30699 net.cpp:177] Memory required for data: 435468320
I0418 00:22:59.020676 30699 layer_factory.hpp:77] Creating layer ReLU11
I0418 00:22:59.020682 30699 net.cpp:112] Creating Layer ReLU11
I0418 00:22:59.020695 30699 net.cpp:446] ReLU11 <- ConvolutionDepthwise9
I0418 00:22:59.020701 30699 net.cpp:407] ReLU11 -> ConvolutionDepthwise9 (in-place)
I0418 00:22:59.021107 30699 net.cpp:162] Setting up ReLU11
I0418 00:22:59.021113 30699 net.cpp:169] Top shape: 2 48 38 38 (138624)
I0418 00:22:59.021118 30699 net.cpp:177] Memory required for data: 436022816
I0418 00:22:59.021121 30699 layer_factory.hpp:77] Creating layer Concat7
I0418 00:22:59.021131 30699 net.cpp:112] Creating Layer Concat7
I0418 00:22:59.021134 30699 net.cpp:446] Concat7 <- Concat6_Concat6_0_split_1
I0418 00:22:59.021138 30699 net.cpp:446] Concat7 <- ConvolutionDepthwise9
I0418 00:22:59.021144 30699 net.cpp:420] Concat7 -> Concat7
I0418 00:22:59.021167 30699 net.cpp:162] Setting up Concat7
I0418 00:22:59.021172 30699 net.cpp:169] Top shape: 2 272 38 38 (785536)
I0418 00:22:59.021175 30699 net.cpp:177] Memory required for data: 439164960
I0418 00:22:59.021178 30699 layer_factory.hpp:77] Creating layer Concat7_Concat7_0_split
I0418 00:22:59.021183 30699 net.cpp:112] Creating Layer Concat7_Concat7_0_split
I0418 00:22:59.021188 30699 net.cpp:446] Concat7_Concat7_0_split <- Concat7
I0418 00:22:59.021191 30699 net.cpp:420] Concat7_Concat7_0_split -> Concat7_Concat7_0_split_0
I0418 00:22:59.021195 30699 net.cpp:420] Concat7_Concat7_0_split -> Concat7_Concat7_0_split_1
I0418 00:22:59.021219 30699 net.cpp:162] Setting up Concat7_Concat7_0_split
I0418 00:22:59.021221 30699 net.cpp:169] Top shape: 2 272 38 38 (785536)
I0418 00:22:59.021224 30699 net.cpp:169] Top shape: 2 272 38 38 (785536)
I0418 00:22:59.021227 30699 net.cpp:177] Memory required for data: 445449248
I0418 00:22:59.021229 30699 layer_factory.hpp:77] Creating layer Convolution12
I0418 00:22:59.021235 30699 net.cpp:112] Creating Layer Convolution12
I0418 00:22:59.021239 30699 net.cpp:446] Convolution12 <- Concat7_Concat7_0_split_0
I0418 00:22:59.021242 30699 net.cpp:420] Convolution12 -> Convolution12
I0418 00:22:59.022570 30699 net.cpp:162] Setting up Convolution12
I0418 00:22:59.022578 30699 net.cpp:169] Top shape: 2 48 38 38 (138624)
I0418 00:22:59.022581 30699 net.cpp:177] Memory required for data: 446003744
I0418 00:22:59.022585 30699 layer_factory.hpp:77] Creating layer BatchNorm19
I0418 00:22:59.022590 30699 net.cpp:112] Creating Layer BatchNorm19
I0418 00:22:59.022593 30699 net.cpp:446] BatchNorm19 <- Convolution12
I0418 00:22:59.022598 30699 net.cpp:407] BatchNorm19 -> Convolution12 (in-place)
I0418 00:22:59.022724 30699 net.cpp:162] Setting up BatchNorm19
I0418 00:22:59.022729 30699 net.cpp:169] Top shape: 2 48 38 38 (138624)
I0418 00:22:59.022732 30699 net.cpp:177] Memory required for data: 446558240
I0418 00:22:59.022739 30699 layer_factory.hpp:77] Creating layer Scale19
I0418 00:22:59.022747 30699 net.cpp:112] Creating Layer Scale19
I0418 00:22:59.022749 30699 net.cpp:446] Scale19 <- Convolution12
I0418 00:22:59.022753 30699 net.cpp:407] Scale19 -> Convolution12 (in-place)
I0418 00:22:59.022781 30699 layer_factory.hpp:77] Creating layer Scale19
I0418 00:22:59.022858 30699 net.cpp:162] Setting up Scale19
I0418 00:22:59.022862 30699 net.cpp:169] Top shape: 2 48 38 38 (138624)
I0418 00:22:59.022866 30699 net.cpp:177] Memory required for data: 447112736
I0418 00:22:59.022871 30699 layer_factory.hpp:77] Creating layer ConvolutionDepthwise10
I0418 00:22:59.022881 30699 net.cpp:112] Creating Layer ConvolutionDepthwise10
I0418 00:22:59.022884 30699 net.cpp:446] ConvolutionDepthwise10 <- Convolution12
I0418 00:22:59.022891 30699 net.cpp:420] ConvolutionDepthwise10 -> ConvolutionDepthwise10
I0418 00:22:59.022956 30699 net.cpp:162] Setting up ConvolutionDepthwise10
I0418 00:22:59.022960 30699 net.cpp:169] Top shape: 2 48 38 38 (138624)
I0418 00:22:59.022964 30699 net.cpp:177] Memory required for data: 447667232
I0418 00:22:59.022969 30699 layer_factory.hpp:77] Creating layer BatchNorm20
I0418 00:22:59.022974 30699 net.cpp:112] Creating Layer BatchNorm20
I0418 00:22:59.022976 30699 net.cpp:446] BatchNorm20 <- ConvolutionDepthwise10
I0418 00:22:59.022980 30699 net.cpp:407] BatchNorm20 -> ConvolutionDepthwise10 (in-place)
I0418 00:22:59.023113 30699 net.cpp:162] Setting up BatchNorm20
I0418 00:22:59.023116 30699 net.cpp:169] Top shape: 2 48 38 38 (138624)
I0418 00:22:59.023120 30699 net.cpp:177] Memory required for data: 448221728
I0418 00:22:59.023128 30699 layer_factory.hpp:77] Creating layer Scale20
I0418 00:22:59.023133 30699 net.cpp:112] Creating Layer Scale20
I0418 00:22:59.023138 30699 net.cpp:446] Scale20 <- ConvolutionDepthwise10
I0418 00:22:59.023141 30699 net.cpp:407] Scale20 -> ConvolutionDepthwise10 (in-place)
I0418 00:22:59.023169 30699 layer_factory.hpp:77] Creating layer Scale20
I0418 00:22:59.023242 30699 net.cpp:162] Setting up Scale20
I0418 00:22:59.023247 30699 net.cpp:169] Top shape: 2 48 38 38 (138624)
I0418 00:22:59.023250 30699 net.cpp:177] Memory required for data: 448776224
I0418 00:22:59.023255 30699 layer_factory.hpp:77] Creating layer ReLU12
I0418 00:22:59.023260 30699 net.cpp:112] Creating Layer ReLU12
I0418 00:22:59.023264 30699 net.cpp:446] ReLU12 <- ConvolutionDepthwise10
I0418 00:22:59.023267 30699 net.cpp:407] ReLU12 -> ConvolutionDepthwise10 (in-place)
I0418 00:22:59.023681 30699 net.cpp:162] Setting up ReLU12
I0418 00:22:59.023687 30699 net.cpp:169] Top shape: 2 48 38 38 (138624)
I0418 00:22:59.023692 30699 net.cpp:177] Memory required for data: 449330720
I0418 00:22:59.023696 30699 layer_factory.hpp:77] Creating layer Concat8
I0418 00:22:59.023705 30699 net.cpp:112] Creating Layer Concat8
I0418 00:22:59.023708 30699 net.cpp:446] Concat8 <- Concat7_Concat7_0_split_1
I0418 00:22:59.023712 30699 net.cpp:446] Concat8 <- ConvolutionDepthwise10
I0418 00:22:59.023717 30699 net.cpp:420] Concat8 -> Concat8
I0418 00:22:59.023738 30699 net.cpp:162] Setting up Concat8
I0418 00:22:59.023742 30699 net.cpp:169] Top shape: 2 320 38 38 (924160)
I0418 00:22:59.023746 30699 net.cpp:177] Memory required for data: 453027360
I0418 00:22:59.023749 30699 layer_factory.hpp:77] Creating layer Concat8_Concat8_0_split
I0418 00:22:59.023756 30699 net.cpp:112] Creating Layer Concat8_Concat8_0_split
I0418 00:22:59.023759 30699 net.cpp:446] Concat8_Concat8_0_split <- Concat8
I0418 00:22:59.023764 30699 net.cpp:420] Concat8_Concat8_0_split -> Concat8_Concat8_0_split_0
I0418 00:22:59.023771 30699 net.cpp:420] Concat8_Concat8_0_split -> Concat8_Concat8_0_split_1
I0418 00:22:59.023794 30699 net.cpp:162] Setting up Concat8_Concat8_0_split
I0418 00:22:59.023798 30699 net.cpp:169] Top shape: 2 320 38 38 (924160)
I0418 00:22:59.023802 30699 net.cpp:169] Top shape: 2 320 38 38 (924160)
I0418 00:22:59.023807 30699 net.cpp:177] Memory required for data: 460420640
I0418 00:22:59.023808 30699 layer_factory.hpp:77] Creating layer Convolution13
I0418 00:22:59.023818 30699 net.cpp:112] Creating Layer Convolution13
I0418 00:22:59.023820 30699 net.cpp:446] Convolution13 <- Concat8_Concat8_0_split_0
I0418 00:22:59.023826 30699 net.cpp:420] Convolution13 -> Convolution13
I0418 00:22:59.026047 30699 net.cpp:162] Setting up Convolution13
I0418 00:22:59.026057 30699 net.cpp:169] Top shape: 2 48 38 38 (138624)
I0418 00:22:59.026062 30699 net.cpp:177] Memory required for data: 460975136
I0418 00:22:59.026068 30699 layer_factory.hpp:77] Creating layer BatchNorm21
I0418 00:22:59.026078 30699 net.cpp:112] Creating Layer BatchNorm21
I0418 00:22:59.026083 30699 net.cpp:446] BatchNorm21 <- Convolution13
I0418 00:22:59.026088 30699 net.cpp:407] BatchNorm21 -> Convolution13 (in-place)
I0418 00:22:59.026224 30699 net.cpp:162] Setting up BatchNorm21
I0418 00:22:59.026228 30699 net.cpp:169] Top shape: 2 48 38 38 (138624)
I0418 00:22:59.026232 30699 net.cpp:177] Memory required for data: 461529632
I0418 00:22:59.026238 30699 layer_factory.hpp:77] Creating layer Scale21
I0418 00:22:59.026245 30699 net.cpp:112] Creating Layer Scale21
I0418 00:22:59.026249 30699 net.cpp:446] Scale21 <- Convolution13
I0418 00:22:59.026254 30699 net.cpp:407] Scale21 -> Convolution13 (in-place)
I0418 00:22:59.026294 30699 layer_factory.hpp:77] Creating layer Scale21
I0418 00:22:59.026408 30699 net.cpp:162] Setting up Scale21
I0418 00:22:59.026425 30699 net.cpp:169] Top shape: 2 48 38 38 (138624)
I0418 00:22:59.026429 30699 net.cpp:177] Memory required for data: 462084128
I0418 00:22:59.026445 30699 layer_factory.hpp:77] Creating layer ConvolutionDepthwise11
I0418 00:22:59.026453 30699 net.cpp:112] Creating Layer ConvolutionDepthwise11
I0418 00:22:59.026456 30699 net.cpp:446] ConvolutionDepthwise11 <- Convolution13
I0418 00:22:59.026463 30699 net.cpp:420] ConvolutionDepthwise11 -> ConvolutionDepthwise11
I0418 00:22:59.026533 30699 net.cpp:162] Setting up ConvolutionDepthwise11
I0418 00:22:59.026538 30699 net.cpp:169] Top shape: 2 48 38 38 (138624)
I0418 00:22:59.026541 30699 net.cpp:177] Memory required for data: 462638624
I0418 00:22:59.026553 30699 layer_factory.hpp:77] Creating layer BatchNorm22
I0418 00:22:59.026558 30699 net.cpp:112] Creating Layer BatchNorm22
I0418 00:22:59.026562 30699 net.cpp:446] BatchNorm22 <- ConvolutionDepthwise11
I0418 00:22:59.026567 30699 net.cpp:407] BatchNorm22 -> ConvolutionDepthwise11 (in-place)
I0418 00:22:59.026711 30699 net.cpp:162] Setting up BatchNorm22
I0418 00:22:59.026715 30699 net.cpp:169] Top shape: 2 48 38 38 (138624)
I0418 00:22:59.026728 30699 net.cpp:177] Memory required for data: 463193120
I0418 00:22:59.026746 30699 layer_factory.hpp:77] Creating layer Scale22
I0418 00:22:59.026751 30699 net.cpp:112] Creating Layer Scale22
I0418 00:22:59.026753 30699 net.cpp:446] Scale22 <- ConvolutionDepthwise11
I0418 00:22:59.026758 30699 net.cpp:407] Scale22 -> ConvolutionDepthwise11 (in-place)
I0418 00:22:59.026796 30699 layer_factory.hpp:77] Creating layer Scale22
I0418 00:22:59.026898 30699 net.cpp:162] Setting up Scale22
I0418 00:22:59.026902 30699 net.cpp:169] Top shape: 2 48 38 38 (138624)
I0418 00:22:59.026906 30699 net.cpp:177] Memory required for data: 463747616
I0418 00:22:59.026921 30699 layer_factory.hpp:77] Creating layer ReLU13
I0418 00:22:59.026927 30699 net.cpp:112] Creating Layer ReLU13
I0418 00:22:59.026940 30699 net.cpp:446] ReLU13 <- ConvolutionDepthwise11
I0418 00:22:59.026945 30699 net.cpp:407] ReLU13 -> ConvolutionDepthwise11 (in-place)
I0418 00:22:59.027254 30699 net.cpp:162] Setting up ReLU13
I0418 00:22:59.027259 30699 net.cpp:169] Top shape: 2 48 38 38 (138624)
I0418 00:22:59.027264 30699 net.cpp:177] Memory required for data: 464302112
I0418 00:22:59.027267 30699 layer_factory.hpp:77] Creating layer Concat9
I0418 00:22:59.027276 30699 net.cpp:112] Creating Layer Concat9
I0418 00:22:59.027279 30699 net.cpp:446] Concat9 <- Concat8_Concat8_0_split_1
I0418 00:22:59.027283 30699 net.cpp:446] Concat9 <- ConvolutionDepthwise11
I0418 00:22:59.027288 30699 net.cpp:420] Concat9 -> Concat9
I0418 00:22:59.027308 30699 net.cpp:162] Setting up Concat9
I0418 00:22:59.027312 30699 net.cpp:169] Top shape: 2 368 38 38 (1062784)
I0418 00:22:59.027315 30699 net.cpp:177] Memory required for data: 468553248
I0418 00:22:59.027318 30699 layer_factory.hpp:77] Creating layer Concat9_Concat9_0_split
I0418 00:22:59.027321 30699 net.cpp:112] Creating Layer Concat9_Concat9_0_split
I0418 00:22:59.027323 30699 net.cpp:446] Concat9_Concat9_0_split <- Concat9
I0418 00:22:59.027328 30699 net.cpp:420] Concat9_Concat9_0_split -> Concat9_Concat9_0_split_0
I0418 00:22:59.027331 30699 net.cpp:420] Concat9_Concat9_0_split -> Concat9_Concat9_0_split_1
I0418 00:22:59.027354 30699 net.cpp:162] Setting up Concat9_Concat9_0_split
I0418 00:22:59.027356 30699 net.cpp:169] Top shape: 2 368 38 38 (1062784)
I0418 00:22:59.027359 30699 net.cpp:169] Top shape: 2 368 38 38 (1062784)
I0418 00:22:59.027362 30699 net.cpp:177] Memory required for data: 477055520
I0418 00:22:59.027364 30699 layer_factory.hpp:77] Creating layer Convolution14
I0418 00:22:59.027372 30699 net.cpp:112] Creating Layer Convolution14
I0418 00:22:59.027376 30699 net.cpp:446] Convolution14 <- Concat9_Concat9_0_split_0
I0418 00:22:59.027381 30699 net.cpp:420] Convolution14 -> Convolution14
I0418 00:22:59.028784 30699 net.cpp:162] Setting up Convolution14
I0418 00:22:59.028790 30699 net.cpp:169] Top shape: 2 48 38 38 (138624)
I0418 00:22:59.028795 30699 net.cpp:177] Memory required for data: 477610016
I0418 00:22:59.028811 30699 layer_factory.hpp:77] Creating layer BatchNorm23
I0418 00:22:59.028815 30699 net.cpp:112] Creating Layer BatchNorm23
I0418 00:22:59.028818 30699 net.cpp:446] BatchNorm23 <- Convolution14
I0418 00:22:59.028821 30699 net.cpp:407] BatchNorm23 -> Convolution14 (in-place)
I0418 00:22:59.028949 30699 net.cpp:162] Setting up BatchNorm23
I0418 00:22:59.028952 30699 net.cpp:169] Top shape: 2 48 38 38 (138624)
I0418 00:22:59.028955 30699 net.cpp:177] Memory required for data: 478164512
I0418 00:22:59.028959 30699 layer_factory.hpp:77] Creating layer Scale23
I0418 00:22:59.028964 30699 net.cpp:112] Creating Layer Scale23
I0418 00:22:59.028966 30699 net.cpp:446] Scale23 <- Convolution14
I0418 00:22:59.028970 30699 net.cpp:407] Scale23 -> Convolution14 (in-place)
I0418 00:22:59.029003 30699 layer_factory.hpp:77] Creating layer Scale23
I0418 00:22:59.029093 30699 net.cpp:162] Setting up Scale23
I0418 00:22:59.029106 30699 net.cpp:169] Top shape: 2 48 38 38 (138624)
I0418 00:22:59.029109 30699 net.cpp:177] Memory required for data: 478719008
I0418 00:22:59.029114 30699 layer_factory.hpp:77] Creating layer ConvolutionDepthwise12
I0418 00:22:59.029119 30699 net.cpp:112] Creating Layer ConvolutionDepthwise12
I0418 00:22:59.029121 30699 net.cpp:446] ConvolutionDepthwise12 <- Convolution14
I0418 00:22:59.029136 30699 net.cpp:420] ConvolutionDepthwise12 -> ConvolutionDepthwise12
I0418 00:22:59.029217 30699 net.cpp:162] Setting up ConvolutionDepthwise12
I0418 00:22:59.029219 30699 net.cpp:169] Top shape: 2 48 38 38 (138624)
I0418 00:22:59.029222 30699 net.cpp:177] Memory required for data: 479273504
I0418 00:22:59.029225 30699 layer_factory.hpp:77] Creating layer BatchNorm24
I0418 00:22:59.029238 30699 net.cpp:112] Creating Layer BatchNorm24
I0418 00:22:59.029242 30699 net.cpp:446] BatchNorm24 <- ConvolutionDepthwise12
I0418 00:22:59.029245 30699 net.cpp:407] BatchNorm24 -> ConvolutionDepthwise12 (in-place)
I0418 00:22:59.029363 30699 net.cpp:162] Setting up BatchNorm24
I0418 00:22:59.029366 30699 net.cpp:169] Top shape: 2 48 38 38 (138624)
I0418 00:22:59.029369 30699 net.cpp:177] Memory required for data: 479828000
I0418 00:22:59.029373 30699 layer_factory.hpp:77] Creating layer Scale24
I0418 00:22:59.029377 30699 net.cpp:112] Creating Layer Scale24
I0418 00:22:59.029381 30699 net.cpp:446] Scale24 <- ConvolutionDepthwise12
I0418 00:22:59.029383 30699 net.cpp:407] Scale24 -> ConvolutionDepthwise12 (in-place)
I0418 00:22:59.029407 30699 layer_factory.hpp:77] Creating layer Scale24
I0418 00:22:59.029476 30699 net.cpp:162] Setting up Scale24
I0418 00:22:59.029479 30699 net.cpp:169] Top shape: 2 48 38 38 (138624)
I0418 00:22:59.029482 30699 net.cpp:177] Memory required for data: 480382496
I0418 00:22:59.029486 30699 layer_factory.hpp:77] Creating layer ReLU14
I0418 00:22:59.029489 30699 net.cpp:112] Creating Layer ReLU14
I0418 00:22:59.029491 30699 net.cpp:446] ReLU14 <- ConvolutionDepthwise12
I0418 00:22:59.029495 30699 net.cpp:407] ReLU14 -> ConvolutionDepthwise12 (in-place)
I0418 00:22:59.029901 30699 net.cpp:162] Setting up ReLU14
I0418 00:22:59.029907 30699 net.cpp:169] Top shape: 2 48 38 38 (138624)
I0418 00:22:59.029911 30699 net.cpp:177] Memory required for data: 480936992
I0418 00:22:59.029914 30699 layer_factory.hpp:77] Creating layer Concat10
I0418 00:22:59.029919 30699 net.cpp:112] Creating Layer Concat10
I0418 00:22:59.029922 30699 net.cpp:446] Concat10 <- Concat9_Concat9_0_split_1
I0418 00:22:59.029925 30699 net.cpp:446] Concat10 <- ConvolutionDepthwise12
I0418 00:22:59.029929 30699 net.cpp:420] Concat10 -> Concat10
I0418 00:22:59.029958 30699 net.cpp:162] Setting up Concat10
I0418 00:22:59.029963 30699 net.cpp:169] Top shape: 2 416 38 38 (1201408)
I0418 00:22:59.029966 30699 net.cpp:177] Memory required for data: 485742624
I0418 00:22:59.029970 30699 layer_factory.hpp:77] Creating layer Convolution15
I0418 00:22:59.029978 30699 net.cpp:112] Creating Layer Convolution15
I0418 00:22:59.029983 30699 net.cpp:446] Convolution15 <- Concat10
I0418 00:22:59.029991 30699 net.cpp:420] Convolution15 -> Convolution15
I0418 00:22:59.031453 30699 net.cpp:162] Setting up Convolution15
I0418 00:22:59.031461 30699 net.cpp:169] Top shape: 2 128 38 38 (369664)
I0418 00:22:59.031466 30699 net.cpp:177] Memory required for data: 487221280
I0418 00:22:59.031471 30699 layer_factory.hpp:77] Creating layer BatchNorm25
I0418 00:22:59.031478 30699 net.cpp:112] Creating Layer BatchNorm25
I0418 00:22:59.031481 30699 net.cpp:446] BatchNorm25 <- Convolution15
I0418 00:22:59.031484 30699 net.cpp:420] BatchNorm25 -> BatchNorm25
I0418 00:22:59.031611 30699 net.cpp:162] Setting up BatchNorm25
I0418 00:22:59.031615 30699 net.cpp:169] Top shape: 2 128 38 38 (369664)
I0418 00:22:59.031618 30699 net.cpp:177] Memory required for data: 488699936
I0418 00:22:59.031623 30699 layer_factory.hpp:77] Creating layer Scale25
I0418 00:22:59.031630 30699 net.cpp:112] Creating Layer Scale25
I0418 00:22:59.031633 30699 net.cpp:446] Scale25 <- BatchNorm25
I0418 00:22:59.031638 30699 net.cpp:407] Scale25 -> BatchNorm25 (in-place)
I0418 00:22:59.031667 30699 layer_factory.hpp:77] Creating layer Scale25
I0418 00:22:59.031736 30699 net.cpp:162] Setting up Scale25
I0418 00:22:59.031740 30699 net.cpp:169] Top shape: 2 128 38 38 (369664)
I0418 00:22:59.031744 30699 net.cpp:177] Memory required for data: 490178592
I0418 00:22:59.031750 30699 layer_factory.hpp:77] Creating layer First
I0418 00:22:59.031755 30699 net.cpp:112] Creating Layer First
I0418 00:22:59.031761 30699 net.cpp:446] First <- BatchNorm25
I0418 00:22:59.031766 30699 net.cpp:420] First -> First
I0418 00:22:59.033001 30699 net.cpp:162] Setting up First
I0418 00:22:59.033011 30699 net.cpp:169] Top shape: 2 128 38 38 (369664)
I0418 00:22:59.033016 30699 net.cpp:177] Memory required for data: 491657248
I0418 00:22:59.033020 30699 layer_factory.hpp:77] Creating layer First_First_0_split
I0418 00:22:59.033031 30699 net.cpp:112] Creating Layer First_First_0_split
I0418 00:22:59.033035 30699 net.cpp:446] First_First_0_split <- First
I0418 00:22:59.033041 30699 net.cpp:420] First_First_0_split -> First_First_0_split_0
I0418 00:22:59.033049 30699 net.cpp:420] First_First_0_split -> First_First_0_split_1
I0418 00:22:59.033056 30699 net.cpp:420] First_First_0_split -> First_First_0_split_2
I0418 00:22:59.033061 30699 net.cpp:420] First_First_0_split -> First_First_0_split_3
I0418 00:22:59.033107 30699 net.cpp:162] Setting up First_First_0_split
I0418 00:22:59.033110 30699 net.cpp:169] Top shape: 2 128 38 38 (369664)
I0418 00:22:59.033114 30699 net.cpp:169] Top shape: 2 128 38 38 (369664)
I0418 00:22:59.033118 30699 net.cpp:169] Top shape: 2 128 38 38 (369664)
I0418 00:22:59.033123 30699 net.cpp:169] Top shape: 2 128 38 38 (369664)
I0418 00:22:59.033126 30699 net.cpp:177] Memory required for data: 497571872
I0418 00:22:59.033129 30699 layer_factory.hpp:77] Creating layer Pooling3
I0418 00:22:59.033134 30699 net.cpp:112] Creating Layer Pooling3
I0418 00:22:59.033138 30699 net.cpp:446] Pooling3 <- First_First_0_split_0
I0418 00:22:59.033143 30699 net.cpp:420] Pooling3 -> Pooling3
I0418 00:22:59.033165 30699 net.cpp:162] Setting up Pooling3
I0418 00:22:59.033169 30699 net.cpp:169] Top shape: 2 128 19 19 (92416)
I0418 00:22:59.033172 30699 net.cpp:177] Memory required for data: 497941536
I0418 00:22:59.033174 30699 layer_factory.hpp:77] Creating layer Convolution16
I0418 00:22:59.033182 30699 net.cpp:112] Creating Layer Convolution16
I0418 00:22:59.033185 30699 net.cpp:446] Convolution16 <- Pooling3
I0418 00:22:59.033188 30699 net.cpp:420] Convolution16 -> Convolution16
I0418 00:22:59.034497 30699 net.cpp:162] Setting up Convolution16
I0418 00:22:59.034505 30699 net.cpp:169] Top shape: 2 64 19 19 (46208)
I0418 00:22:59.034518 30699 net.cpp:177] Memory required for data: 498126368
I0418 00:22:59.034523 30699 layer_factory.hpp:77] Creating layer BatchNorm26
I0418 00:22:59.034530 30699 net.cpp:112] Creating Layer BatchNorm26
I0418 00:22:59.034534 30699 net.cpp:446] BatchNorm26 <- Convolution16
I0418 00:22:59.034540 30699 net.cpp:420] BatchNorm26 -> BatchNorm26
I0418 00:22:59.034691 30699 net.cpp:162] Setting up BatchNorm26
I0418 00:22:59.034706 30699 net.cpp:169] Top shape: 2 64 19 19 (46208)
I0418 00:22:59.034710 30699 net.cpp:177] Memory required for data: 498311200
I0418 00:22:59.034724 30699 layer_factory.hpp:77] Creating layer Scale26
I0418 00:22:59.034729 30699 net.cpp:112] Creating Layer Scale26
I0418 00:22:59.034731 30699 net.cpp:446] Scale26 <- BatchNorm26
I0418 00:22:59.034734 30699 net.cpp:407] Scale26 -> BatchNorm26 (in-place)
I0418 00:22:59.034773 30699 layer_factory.hpp:77] Creating layer Scale26
I0418 00:22:59.034865 30699 net.cpp:162] Setting up Scale26
I0418 00:22:59.034869 30699 net.cpp:169] Top shape: 2 64 19 19 (46208)
I0418 00:22:59.034873 30699 net.cpp:177] Memory required for data: 498496032
I0418 00:22:59.034885 30699 layer_factory.hpp:77] Creating layer ReLU15
I0418 00:22:59.034888 30699 net.cpp:112] Creating Layer ReLU15
I0418 00:22:59.034891 30699 net.cpp:446] ReLU15 <- BatchNorm26
I0418 00:22:59.034894 30699 net.cpp:407] ReLU15 -> BatchNorm26 (in-place)
I0418 00:22:59.035320 30699 net.cpp:162] Setting up ReLU15
I0418 00:22:59.035326 30699 net.cpp:169] Top shape: 2 64 19 19 (46208)
I0418 00:22:59.035331 30699 net.cpp:177] Memory required for data: 498680864
I0418 00:22:59.035332 30699 layer_factory.hpp:77] Creating layer Pooling4
I0418 00:22:59.035337 30699 net.cpp:112] Creating Layer Pooling4
I0418 00:22:59.035341 30699 net.cpp:446] Pooling4 <- First_First_0_split_1
I0418 00:22:59.035344 30699 net.cpp:420] Pooling4 -> Pooling4
I0418 00:22:59.035377 30699 net.cpp:162] Setting up Pooling4
I0418 00:22:59.035380 30699 net.cpp:169] Top shape: 2 128 19 19 (92416)
I0418 00:22:59.035383 30699 net.cpp:177] Memory required for data: 499050528
I0418 00:22:59.035387 30699 layer_factory.hpp:77] Creating layer Pooling4_Pooling4_0_split
I0418 00:22:59.035393 30699 net.cpp:112] Creating Layer Pooling4_Pooling4_0_split
I0418 00:22:59.035396 30699 net.cpp:446] Pooling4_Pooling4_0_split <- Pooling4
I0418 00:22:59.035399 30699 net.cpp:420] Pooling4_Pooling4_0_split -> Pooling4_Pooling4_0_split_0
I0418 00:22:59.035404 30699 net.cpp:420] Pooling4_Pooling4_0_split -> Pooling4_Pooling4_0_split_1
I0418 00:22:59.035426 30699 net.cpp:162] Setting up Pooling4_Pooling4_0_split
I0418 00:22:59.035429 30699 net.cpp:169] Top shape: 2 128 19 19 (92416)
I0418 00:22:59.035432 30699 net.cpp:169] Top shape: 2 128 19 19 (92416)
I0418 00:22:59.035435 30699 net.cpp:177] Memory required for data: 499789856
I0418 00:22:59.035437 30699 layer_factory.hpp:77] Creating layer Convolution17
I0418 00:22:59.035444 30699 net.cpp:112] Creating Layer Convolution17
I0418 00:22:59.035445 30699 net.cpp:446] Convolution17 <- Pooling4_Pooling4_0_split_0
I0418 00:22:59.035450 30699 net.cpp:420] Convolution17 -> Convolution17
I0418 00:22:59.036710 30699 net.cpp:162] Setting up Convolution17
I0418 00:22:59.036717 30699 net.cpp:169] Top shape: 2 64 19 19 (46208)
I0418 00:22:59.036721 30699 net.cpp:177] Memory required for data: 499974688
I0418 00:22:59.036725 30699 layer_factory.hpp:77] Creating layer BatchNorm27
I0418 00:22:59.036729 30699 net.cpp:112] Creating Layer BatchNorm27
I0418 00:22:59.036732 30699 net.cpp:446] BatchNorm27 <- Convolution17
I0418 00:22:59.036736 30699 net.cpp:407] BatchNorm27 -> Convolution17 (in-place)
I0418 00:22:59.036860 30699 net.cpp:162] Setting up BatchNorm27
I0418 00:22:59.036864 30699 net.cpp:169] Top shape: 2 64 19 19 (46208)
I0418 00:22:59.036867 30699 net.cpp:177] Memory required for data: 500159520
I0418 00:22:59.036871 30699 layer_factory.hpp:77] Creating layer Scale27
I0418 00:22:59.036877 30699 net.cpp:112] Creating Layer Scale27
I0418 00:22:59.036880 30699 net.cpp:446] Scale27 <- Convolution17
I0418 00:22:59.036882 30699 net.cpp:407] Scale27 -> Convolution17 (in-place)
I0418 00:22:59.036908 30699 layer_factory.hpp:77] Creating layer Scale27
I0418 00:22:59.036979 30699 net.cpp:162] Setting up Scale27
I0418 00:22:59.036983 30699 net.cpp:169] Top shape: 2 64 19 19 (46208)
I0418 00:22:59.036986 30699 net.cpp:177] Memory required for data: 500344352
I0418 00:22:59.036990 30699 layer_factory.hpp:77] Creating layer ConvolutionDepthwise13
I0418 00:22:59.037009 30699 net.cpp:112] Creating Layer ConvolutionDepthwise13
I0418 00:22:59.037014 30699 net.cpp:446] ConvolutionDepthwise13 <- Convolution17
I0418 00:22:59.037019 30699 net.cpp:420] ConvolutionDepthwise13 -> ConvolutionDepthwise13
I0418 00:22:59.037091 30699 net.cpp:162] Setting up ConvolutionDepthwise13
I0418 00:22:59.037096 30699 net.cpp:169] Top shape: 2 64 19 19 (46208)
I0418 00:22:59.037098 30699 net.cpp:177] Memory required for data: 500529184
I0418 00:22:59.037103 30699 layer_factory.hpp:77] Creating layer BatchNorm28
I0418 00:22:59.037117 30699 net.cpp:112] Creating Layer BatchNorm28
I0418 00:22:59.037120 30699 net.cpp:446] BatchNorm28 <- ConvolutionDepthwise13
I0418 00:22:59.037124 30699 net.cpp:407] BatchNorm28 -> ConvolutionDepthwise13 (in-place)
I0418 00:22:59.037259 30699 net.cpp:162] Setting up BatchNorm28
I0418 00:22:59.037263 30699 net.cpp:169] Top shape: 2 64 19 19 (46208)
I0418 00:22:59.037267 30699 net.cpp:177] Memory required for data: 500714016
I0418 00:22:59.037273 30699 layer_factory.hpp:77] Creating layer Scale28
I0418 00:22:59.037279 30699 net.cpp:112] Creating Layer Scale28
I0418 00:22:59.037292 30699 net.cpp:446] Scale28 <- ConvolutionDepthwise13
I0418 00:22:59.037299 30699 net.cpp:407] Scale28 -> ConvolutionDepthwise13 (in-place)
I0418 00:22:59.037325 30699 layer_factory.hpp:77] Creating layer Scale28
I0418 00:22:59.037395 30699 net.cpp:162] Setting up Scale28
I0418 00:22:59.037398 30699 net.cpp:169] Top shape: 2 64 19 19 (46208)
I0418 00:22:59.037401 30699 net.cpp:177] Memory required for data: 500898848
I0418 00:22:59.037405 30699 layer_factory.hpp:77] Creating layer ReLU16
I0418 00:22:59.037410 30699 net.cpp:112] Creating Layer ReLU16
I0418 00:22:59.037412 30699 net.cpp:446] ReLU16 <- ConvolutionDepthwise13
I0418 00:22:59.037415 30699 net.cpp:407] ReLU16 -> ConvolutionDepthwise13 (in-place)
I0418 00:22:59.037823 30699 net.cpp:162] Setting up ReLU16
I0418 00:22:59.037829 30699 net.cpp:169] Top shape: 2 64 19 19 (46208)
I0418 00:22:59.037833 30699 net.cpp:177] Memory required for data: 501083680
I0418 00:22:59.037835 30699 layer_factory.hpp:77] Creating layer Concat11
I0418 00:22:59.037842 30699 net.cpp:112] Creating Layer Concat11
I0418 00:22:59.037847 30699 net.cpp:446] Concat11 <- Pooling4_Pooling4_0_split_1
I0418 00:22:59.037851 30699 net.cpp:446] Concat11 <- ConvolutionDepthwise13
I0418 00:22:59.037855 30699 net.cpp:420] Concat11 -> Concat11
I0418 00:22:59.037876 30699 net.cpp:162] Setting up Concat11
I0418 00:22:59.037879 30699 net.cpp:169] Top shape: 2 192 19 19 (138624)
I0418 00:22:59.037883 30699 net.cpp:177] Memory required for data: 501638176
I0418 00:22:59.037884 30699 layer_factory.hpp:77] Creating layer Concat11_Concat11_0_split
I0418 00:22:59.037889 30699 net.cpp:112] Creating Layer Concat11_Concat11_0_split
I0418 00:22:59.037892 30699 net.cpp:446] Concat11_Concat11_0_split <- Concat11
I0418 00:22:59.037897 30699 net.cpp:420] Concat11_Concat11_0_split -> Concat11_Concat11_0_split_0
I0418 00:22:59.037904 30699 net.cpp:420] Concat11_Concat11_0_split -> Concat11_Concat11_0_split_1
I0418 00:22:59.037932 30699 net.cpp:162] Setting up Concat11_Concat11_0_split
I0418 00:22:59.037935 30699 net.cpp:169] Top shape: 2 192 19 19 (138624)
I0418 00:22:59.037945 30699 net.cpp:169] Top shape: 2 192 19 19 (138624)
I0418 00:22:59.037950 30699 net.cpp:177] Memory required for data: 502747168
I0418 00:22:59.037955 30699 layer_factory.hpp:77] Creating layer Convolution18
I0418 00:22:59.037964 30699 net.cpp:112] Creating Layer Convolution18
I0418 00:22:59.037968 30699 net.cpp:446] Convolution18 <- Concat11_Concat11_0_split_0
I0418 00:22:59.037972 30699 net.cpp:420] Convolution18 -> Convolution18
I0418 00:22:59.040261 30699 net.cpp:162] Setting up Convolution18
I0418 00:22:59.040274 30699 net.cpp:169] Top shape: 2 64 19 19 (46208)
I0418 00:22:59.040279 30699 net.cpp:177] Memory required for data: 502932000
I0418 00:22:59.040287 30699 layer_factory.hpp:77] Creating layer BatchNorm29
I0418 00:22:59.040297 30699 net.cpp:112] Creating Layer BatchNorm29
I0418 00:22:59.040303 30699 net.cpp:446] BatchNorm29 <- Convolution18
I0418 00:22:59.040323 30699 net.cpp:407] BatchNorm29 -> Convolution18 (in-place)
I0418 00:22:59.040474 30699 net.cpp:162] Setting up BatchNorm29
I0418 00:22:59.040478 30699 net.cpp:169] Top shape: 2 64 19 19 (46208)
I0418 00:22:59.040491 30699 net.cpp:177] Memory required for data: 503116832
I0418 00:22:59.040498 30699 layer_factory.hpp:77] Creating layer Scale29
I0418 00:22:59.040504 30699 net.cpp:112] Creating Layer Scale29
I0418 00:22:59.040509 30699 net.cpp:446] Scale29 <- Convolution18
I0418 00:22:59.040513 30699 net.cpp:407] Scale29 -> Convolution18 (in-place)
I0418 00:22:59.040550 30699 layer_factory.hpp:77] Creating layer Scale29
I0418 00:22:59.040627 30699 net.cpp:162] Setting up Scale29
I0418 00:22:59.040632 30699 net.cpp:169] Top shape: 2 64 19 19 (46208)
I0418 00:22:59.040634 30699 net.cpp:177] Memory required for data: 503301664
I0418 00:22:59.040640 30699 layer_factory.hpp:77] Creating layer ConvolutionDepthwise14
I0418 00:22:59.040649 30699 net.cpp:112] Creating Layer ConvolutionDepthwise14
I0418 00:22:59.040654 30699 net.cpp:446] ConvolutionDepthwise14 <- Convolution18
I0418 00:22:59.040660 30699 net.cpp:420] ConvolutionDepthwise14 -> ConvolutionDepthwise14
I0418 00:22:59.040730 30699 net.cpp:162] Setting up ConvolutionDepthwise14
I0418 00:22:59.040735 30699 net.cpp:169] Top shape: 2 64 19 19 (46208)
I0418 00:22:59.040737 30699 net.cpp:177] Memory required for data: 503486496
I0418 00:22:59.040742 30699 layer_factory.hpp:77] Creating layer BatchNorm30
I0418 00:22:59.040747 30699 net.cpp:112] Creating Layer BatchNorm30
I0418 00:22:59.040751 30699 net.cpp:446] BatchNorm30 <- ConvolutionDepthwise14
I0418 00:22:59.040755 30699 net.cpp:407] BatchNorm30 -> ConvolutionDepthwise14 (in-place)
I0418 00:22:59.040879 30699 net.cpp:162] Setting up BatchNorm30
I0418 00:22:59.040884 30699 net.cpp:169] Top shape: 2 64 19 19 (46208)
I0418 00:22:59.040887 30699 net.cpp:177] Memory required for data: 503671328
I0418 00:22:59.040894 30699 layer_factory.hpp:77] Creating layer Scale30
I0418 00:22:59.040899 30699 net.cpp:112] Creating Layer Scale30
I0418 00:22:59.040902 30699 net.cpp:446] Scale30 <- ConvolutionDepthwise14
I0418 00:22:59.040908 30699 net.cpp:407] Scale30 -> ConvolutionDepthwise14 (in-place)
I0418 00:22:59.040937 30699 layer_factory.hpp:77] Creating layer Scale30
I0418 00:22:59.041009 30699 net.cpp:162] Setting up Scale30
I0418 00:22:59.041013 30699 net.cpp:169] Top shape: 2 64 19 19 (46208)
I0418 00:22:59.041018 30699 net.cpp:177] Memory required for data: 503856160
I0418 00:22:59.041023 30699 layer_factory.hpp:77] Creating layer ReLU17
I0418 00:22:59.041030 30699 net.cpp:112] Creating Layer ReLU17
I0418 00:22:59.041033 30699 net.cpp:446] ReLU17 <- ConvolutionDepthwise14
I0418 00:22:59.041038 30699 net.cpp:407] ReLU17 -> ConvolutionDepthwise14 (in-place)
I0418 00:22:59.041349 30699 net.cpp:162] Setting up ReLU17
I0418 00:22:59.041355 30699 net.cpp:169] Top shape: 2 64 19 19 (46208)
I0418 00:22:59.041359 30699 net.cpp:177] Memory required for data: 504040992
I0418 00:22:59.041363 30699 layer_factory.hpp:77] Creating layer Concat12
I0418 00:22:59.041370 30699 net.cpp:112] Creating Layer Concat12
I0418 00:22:59.041375 30699 net.cpp:446] Concat12 <- Concat11_Concat11_0_split_1
I0418 00:22:59.041379 30699 net.cpp:446] Concat12 <- ConvolutionDepthwise14
I0418 00:22:59.041385 30699 net.cpp:420] Concat12 -> Concat12
I0418 00:22:59.041407 30699 net.cpp:162] Setting up Concat12
I0418 00:22:59.041410 30699 net.cpp:169] Top shape: 2 256 19 19 (184832)
I0418 00:22:59.041414 30699 net.cpp:177] Memory required for data: 504780320
I0418 00:22:59.041417 30699 layer_factory.hpp:77] Creating layer Concat12_Concat12_0_split
I0418 00:22:59.041424 30699 net.cpp:112] Creating Layer Concat12_Concat12_0_split
I0418 00:22:59.041427 30699 net.cpp:446] Concat12_Concat12_0_split <- Concat12
I0418 00:22:59.041431 30699 net.cpp:420] Concat12_Concat12_0_split -> Concat12_Concat12_0_split_0
I0418 00:22:59.041437 30699 net.cpp:420] Concat12_Concat12_0_split -> Concat12_Concat12_0_split_1
I0418 00:22:59.041476 30699 net.cpp:162] Setting up Concat12_Concat12_0_split
I0418 00:22:59.041481 30699 net.cpp:169] Top shape: 2 256 19 19 (184832)
I0418 00:22:59.041483 30699 net.cpp:169] Top shape: 2 256 19 19 (184832)
I0418 00:22:59.041488 30699 net.cpp:177] Memory required for data: 506258976
I0418 00:22:59.041491 30699 layer_factory.hpp:77] Creating layer Convolution19
I0418 00:22:59.041501 30699 net.cpp:112] Creating Layer Convolution19
I0418 00:22:59.041504 30699 net.cpp:446] Convolution19 <- Concat12_Concat12_0_split_0
I0418 00:22:59.041508 30699 net.cpp:420] Convolution19 -> Convolution19
I0418 00:22:59.043057 30699 net.cpp:162] Setting up Convolution19
I0418 00:22:59.043066 30699 net.cpp:169] Top shape: 2 64 19 19 (46208)
I0418 00:22:59.043071 30699 net.cpp:177] Memory required for data: 506443808
I0418 00:22:59.043076 30699 layer_factory.hpp:77] Creating layer BatchNorm31
I0418 00:22:59.043082 30699 net.cpp:112] Creating Layer BatchNorm31
I0418 00:22:59.043088 30699 net.cpp:446] BatchNorm31 <- Convolution19
I0418 00:22:59.043093 30699 net.cpp:407] BatchNorm31 -> Convolution19 (in-place)
I0418 00:22:59.043222 30699 net.cpp:162] Setting up BatchNorm31
I0418 00:22:59.043226 30699 net.cpp:169] Top shape: 2 64 19 19 (46208)
I0418 00:22:59.043231 30699 net.cpp:177] Memory required for data: 506628640
I0418 00:22:59.043237 30699 layer_factory.hpp:77] Creating layer Scale31
I0418 00:22:59.043243 30699 net.cpp:112] Creating Layer Scale31
I0418 00:22:59.043247 30699 net.cpp:446] Scale31 <- Convolution19
I0418 00:22:59.043252 30699 net.cpp:407] Scale31 -> Convolution19 (in-place)
I0418 00:22:59.043282 30699 layer_factory.hpp:77] Creating layer Scale31
I0418 00:22:59.043359 30699 net.cpp:162] Setting up Scale31
I0418 00:22:59.043364 30699 net.cpp:169] Top shape: 2 64 19 19 (46208)
I0418 00:22:59.043366 30699 net.cpp:177] Memory required for data: 506813472
I0418 00:22:59.043372 30699 layer_factory.hpp:77] Creating layer ConvolutionDepthwise15
I0418 00:22:59.043380 30699 net.cpp:112] Creating Layer ConvolutionDepthwise15
I0418 00:22:59.043385 30699 net.cpp:446] ConvolutionDepthwise15 <- Convolution19
I0418 00:22:59.043390 30699 net.cpp:420] ConvolutionDepthwise15 -> ConvolutionDepthwise15
I0418 00:22:59.043452 30699 net.cpp:162] Setting up ConvolutionDepthwise15
I0418 00:22:59.043457 30699 net.cpp:169] Top shape: 2 64 19 19 (46208)
I0418 00:22:59.043459 30699 net.cpp:177] Memory required for data: 506998304
I0418 00:22:59.043462 30699 layer_factory.hpp:77] Creating layer BatchNorm32
I0418 00:22:59.043465 30699 net.cpp:112] Creating Layer BatchNorm32
I0418 00:22:59.043468 30699 net.cpp:446] BatchNorm32 <- ConvolutionDepthwise15
I0418 00:22:59.043471 30699 net.cpp:407] BatchNorm32 -> ConvolutionDepthwise15 (in-place)
I0418 00:22:59.043589 30699 net.cpp:162] Setting up BatchNorm32
I0418 00:22:59.043592 30699 net.cpp:169] Top shape: 2 64 19 19 (46208)
I0418 00:22:59.043596 30699 net.cpp:177] Memory required for data: 507183136
I0418 00:22:59.043601 30699 layer_factory.hpp:77] Creating layer Scale32
I0418 00:22:59.043603 30699 net.cpp:112] Creating Layer Scale32
I0418 00:22:59.043606 30699 net.cpp:446] Scale32 <- ConvolutionDepthwise15
I0418 00:22:59.043612 30699 net.cpp:407] Scale32 -> ConvolutionDepthwise15 (in-place)
I0418 00:22:59.043642 30699 layer_factory.hpp:77] Creating layer Scale32
I0418 00:22:59.043715 30699 net.cpp:162] Setting up Scale32
I0418 00:22:59.043718 30699 net.cpp:169] Top shape: 2 64 19 19 (46208)
I0418 00:22:59.043722 30699 net.cpp:177] Memory required for data: 507367968
I0418 00:22:59.043727 30699 layer_factory.hpp:77] Creating layer ReLU18
I0418 00:22:59.043733 30699 net.cpp:112] Creating Layer ReLU18
I0418 00:22:59.043737 30699 net.cpp:446] ReLU18 <- ConvolutionDepthwise15
I0418 00:22:59.043741 30699 net.cpp:407] ReLU18 -> ConvolutionDepthwise15 (in-place)
I0418 00:22:59.044154 30699 net.cpp:162] Setting up ReLU18
I0418 00:22:59.044160 30699 net.cpp:169] Top shape: 2 64 19 19 (46208)
I0418 00:22:59.044165 30699 net.cpp:177] Memory required for data: 507552800
I0418 00:22:59.044169 30699 layer_factory.hpp:77] Creating layer Concat13
I0418 00:22:59.044188 30699 net.cpp:112] Creating Layer Concat13
I0418 00:22:59.044191 30699 net.cpp:446] Concat13 <- Concat12_Concat12_0_split_1
I0418 00:22:59.044194 30699 net.cpp:446] Concat13 <- ConvolutionDepthwise15
I0418 00:22:59.044198 30699 net.cpp:420] Concat13 -> Concat13
I0418 00:22:59.044217 30699 net.cpp:162] Setting up Concat13
I0418 00:22:59.044220 30699 net.cpp:169] Top shape: 2 320 19 19 (231040)
I0418 00:22:59.044224 30699 net.cpp:177] Memory required for data: 508476960
I0418 00:22:59.044226 30699 layer_factory.hpp:77] Creating layer Concat13_Concat13_0_split
I0418 00:22:59.044231 30699 net.cpp:112] Creating Layer Concat13_Concat13_0_split
I0418 00:22:59.044234 30699 net.cpp:446] Concat13_Concat13_0_split <- Concat13
I0418 00:22:59.044237 30699 net.cpp:420] Concat13_Concat13_0_split -> Concat13_Concat13_0_split_0
I0418 00:22:59.044241 30699 net.cpp:420] Concat13_Concat13_0_split -> Concat13_Concat13_0_split_1
I0418 00:22:59.044265 30699 net.cpp:162] Setting up Concat13_Concat13_0_split
I0418 00:22:59.044267 30699 net.cpp:169] Top shape: 2 320 19 19 (231040)
I0418 00:22:59.044270 30699 net.cpp:169] Top shape: 2 320 19 19 (231040)
I0418 00:22:59.044273 30699 net.cpp:177] Memory required for data: 510325280
I0418 00:22:59.044275 30699 layer_factory.hpp:77] Creating layer Convolution20
I0418 00:22:59.044282 30699 net.cpp:112] Creating Layer Convolution20
I0418 00:22:59.044286 30699 net.cpp:446] Convolution20 <- Concat13_Concat13_0_split_0
I0418 00:22:59.044291 30699 net.cpp:420] Convolution20 -> Convolution20
I0418 00:22:59.045640 30699 net.cpp:162] Setting up Convolution20
I0418 00:22:59.045648 30699 net.cpp:169] Top shape: 2 64 19 19 (46208)
I0418 00:22:59.045652 30699 net.cpp:177] Memory required for data: 510510112
I0418 00:22:59.045656 30699 layer_factory.hpp:77] Creating layer BatchNorm33
I0418 00:22:59.045662 30699 net.cpp:112] Creating Layer BatchNorm33
I0418 00:22:59.045665 30699 net.cpp:446] BatchNorm33 <- Convolution20
I0418 00:22:59.045671 30699 net.cpp:407] BatchNorm33 -> Convolution20 (in-place)
I0418 00:22:59.045802 30699 net.cpp:162] Setting up BatchNorm33
I0418 00:22:59.045807 30699 net.cpp:169] Top shape: 2 64 19 19 (46208)
I0418 00:22:59.045810 30699 net.cpp:177] Memory required for data: 510694944
I0418 00:22:59.045817 30699 layer_factory.hpp:77] Creating layer Scale33
I0418 00:22:59.045823 30699 net.cpp:112] Creating Layer Scale33
I0418 00:22:59.045827 30699 net.cpp:446] Scale33 <- Convolution20
I0418 00:22:59.045833 30699 net.cpp:407] Scale33 -> Convolution20 (in-place)
I0418 00:22:59.045862 30699 layer_factory.hpp:77] Creating layer Scale33
I0418 00:22:59.045938 30699 net.cpp:162] Setting up Scale33
I0418 00:22:59.045949 30699 net.cpp:169] Top shape: 2 64 19 19 (46208)
I0418 00:22:59.045953 30699 net.cpp:177] Memory required for data: 510879776
I0418 00:22:59.045958 30699 layer_factory.hpp:77] Creating layer ConvolutionDepthwise16
I0418 00:22:59.045965 30699 net.cpp:112] Creating Layer ConvolutionDepthwise16
I0418 00:22:59.045969 30699 net.cpp:446] ConvolutionDepthwise16 <- Convolution20
I0418 00:22:59.045975 30699 net.cpp:420] ConvolutionDepthwise16 -> ConvolutionDepthwise16
I0418 00:22:59.046043 30699 net.cpp:162] Setting up ConvolutionDepthwise16
I0418 00:22:59.046047 30699 net.cpp:169] Top shape: 2 64 19 19 (46208)
I0418 00:22:59.046051 30699 net.cpp:177] Memory required for data: 511064608
I0418 00:22:59.046056 30699 layer_factory.hpp:77] Creating layer BatchNorm34
I0418 00:22:59.046061 30699 net.cpp:112] Creating Layer BatchNorm34
I0418 00:22:59.046064 30699 net.cpp:446] BatchNorm34 <- ConvolutionDepthwise16
I0418 00:22:59.046069 30699 net.cpp:407] BatchNorm34 -> ConvolutionDepthwise16 (in-place)
I0418 00:22:59.046214 30699 net.cpp:162] Setting up BatchNorm34
I0418 00:22:59.046218 30699 net.cpp:169] Top shape: 2 64 19 19 (46208)
I0418 00:22:59.046221 30699 net.cpp:177] Memory required for data: 511249440
I0418 00:22:59.046227 30699 layer_factory.hpp:77] Creating layer Scale34
I0418 00:22:59.046232 30699 net.cpp:112] Creating Layer Scale34
I0418 00:22:59.046247 30699 net.cpp:446] Scale34 <- ConvolutionDepthwise16
I0418 00:22:59.046253 30699 net.cpp:407] Scale34 -> ConvolutionDepthwise16 (in-place)
I0418 00:22:59.046281 30699 layer_factory.hpp:77] Creating layer Scale34
I0418 00:22:59.046386 30699 net.cpp:162] Setting up Scale34
I0418 00:22:59.046389 30699 net.cpp:169] Top shape: 2 64 19 19 (46208)
I0418 00:22:59.046392 30699 net.cpp:177] Memory required for data: 511434272
I0418 00:22:59.046397 30699 layer_factory.hpp:77] Creating layer ReLU19
I0418 00:22:59.046403 30699 net.cpp:112] Creating Layer ReLU19
I0418 00:22:59.046406 30699 net.cpp:446] ReLU19 <- ConvolutionDepthwise16
I0418 00:22:59.046411 30699 net.cpp:407] ReLU19 -> ConvolutionDepthwise16 (in-place)
I0418 00:22:59.047818 30699 net.cpp:162] Setting up ReLU19
I0418 00:22:59.047829 30699 net.cpp:169] Top shape: 2 64 19 19 (46208)
I0418 00:22:59.047834 30699 net.cpp:177] Memory required for data: 511619104
I0418 00:22:59.047837 30699 layer_factory.hpp:77] Creating layer Concat14
I0418 00:22:59.047848 30699 net.cpp:112] Creating Layer Concat14
I0418 00:22:59.047853 30699 net.cpp:446] Concat14 <- Concat13_Concat13_0_split_1
I0418 00:22:59.047859 30699 net.cpp:446] Concat14 <- ConvolutionDepthwise16
I0418 00:22:59.047865 30699 net.cpp:420] Concat14 -> Concat14
I0418 00:22:59.047893 30699 net.cpp:162] Setting up Concat14
I0418 00:22:59.047895 30699 net.cpp:169] Top shape: 2 384 19 19 (277248)
I0418 00:22:59.047899 30699 net.cpp:177] Memory required for data: 512728096
I0418 00:22:59.047901 30699 layer_factory.hpp:77] Creating layer Concat14_Concat14_0_split
I0418 00:22:59.047906 30699 net.cpp:112] Creating Layer Concat14_Concat14_0_split
I0418 00:22:59.047910 30699 net.cpp:446] Concat14_Concat14_0_split <- Concat14
I0418 00:22:59.047914 30699 net.cpp:420] Concat14_Concat14_0_split -> Concat14_Concat14_0_split_0
I0418 00:22:59.047919 30699 net.cpp:420] Concat14_Concat14_0_split -> Concat14_Concat14_0_split_1
I0418 00:22:59.047945 30699 net.cpp:162] Setting up Concat14_Concat14_0_split
I0418 00:22:59.047948 30699 net.cpp:169] Top shape: 2 384 19 19 (277248)
I0418 00:22:59.047951 30699 net.cpp:169] Top shape: 2 384 19 19 (277248)
I0418 00:22:59.047955 30699 net.cpp:177] Memory required for data: 514946080
I0418 00:22:59.047956 30699 layer_factory.hpp:77] Creating layer Convolution21
I0418 00:22:59.047966 30699 net.cpp:112] Creating Layer Convolution21
I0418 00:22:59.047967 30699 net.cpp:446] Convolution21 <- Concat14_Concat14_0_split_0
I0418 00:22:59.047971 30699 net.cpp:420] Convolution21 -> Convolution21
I0418 00:22:59.049557 30699 net.cpp:162] Setting up Convolution21
I0418 00:22:59.049566 30699 net.cpp:169] Top shape: 2 64 19 19 (46208)
I0418 00:22:59.049569 30699 net.cpp:177] Memory required for data: 515130912
I0418 00:22:59.049573 30699 layer_factory.hpp:77] Creating layer BatchNorm35
I0418 00:22:59.049579 30699 net.cpp:112] Creating Layer BatchNorm35
I0418 00:22:59.049582 30699 net.cpp:446] BatchNorm35 <- Convolution21
I0418 00:22:59.049585 30699 net.cpp:407] BatchNorm35 -> Convolution21 (in-place)
I0418 00:22:59.049716 30699 net.cpp:162] Setting up BatchNorm35
I0418 00:22:59.049721 30699 net.cpp:169] Top shape: 2 64 19 19 (46208)
I0418 00:22:59.049723 30699 net.cpp:177] Memory required for data: 515315744
I0418 00:22:59.049727 30699 layer_factory.hpp:77] Creating layer Scale35
I0418 00:22:59.049731 30699 net.cpp:112] Creating Layer Scale35
I0418 00:22:59.049734 30699 net.cpp:446] Scale35 <- Convolution21
I0418 00:22:59.049737 30699 net.cpp:407] Scale35 -> Convolution21 (in-place)
I0418 00:22:59.049763 30699 layer_factory.hpp:77] Creating layer Scale35
I0418 00:22:59.049839 30699 net.cpp:162] Setting up Scale35
I0418 00:22:59.049844 30699 net.cpp:169] Top shape: 2 64 19 19 (46208)
I0418 00:22:59.049846 30699 net.cpp:177] Memory required for data: 515500576
I0418 00:22:59.049849 30699 layer_factory.hpp:77] Creating layer ConvolutionDepthwise17
I0418 00:22:59.049854 30699 net.cpp:112] Creating Layer ConvolutionDepthwise17
I0418 00:22:59.049856 30699 net.cpp:446] ConvolutionDepthwise17 <- Convolution21
I0418 00:22:59.049875 30699 net.cpp:420] ConvolutionDepthwise17 -> ConvolutionDepthwise17
I0418 00:22:59.049952 30699 net.cpp:162] Setting up ConvolutionDepthwise17
I0418 00:22:59.049957 30699 net.cpp:169] Top shape: 2 64 19 19 (46208)
I0418 00:22:59.049959 30699 net.cpp:177] Memory required for data: 515685408
I0418 00:22:59.049962 30699 layer_factory.hpp:77] Creating layer BatchNorm36
I0418 00:22:59.049976 30699 net.cpp:112] Creating Layer BatchNorm36
I0418 00:22:59.049978 30699 net.cpp:446] BatchNorm36 <- ConvolutionDepthwise17
I0418 00:22:59.049981 30699 net.cpp:407] BatchNorm36 -> ConvolutionDepthwise17 (in-place)
I0418 00:22:59.050140 30699 net.cpp:162] Setting up BatchNorm36
I0418 00:22:59.050144 30699 net.cpp:169] Top shape: 2 64 19 19 (46208)
I0418 00:22:59.050148 30699 net.cpp:177] Memory required for data: 515870240
I0418 00:22:59.050155 30699 layer_factory.hpp:77] Creating layer Scale36
I0418 00:22:59.050160 30699 net.cpp:112] Creating Layer Scale36
I0418 00:22:59.050163 30699 net.cpp:446] Scale36 <- ConvolutionDepthwise17
I0418 00:22:59.050176 30699 net.cpp:407] Scale36 -> ConvolutionDepthwise17 (in-place)
I0418 00:22:59.050201 30699 layer_factory.hpp:77] Creating layer Scale36
I0418 00:22:59.050282 30699 net.cpp:162] Setting up Scale36
I0418 00:22:59.050287 30699 net.cpp:169] Top shape: 2 64 19 19 (46208)
I0418 00:22:59.050289 30699 net.cpp:177] Memory required for data: 516055072
I0418 00:22:59.050292 30699 layer_factory.hpp:77] Creating layer ReLU20
I0418 00:22:59.050297 30699 net.cpp:112] Creating Layer ReLU20
I0418 00:22:59.050298 30699 net.cpp:446] ReLU20 <- ConvolutionDepthwise17
I0418 00:22:59.050312 30699 net.cpp:407] ReLU20 -> ConvolutionDepthwise17 (in-place)
I0418 00:22:59.050849 30699 net.cpp:162] Setting up ReLU20
I0418 00:22:59.050856 30699 net.cpp:169] Top shape: 2 64 19 19 (46208)
I0418 00:22:59.050860 30699 net.cpp:177] Memory required for data: 516239904
I0418 00:22:59.050863 30699 layer_factory.hpp:77] Creating layer Concat15
I0418 00:22:59.050868 30699 net.cpp:112] Creating Layer Concat15
I0418 00:22:59.050870 30699 net.cpp:446] Concat15 <- Concat14_Concat14_0_split_1
I0418 00:22:59.050874 30699 net.cpp:446] Concat15 <- ConvolutionDepthwise17
I0418 00:22:59.050878 30699 net.cpp:420] Concat15 -> Concat15
I0418 00:22:59.050896 30699 net.cpp:162] Setting up Concat15
I0418 00:22:59.050899 30699 net.cpp:169] Top shape: 2 448 19 19 (323456)
I0418 00:22:59.050902 30699 net.cpp:177] Memory required for data: 517533728
I0418 00:22:59.050904 30699 layer_factory.hpp:77] Creating layer Concat15_Concat15_0_split
I0418 00:22:59.050909 30699 net.cpp:112] Creating Layer Concat15_Concat15_0_split
I0418 00:22:59.050910 30699 net.cpp:446] Concat15_Concat15_0_split <- Concat15
I0418 00:22:59.050915 30699 net.cpp:420] Concat15_Concat15_0_split -> Concat15_Concat15_0_split_0
I0418 00:22:59.050920 30699 net.cpp:420] Concat15_Concat15_0_split -> Concat15_Concat15_0_split_1
I0418 00:22:59.050969 30699 net.cpp:162] Setting up Concat15_Concat15_0_split
I0418 00:22:59.050973 30699 net.cpp:169] Top shape: 2 448 19 19 (323456)
I0418 00:22:59.050976 30699 net.cpp:169] Top shape: 2 448 19 19 (323456)
I0418 00:22:59.050981 30699 net.cpp:177] Memory required for data: 520121376
I0418 00:22:59.050983 30699 layer_factory.hpp:77] Creating layer Convolution22
I0418 00:22:59.050994 30699 net.cpp:112] Creating Layer Convolution22
I0418 00:22:59.050997 30699 net.cpp:446] Convolution22 <- Concat15_Concat15_0_split_0
I0418 00:22:59.051002 30699 net.cpp:420] Convolution22 -> Convolution22
I0418 00:22:59.052911 30699 net.cpp:162] Setting up Convolution22
I0418 00:22:59.052918 30699 net.cpp:169] Top shape: 2 64 19 19 (46208)
I0418 00:22:59.052922 30699 net.cpp:177] Memory required for data: 520306208
I0418 00:22:59.052928 30699 layer_factory.hpp:77] Creating layer BatchNorm37
I0418 00:22:59.052935 30699 net.cpp:112] Creating Layer BatchNorm37
I0418 00:22:59.052939 30699 net.cpp:446] BatchNorm37 <- Convolution22
I0418 00:22:59.052947 30699 net.cpp:407] BatchNorm37 -> Convolution22 (in-place)
I0418 00:22:59.053103 30699 net.cpp:162] Setting up BatchNorm37
I0418 00:22:59.053119 30699 net.cpp:169] Top shape: 2 64 19 19 (46208)
I0418 00:22:59.053123 30699 net.cpp:177] Memory required for data: 520491040
I0418 00:22:59.053130 30699 layer_factory.hpp:77] Creating layer Scale37
I0418 00:22:59.053136 30699 net.cpp:112] Creating Layer Scale37
I0418 00:22:59.053141 30699 net.cpp:446] Scale37 <- Convolution22
I0418 00:22:59.053145 30699 net.cpp:407] Scale37 -> Convolution22 (in-place)
I0418 00:22:59.053182 30699 layer_factory.hpp:77] Creating layer Scale37
I0418 00:22:59.053268 30699 net.cpp:162] Setting up Scale37
I0418 00:22:59.053274 30699 net.cpp:169] Top shape: 2 64 19 19 (46208)
I0418 00:22:59.053277 30699 net.cpp:177] Memory required for data: 520675872
I0418 00:22:59.053282 30699 layer_factory.hpp:77] Creating layer ConvolutionDepthwise18
I0418 00:22:59.053290 30699 net.cpp:112] Creating Layer ConvolutionDepthwise18
I0418 00:22:59.053294 30699 net.cpp:446] ConvolutionDepthwise18 <- Convolution22
I0418 00:22:59.053300 30699 net.cpp:420] ConvolutionDepthwise18 -> ConvolutionDepthwise18
I0418 00:22:59.053372 30699 net.cpp:162] Setting up ConvolutionDepthwise18
I0418 00:22:59.053376 30699 net.cpp:169] Top shape: 2 64 19 19 (46208)
I0418 00:22:59.053380 30699 net.cpp:177] Memory required for data: 520860704
I0418 00:22:59.053382 30699 layer_factory.hpp:77] Creating layer BatchNorm38
I0418 00:22:59.053386 30699 net.cpp:112] Creating Layer BatchNorm38
I0418 00:22:59.053390 30699 net.cpp:446] BatchNorm38 <- ConvolutionDepthwise18
I0418 00:22:59.053393 30699 net.cpp:407] BatchNorm38 -> ConvolutionDepthwise18 (in-place)
I0418 00:22:59.053527 30699 net.cpp:162] Setting up BatchNorm38
I0418 00:22:59.053531 30699 net.cpp:169] Top shape: 2 64 19 19 (46208)
I0418 00:22:59.053535 30699 net.cpp:177] Memory required for data: 521045536
I0418 00:22:59.053542 30699 layer_factory.hpp:77] Creating layer Scale38
I0418 00:22:59.053548 30699 net.cpp:112] Creating Layer Scale38
I0418 00:22:59.053552 30699 net.cpp:446] Scale38 <- ConvolutionDepthwise18
I0418 00:22:59.053557 30699 net.cpp:407] Scale38 -> ConvolutionDepthwise18 (in-place)
I0418 00:22:59.053587 30699 layer_factory.hpp:77] Creating layer Scale38
I0418 00:22:59.053663 30699 net.cpp:162] Setting up Scale38
I0418 00:22:59.053668 30699 net.cpp:169] Top shape: 2 64 19 19 (46208)
I0418 00:22:59.053671 30699 net.cpp:177] Memory required for data: 521230368
I0418 00:22:59.053676 30699 layer_factory.hpp:77] Creating layer ReLU21
I0418 00:22:59.053685 30699 net.cpp:112] Creating Layer ReLU21
I0418 00:22:59.053694 30699 net.cpp:446] ReLU21 <- ConvolutionDepthwise18
I0418 00:22:59.053699 30699 net.cpp:407] ReLU21 -> ConvolutionDepthwise18 (in-place)
I0418 00:22:59.054160 30699 net.cpp:162] Setting up ReLU21
I0418 00:22:59.054167 30699 net.cpp:169] Top shape: 2 64 19 19 (46208)
I0418 00:22:59.054172 30699 net.cpp:177] Memory required for data: 521415200
I0418 00:22:59.054173 30699 layer_factory.hpp:77] Creating layer Concat16
I0418 00:22:59.054180 30699 net.cpp:112] Creating Layer Concat16
I0418 00:22:59.054184 30699 net.cpp:446] Concat16 <- Concat15_Concat15_0_split_1
I0418 00:22:59.054188 30699 net.cpp:446] Concat16 <- ConvolutionDepthwise18
I0418 00:22:59.054193 30699 net.cpp:420] Concat16 -> Concat16
I0418 00:22:59.054215 30699 net.cpp:162] Setting up Concat16
I0418 00:22:59.054219 30699 net.cpp:169] Top shape: 2 512 19 19 (369664)
I0418 00:22:59.054222 30699 net.cpp:177] Memory required for data: 522893856
I0418 00:22:59.054225 30699 layer_factory.hpp:77] Creating layer Convolution23
I0418 00:22:59.054234 30699 net.cpp:112] Creating Layer Convolution23
I0418 00:22:59.054237 30699 net.cpp:446] Convolution23 <- Concat16
I0418 00:22:59.054242 30699 net.cpp:420] Convolution23 -> Convolution23
I0418 00:22:59.057018 30699 net.cpp:162] Setting up Convolution23
I0418 00:22:59.057029 30699 net.cpp:169] Top shape: 2 256 19 19 (184832)
I0418 00:22:59.057034 30699 net.cpp:177] Memory required for data: 523633184
I0418 00:22:59.057041 30699 layer_factory.hpp:77] Creating layer BatchNorm39
I0418 00:22:59.057049 30699 net.cpp:112] Creating Layer BatchNorm39
I0418 00:22:59.057068 30699 net.cpp:446] BatchNorm39 <- Convolution23
I0418 00:22:59.057080 30699 net.cpp:420] BatchNorm39 -> BatchNorm39
I0418 00:22:59.057219 30699 net.cpp:162] Setting up BatchNorm39
I0418 00:22:59.057222 30699 net.cpp:169] Top shape: 2 256 19 19 (184832)
I0418 00:22:59.057226 30699 net.cpp:177] Memory required for data: 524372512
I0418 00:22:59.057233 30699 layer_factory.hpp:77] Creating layer Scale39
I0418 00:22:59.057241 30699 net.cpp:112] Creating Layer Scale39
I0418 00:22:59.057245 30699 net.cpp:446] Scale39 <- BatchNorm39
I0418 00:22:59.057251 30699 net.cpp:407] Scale39 -> BatchNorm39 (in-place)
I0418 00:22:59.057283 30699 layer_factory.hpp:77] Creating layer Scale39
I0418 00:22:59.057355 30699 net.cpp:162] Setting up Scale39
I0418 00:22:59.057360 30699 net.cpp:169] Top shape: 2 256 19 19 (184832)
I0418 00:22:59.057364 30699 net.cpp:177] Memory required for data: 525111840
I0418 00:22:59.057369 30699 layer_factory.hpp:77] Creating layer ReLU22
I0418 00:22:59.057377 30699 net.cpp:112] Creating Layer ReLU22
I0418 00:22:59.057381 30699 net.cpp:446] ReLU22 <- BatchNorm39
I0418 00:22:59.057386 30699 net.cpp:420] ReLU22 -> ReLU22
I0418 00:22:59.057711 30699 net.cpp:162] Setting up ReLU22
I0418 00:22:59.057718 30699 net.cpp:169] Top shape: 2 256 19 19 (184832)
I0418 00:22:59.057721 30699 net.cpp:177] Memory required for data: 525851168
I0418 00:22:59.057723 30699 layer_factory.hpp:77] Creating layer ReLU22_ReLU22_0_split
I0418 00:22:59.057729 30699 net.cpp:112] Creating Layer ReLU22_ReLU22_0_split
I0418 00:22:59.057732 30699 net.cpp:446] ReLU22_ReLU22_0_split <- ReLU22
I0418 00:22:59.057736 30699 net.cpp:420] ReLU22_ReLU22_0_split -> ReLU22_ReLU22_0_split_0
I0418 00:22:59.057741 30699 net.cpp:420] ReLU22_ReLU22_0_split -> ReLU22_ReLU22_0_split_1
I0418 00:22:59.057765 30699 net.cpp:162] Setting up ReLU22_ReLU22_0_split
I0418 00:22:59.057768 30699 net.cpp:169] Top shape: 2 256 19 19 (184832)
I0418 00:22:59.057771 30699 net.cpp:169] Top shape: 2 256 19 19 (184832)
I0418 00:22:59.057775 30699 net.cpp:177] Memory required for data: 527329824
I0418 00:22:59.057776 30699 layer_factory.hpp:77] Creating layer Convolution24
I0418 00:22:59.057783 30699 net.cpp:112] Creating Layer Convolution24
I0418 00:22:59.057787 30699 net.cpp:446] Convolution24 <- ReLU22_ReLU22_0_split_0
I0418 00:22:59.057790 30699 net.cpp:420] Convolution24 -> Convolution24
I0418 00:22:59.059229 30699 net.cpp:162] Setting up Convolution24
I0418 00:22:59.059237 30699 net.cpp:169] Top shape: 2 80 19 19 (57760)
I0418 00:22:59.059242 30699 net.cpp:177] Memory required for data: 527560864
I0418 00:22:59.059247 30699 layer_factory.hpp:77] Creating layer BatchNorm40
I0418 00:22:59.059253 30699 net.cpp:112] Creating Layer BatchNorm40
I0418 00:22:59.059257 30699 net.cpp:446] BatchNorm40 <- Convolution24
I0418 00:22:59.059260 30699 net.cpp:407] BatchNorm40 -> Convolution24 (in-place)
I0418 00:22:59.059401 30699 net.cpp:162] Setting up BatchNorm40
I0418 00:22:59.059406 30699 net.cpp:169] Top shape: 2 80 19 19 (57760)
I0418 00:22:59.059408 30699 net.cpp:177] Memory required for data: 527791904
I0418 00:22:59.059413 30699 layer_factory.hpp:77] Creating layer Scale40
I0418 00:22:59.059417 30699 net.cpp:112] Creating Layer Scale40
I0418 00:22:59.059419 30699 net.cpp:446] Scale40 <- Convolution24
I0418 00:22:59.059423 30699 net.cpp:407] Scale40 -> Convolution24 (in-place)
I0418 00:22:59.059448 30699 layer_factory.hpp:77] Creating layer Scale40
I0418 00:22:59.059522 30699 net.cpp:162] Setting up Scale40
I0418 00:22:59.059525 30699 net.cpp:169] Top shape: 2 80 19 19 (57760)
I0418 00:22:59.059538 30699 net.cpp:177] Memory required for data: 528022944
I0418 00:22:59.059542 30699 layer_factory.hpp:77] Creating layer ConvolutionDepthwise19
I0418 00:22:59.059556 30699 net.cpp:112] Creating Layer ConvolutionDepthwise19
I0418 00:22:59.059559 30699 net.cpp:446] ConvolutionDepthwise19 <- Convolution24
I0418 00:22:59.059563 30699 net.cpp:420] ConvolutionDepthwise19 -> ConvolutionDepthwise19
I0418 00:22:59.059634 30699 net.cpp:162] Setting up ConvolutionDepthwise19
I0418 00:22:59.059648 30699 net.cpp:169] Top shape: 2 80 19 19 (57760)
I0418 00:22:59.059653 30699 net.cpp:177] Memory required for data: 528253984
I0418 00:22:59.059657 30699 layer_factory.hpp:77] Creating layer BatchNorm41
I0418 00:22:59.059661 30699 net.cpp:112] Creating Layer BatchNorm41
I0418 00:22:59.059664 30699 net.cpp:446] BatchNorm41 <- ConvolutionDepthwise19
I0418 00:22:59.059669 30699 net.cpp:407] BatchNorm41 -> ConvolutionDepthwise19 (in-place)
I0418 00:22:59.059834 30699 net.cpp:162] Setting up BatchNorm41
I0418 00:22:59.059849 30699 net.cpp:169] Top shape: 2 80 19 19 (57760)
I0418 00:22:59.059851 30699 net.cpp:177] Memory required for data: 528485024
I0418 00:22:59.059865 30699 layer_factory.hpp:77] Creating layer Scale41
I0418 00:22:59.059870 30699 net.cpp:112] Creating Layer Scale41
I0418 00:22:59.059872 30699 net.cpp:446] Scale41 <- ConvolutionDepthwise19
I0418 00:22:59.059877 30699 net.cpp:407] Scale41 -> ConvolutionDepthwise19 (in-place)
I0418 00:22:59.059918 30699 layer_factory.hpp:77] Creating layer Scale41
I0418 00:22:59.060041 30699 net.cpp:162] Setting up Scale41
I0418 00:22:59.060046 30699 net.cpp:169] Top shape: 2 80 19 19 (57760)
I0418 00:22:59.060050 30699 net.cpp:177] Memory required for data: 528716064
I0418 00:22:59.060063 30699 layer_factory.hpp:77] Creating layer ReLU23
I0418 00:22:59.060071 30699 net.cpp:112] Creating Layer ReLU23
I0418 00:22:59.060075 30699 net.cpp:446] ReLU23 <- ConvolutionDepthwise19
I0418 00:22:59.060078 30699 net.cpp:407] ReLU23 -> ConvolutionDepthwise19 (in-place)
I0418 00:22:59.060400 30699 net.cpp:162] Setting up ReLU23
I0418 00:22:59.060405 30699 net.cpp:169] Top shape: 2 80 19 19 (57760)
I0418 00:22:59.060410 30699 net.cpp:177] Memory required for data: 528947104
I0418 00:22:59.060413 30699 layer_factory.hpp:77] Creating layer Concat17
I0418 00:22:59.060420 30699 net.cpp:112] Creating Layer Concat17
I0418 00:22:59.060425 30699 net.cpp:446] Concat17 <- ReLU22_ReLU22_0_split_1
I0418 00:22:59.060429 30699 net.cpp:446] Concat17 <- ConvolutionDepthwise19
I0418 00:22:59.060436 30699 net.cpp:420] Concat17 -> Concat17
I0418 00:22:59.060461 30699 net.cpp:162] Setting up Concat17
I0418 00:22:59.060464 30699 net.cpp:169] Top shape: 2 336 19 19 (242592)
I0418 00:22:59.060468 30699 net.cpp:177] Memory required for data: 529917472
I0418 00:22:59.060472 30699 layer_factory.hpp:77] Creating layer Concat17_Concat17_0_split
I0418 00:22:59.060475 30699 net.cpp:112] Creating Layer Concat17_Concat17_0_split
I0418 00:22:59.060477 30699 net.cpp:446] Concat17_Concat17_0_split <- Concat17
I0418 00:22:59.060482 30699 net.cpp:420] Concat17_Concat17_0_split -> Concat17_Concat17_0_split_0
I0418 00:22:59.060487 30699 net.cpp:420] Concat17_Concat17_0_split -> Concat17_Concat17_0_split_1
I0418 00:22:59.060509 30699 net.cpp:162] Setting up Concat17_Concat17_0_split
I0418 00:22:59.060513 30699 net.cpp:169] Top shape: 2 336 19 19 (242592)
I0418 00:22:59.060516 30699 net.cpp:169] Top shape: 2 336 19 19 (242592)
I0418 00:22:59.060518 30699 net.cpp:177] Memory required for data: 531858208
I0418 00:22:59.060520 30699 layer_factory.hpp:77] Creating layer Convolution25
I0418 00:22:59.060528 30699 net.cpp:112] Creating Layer Convolution25
I0418 00:22:59.060530 30699 net.cpp:446] Convolution25 <- Concat17_Concat17_0_split_0
I0418 00:22:59.060534 30699 net.cpp:420] Convolution25 -> Convolution25
I0418 00:22:59.062026 30699 net.cpp:162] Setting up Convolution25
I0418 00:22:59.062033 30699 net.cpp:169] Top shape: 2 80 19 19 (57760)
I0418 00:22:59.062037 30699 net.cpp:177] Memory required for data: 532089248
I0418 00:22:59.062041 30699 layer_factory.hpp:77] Creating layer BatchNorm42
I0418 00:22:59.062048 30699 net.cpp:112] Creating Layer BatchNorm42
I0418 00:22:59.062053 30699 net.cpp:446] BatchNorm42 <- Convolution25
I0418 00:22:59.062058 30699 net.cpp:407] BatchNorm42 -> Convolution25 (in-place)
I0418 00:22:59.062263 30699 net.cpp:162] Setting up BatchNorm42
I0418 00:22:59.062273 30699 net.cpp:169] Top shape: 2 80 19 19 (57760)
I0418 00:22:59.062278 30699 net.cpp:177] Memory required for data: 532320288
I0418 00:22:59.062300 30699 layer_factory.hpp:77] Creating layer Scale42
I0418 00:22:59.062311 30699 net.cpp:112] Creating Layer Scale42
I0418 00:22:59.062317 30699 net.cpp:446] Scale42 <- Convolution25
I0418 00:22:59.062324 30699 net.cpp:407] Scale42 -> Convolution25 (in-place)
I0418 00:22:59.062369 30699 layer_factory.hpp:77] Creating layer Scale42
I0418 00:22:59.062495 30699 net.cpp:162] Setting up Scale42
I0418 00:22:59.062503 30699 net.cpp:169] Top shape: 2 80 19 19 (57760)
I0418 00:22:59.062510 30699 net.cpp:177] Memory required for data: 532551328
I0418 00:22:59.062517 30699 layer_factory.hpp:77] Creating layer ConvolutionDepthwise20
I0418 00:22:59.062526 30699 net.cpp:112] Creating Layer ConvolutionDepthwise20
I0418 00:22:59.062531 30699 net.cpp:446] ConvolutionDepthwise20 <- Convolution25
I0418 00:22:59.062539 30699 net.cpp:420] ConvolutionDepthwise20 -> ConvolutionDepthwise20
I0418 00:22:59.062644 30699 net.cpp:162] Setting up ConvolutionDepthwise20
I0418 00:22:59.062652 30699 net.cpp:169] Top shape: 2 80 19 19 (57760)
I0418 00:22:59.062659 30699 net.cpp:177] Memory required for data: 532782368
I0418 00:22:59.062664 30699 layer_factory.hpp:77] Creating layer BatchNorm43
I0418 00:22:59.062671 30699 net.cpp:112] Creating Layer BatchNorm43
I0418 00:22:59.062677 30699 net.cpp:446] BatchNorm43 <- ConvolutionDepthwise20
I0418 00:22:59.062682 30699 net.cpp:407] BatchNorm43 -> ConvolutionDepthwise20 (in-place)
I0418 00:22:59.062875 30699 net.cpp:162] Setting up BatchNorm43
I0418 00:22:59.062882 30699 net.cpp:169] Top shape: 2 80 19 19 (57760)
I0418 00:22:59.062889 30699 net.cpp:177] Memory required for data: 533013408
I0418 00:22:59.062911 30699 layer_factory.hpp:77] Creating layer Scale43
I0418 00:22:59.062919 30699 net.cpp:112] Creating Layer Scale43
I0418 00:22:59.062924 30699 net.cpp:446] Scale43 <- ConvolutionDepthwise20
I0418 00:22:59.062930 30699 net.cpp:407] Scale43 -> ConvolutionDepthwise20 (in-place)
I0418 00:22:59.062973 30699 layer_factory.hpp:77] Creating layer Scale43
I0418 00:22:59.063096 30699 net.cpp:162] Setting up Scale43
I0418 00:22:59.063104 30699 net.cpp:169] Top shape: 2 80 19 19 (57760)
I0418 00:22:59.063110 30699 net.cpp:177] Memory required for data: 533244448
I0418 00:22:59.063117 30699 layer_factory.hpp:77] Creating layer ReLU24
I0418 00:22:59.063125 30699 net.cpp:112] Creating Layer ReLU24
I0418 00:22:59.063130 30699 net.cpp:446] ReLU24 <- ConvolutionDepthwise20
I0418 00:22:59.063136 30699 net.cpp:407] ReLU24 -> ConvolutionDepthwise20 (in-place)
I0418 00:22:59.064610 30699 net.cpp:162] Setting up ReLU24
I0418 00:22:59.064620 30699 net.cpp:169] Top shape: 2 80 19 19 (57760)
I0418 00:22:59.064625 30699 net.cpp:177] Memory required for data: 533475488
I0418 00:22:59.064628 30699 layer_factory.hpp:77] Creating layer Concat18
I0418 00:22:59.064641 30699 net.cpp:112] Creating Layer Concat18
I0418 00:22:59.064647 30699 net.cpp:446] Concat18 <- Concat17_Concat17_0_split_1
I0418 00:22:59.064654 30699 net.cpp:446] Concat18 <- ConvolutionDepthwise20
I0418 00:22:59.064661 30699 net.cpp:420] Concat18 -> Concat18
I0418 00:22:59.064697 30699 net.cpp:162] Setting up Concat18
I0418 00:22:59.064703 30699 net.cpp:169] Top shape: 2 416 19 19 (300352)
I0418 00:22:59.064709 30699 net.cpp:177] Memory required for data: 534676896
I0418 00:22:59.064713 30699 layer_factory.hpp:77] Creating layer Concat18_Concat18_0_split
I0418 00:22:59.064719 30699 net.cpp:112] Creating Layer Concat18_Concat18_0_split
I0418 00:22:59.064724 30699 net.cpp:446] Concat18_Concat18_0_split <- Concat18
I0418 00:22:59.064730 30699 net.cpp:420] Concat18_Concat18_0_split -> Concat18_Concat18_0_split_0
I0418 00:22:59.064739 30699 net.cpp:420] Concat18_Concat18_0_split -> Concat18_Concat18_0_split_1
I0418 00:22:59.064783 30699 net.cpp:162] Setting up Concat18_Concat18_0_split
I0418 00:22:59.064790 30699 net.cpp:169] Top shape: 2 416 19 19 (300352)
I0418 00:22:59.064797 30699 net.cpp:169] Top shape: 2 416 19 19 (300352)
I0418 00:22:59.064803 30699 net.cpp:177] Memory required for data: 537079712
I0418 00:22:59.064806 30699 layer_factory.hpp:77] Creating layer Convolution26
I0418 00:22:59.064834 30699 net.cpp:112] Creating Layer Convolution26
I0418 00:22:59.064841 30699 net.cpp:446] Convolution26 <- Concat18_Concat18_0_split_0
I0418 00:22:59.064847 30699 net.cpp:420] Convolution26 -> Convolution26
I0418 00:22:59.066581 30699 net.cpp:162] Setting up Convolution26
I0418 00:22:59.066589 30699 net.cpp:169] Top shape: 2 80 19 19 (57760)
I0418 00:22:59.066593 30699 net.cpp:177] Memory required for data: 537310752
I0418 00:22:59.066607 30699 layer_factory.hpp:77] Creating layer BatchNorm44
I0418 00:22:59.066617 30699 net.cpp:112] Creating Layer BatchNorm44
I0418 00:22:59.066623 30699 net.cpp:446] BatchNorm44 <- Convolution26
I0418 00:22:59.066628 30699 net.cpp:407] BatchNorm44 -> Convolution26 (in-place)
I0418 00:22:59.066855 30699 net.cpp:162] Setting up BatchNorm44
I0418 00:22:59.066872 30699 net.cpp:169] Top shape: 2 80 19 19 (57760)
I0418 00:22:59.066879 30699 net.cpp:177] Memory required for data: 537541792
I0418 00:22:59.066887 30699 layer_factory.hpp:77] Creating layer Scale44
I0418 00:22:59.066897 30699 net.cpp:112] Creating Layer Scale44
I0418 00:22:59.066903 30699 net.cpp:446] Scale44 <- Convolution26
I0418 00:22:59.066910 30699 net.cpp:407] Scale44 -> Convolution26 (in-place)
I0418 00:22:59.066954 30699 layer_factory.hpp:77] Creating layer Scale44
I0418 00:22:59.067085 30699 net.cpp:162] Setting up Scale44
I0418 00:22:59.067093 30699 net.cpp:169] Top shape: 2 80 19 19 (57760)
I0418 00:22:59.067101 30699 net.cpp:177] Memory required for data: 537772832
I0418 00:22:59.067106 30699 layer_factory.hpp:77] Creating layer ConvolutionDepthwise21
I0418 00:22:59.067117 30699 net.cpp:112] Creating Layer ConvolutionDepthwise21
I0418 00:22:59.067122 30699 net.cpp:446] ConvolutionDepthwise21 <- Convolution26
I0418 00:22:59.067129 30699 net.cpp:420] ConvolutionDepthwise21 -> ConvolutionDepthwise21
I0418 00:22:59.067236 30699 net.cpp:162] Setting up ConvolutionDepthwise21
I0418 00:22:59.067245 30699 net.cpp:169] Top shape: 2 80 19 19 (57760)
I0418 00:22:59.067250 30699 net.cpp:177] Memory required for data: 538003872
I0418 00:22:59.067255 30699 layer_factory.hpp:77] Creating layer BatchNorm45
I0418 00:22:59.067261 30699 net.cpp:112] Creating Layer BatchNorm45
I0418 00:22:59.067265 30699 net.cpp:446] BatchNorm45 <- ConvolutionDepthwise21
I0418 00:22:59.067271 30699 net.cpp:407] BatchNorm45 -> ConvolutionDepthwise21 (in-place)
I0418 00:22:59.067495 30699 net.cpp:162] Setting up BatchNorm45
I0418 00:22:59.067503 30699 net.cpp:169] Top shape: 2 80 19 19 (57760)
I0418 00:22:59.067518 30699 net.cpp:177] Memory required for data: 538234912
I0418 00:22:59.067526 30699 layer_factory.hpp:77] Creating layer Scale45
I0418 00:22:59.067534 30699 net.cpp:112] Creating Layer Scale45
I0418 00:22:59.067549 30699 net.cpp:446] Scale45 <- ConvolutionDepthwise21
I0418 00:22:59.067554 30699 net.cpp:407] Scale45 -> ConvolutionDepthwise21 (in-place)
I0418 00:22:59.067597 30699 layer_factory.hpp:77] Creating layer Scale45
I0418 00:22:59.067716 30699 net.cpp:162] Setting up Scale45
I0418 00:22:59.067724 30699 net.cpp:169] Top shape: 2 80 19 19 (57760)
I0418 00:22:59.067731 30699 net.cpp:177] Memory required for data: 538465952
I0418 00:22:59.067746 30699 layer_factory.hpp:77] Creating layer ReLU25
I0418 00:22:59.067757 30699 net.cpp:112] Creating Layer ReLU25
I0418 00:22:59.067764 30699 net.cpp:446] ReLU25 <- ConvolutionDepthwise21
I0418 00:22:59.067780 30699 net.cpp:407] ReLU25 -> ConvolutionDepthwise21 (in-place)
I0418 00:22:59.068495 30699 net.cpp:162] Setting up ReLU25
I0418 00:22:59.068505 30699 net.cpp:169] Top shape: 2 80 19 19 (57760)
I0418 00:22:59.068511 30699 net.cpp:177] Memory required for data: 538696992
I0418 00:22:59.068516 30699 layer_factory.hpp:77] Creating layer Concat19
I0418 00:22:59.068524 30699 net.cpp:112] Creating Layer Concat19
I0418 00:22:59.068531 30699 net.cpp:446] Concat19 <- Concat18_Concat18_0_split_1
I0418 00:22:59.068536 30699 net.cpp:446] Concat19 <- ConvolutionDepthwise21
I0418 00:22:59.068542 30699 net.cpp:420] Concat19 -> Concat19
I0418 00:22:59.068573 30699 net.cpp:162] Setting up Concat19
I0418 00:22:59.068593 30699 net.cpp:169] Top shape: 2 496 19 19 (358112)
I0418 00:22:59.068599 30699 net.cpp:177] Memory required for data: 540129440
I0418 00:22:59.068603 30699 layer_factory.hpp:77] Creating layer Concat19_Concat19_0_split
I0418 00:22:59.068612 30699 net.cpp:112] Creating Layer Concat19_Concat19_0_split
I0418 00:22:59.068617 30699 net.cpp:446] Concat19_Concat19_0_split <- Concat19
I0418 00:22:59.068624 30699 net.cpp:420] Concat19_Concat19_0_split -> Concat19_Concat19_0_split_0
I0418 00:22:59.068631 30699 net.cpp:420] Concat19_Concat19_0_split -> Concat19_Concat19_0_split_1
I0418 00:22:59.068676 30699 net.cpp:162] Setting up Concat19_Concat19_0_split
I0418 00:22:59.068684 30699 net.cpp:169] Top shape: 2 496 19 19 (358112)
I0418 00:22:59.068691 30699 net.cpp:169] Top shape: 2 496 19 19 (358112)
I0418 00:22:59.068696 30699 net.cpp:177] Memory required for data: 542994336
I0418 00:22:59.068701 30699 layer_factory.hpp:77] Creating layer Convolution27
I0418 00:22:59.068711 30699 net.cpp:112] Creating Layer Convolution27
I0418 00:22:59.068717 30699 net.cpp:446] Convolution27 <- Concat19_Concat19_0_split_0
I0418 00:22:59.068723 30699 net.cpp:420] Convolution27 -> Convolution27
I0418 00:22:59.070530 30699 net.cpp:162] Setting up Convolution27
I0418 00:22:59.070538 30699 net.cpp:169] Top shape: 2 80 19 19 (57760)
I0418 00:22:59.070542 30699 net.cpp:177] Memory required for data: 543225376
I0418 00:22:59.070547 30699 layer_factory.hpp:77] Creating layer BatchNorm46
I0418 00:22:59.070554 30699 net.cpp:112] Creating Layer BatchNorm46
I0418 00:22:59.070559 30699 net.cpp:446] BatchNorm46 <- Convolution27
I0418 00:22:59.070564 30699 net.cpp:407] BatchNorm46 -> Convolution27 (in-place)
I0418 00:22:59.070781 30699 net.cpp:162] Setting up BatchNorm46
I0418 00:22:59.070789 30699 net.cpp:169] Top shape: 2 80 19 19 (57760)
I0418 00:22:59.070806 30699 net.cpp:177] Memory required for data: 543456416
I0418 00:22:59.070813 30699 layer_factory.hpp:77] Creating layer Scale46
I0418 00:22:59.070822 30699 net.cpp:112] Creating Layer Scale46
I0418 00:22:59.070827 30699 net.cpp:446] Scale46 <- Convolution27
I0418 00:22:59.070832 30699 net.cpp:407] Scale46 -> Convolution27 (in-place)
I0418 00:22:59.070886 30699 layer_factory.hpp:77] Creating layer Scale46
I0418 00:22:59.071032 30699 net.cpp:162] Setting up Scale46
I0418 00:22:59.071038 30699 net.cpp:169] Top shape: 2 80 19 19 (57760)
I0418 00:22:59.071053 30699 net.cpp:177] Memory required for data: 543687456
I0418 00:22:59.071060 30699 layer_factory.hpp:77] Creating layer ConvolutionDepthwise22
I0418 00:22:59.071071 30699 net.cpp:112] Creating Layer ConvolutionDepthwise22
I0418 00:22:59.071076 30699 net.cpp:446] ConvolutionDepthwise22 <- Convolution27
I0418 00:22:59.071085 30699 net.cpp:420] ConvolutionDepthwise22 -> ConvolutionDepthwise22
I0418 00:22:59.071192 30699 net.cpp:162] Setting up ConvolutionDepthwise22
I0418 00:22:59.071199 30699 net.cpp:169] Top shape: 2 80 19 19 (57760)
I0418 00:22:59.071205 30699 net.cpp:177] Memory required for data: 543918496
I0418 00:22:59.071211 30699 layer_factory.hpp:77] Creating layer BatchNorm47
I0418 00:22:59.071218 30699 net.cpp:112] Creating Layer BatchNorm47
I0418 00:22:59.071223 30699 net.cpp:446] BatchNorm47 <- ConvolutionDepthwise22
I0418 00:22:59.071230 30699 net.cpp:407] BatchNorm47 -> ConvolutionDepthwise22 (in-place)
I0418 00:22:59.071444 30699 net.cpp:162] Setting up BatchNorm47
I0418 00:22:59.071452 30699 net.cpp:169] Top shape: 2 80 19 19 (57760)
I0418 00:22:59.071460 30699 net.cpp:177] Memory required for data: 544149536
I0418 00:22:59.071467 30699 layer_factory.hpp:77] Creating layer Scale47
I0418 00:22:59.071475 30699 net.cpp:112] Creating Layer Scale47
I0418 00:22:59.071480 30699 net.cpp:446] Scale47 <- ConvolutionDepthwise22
I0418 00:22:59.071486 30699 net.cpp:407] Scale47 -> ConvolutionDepthwise22 (in-place)
I0418 00:22:59.071529 30699 layer_factory.hpp:77] Creating layer Scale47
I0418 00:22:59.071653 30699 net.cpp:162] Setting up Scale47
I0418 00:22:59.071661 30699 net.cpp:169] Top shape: 2 80 19 19 (57760)
I0418 00:22:59.071681 30699 net.cpp:177] Memory required for data: 544380576
I0418 00:22:59.071688 30699 layer_factory.hpp:77] Creating layer ReLU26
I0418 00:22:59.071696 30699 net.cpp:112] Creating Layer ReLU26
I0418 00:22:59.071700 30699 net.cpp:446] ReLU26 <- ConvolutionDepthwise22
I0418 00:22:59.071707 30699 net.cpp:407] ReLU26 -> ConvolutionDepthwise22 (in-place)
I0418 00:22:59.072449 30699 net.cpp:162] Setting up ReLU26
I0418 00:22:59.072456 30699 net.cpp:169] Top shape: 2 80 19 19 (57760)
I0418 00:22:59.072460 30699 net.cpp:177] Memory required for data: 544611616
I0418 00:22:59.072464 30699 layer_factory.hpp:77] Creating layer Concat20
I0418 00:22:59.072474 30699 net.cpp:112] Creating Layer Concat20
I0418 00:22:59.072480 30699 net.cpp:446] Concat20 <- Concat19_Concat19_0_split_1
I0418 00:22:59.072487 30699 net.cpp:446] Concat20 <- ConvolutionDepthwise22
I0418 00:22:59.072494 30699 net.cpp:420] Concat20 -> Concat20
I0418 00:22:59.072526 30699 net.cpp:162] Setting up Concat20
I0418 00:22:59.072533 30699 net.cpp:169] Top shape: 2 576 19 19 (415872)
I0418 00:22:59.072540 30699 net.cpp:177] Memory required for data: 546275104
I0418 00:22:59.072544 30699 layer_factory.hpp:77] Creating layer Concat20_Concat20_0_split
I0418 00:22:59.072549 30699 net.cpp:112] Creating Layer Concat20_Concat20_0_split
I0418 00:22:59.072554 30699 net.cpp:446] Concat20_Concat20_0_split <- Concat20
I0418 00:22:59.072563 30699 net.cpp:420] Concat20_Concat20_0_split -> Concat20_Concat20_0_split_0
I0418 00:22:59.072572 30699 net.cpp:420] Concat20_Concat20_0_split -> Concat20_Concat20_0_split_1
I0418 00:22:59.072615 30699 net.cpp:162] Setting up Concat20_Concat20_0_split
I0418 00:22:59.072621 30699 net.cpp:169] Top shape: 2 576 19 19 (415872)
I0418 00:22:59.072628 30699 net.cpp:169] Top shape: 2 576 19 19 (415872)
I0418 00:22:59.072634 30699 net.cpp:177] Memory required for data: 549602080
I0418 00:22:59.072638 30699 layer_factory.hpp:77] Creating layer Convolution28
…
I0418 00:22:59.315117 30699 net.cpp:177] Memory required for data: 584879712
I0418 00:22:59.315120 30699 layer_factory.hpp:77] Creating layer Second_out_norm_mbox_loc_sb_flat
I0418 00:22:59.315127 30699 net.cpp:112] Creating Layer Second_out_norm_mbox_loc_sb_flat
I0418 00:22:59.315130 30699 net.cpp:446] Second_out_norm_mbox_loc_sb_flat <- Second_out_norm_mbox_loc_sb_perm
I0418 00:22:59.315135 30699 net.cpp:420] Second_out_norm_mbox_loc_sb_flat -> Second_out_norm_mbox_loc_sb_flat
I0418 00:22:59.315152 30699 net.cpp:162] Setting up Second_out_norm_mbox_loc_sb_flat
I0418 00:22:59.315155 30699 net.cpp:169] Top shape: 2 8664 (17328)
I0418 00:22:59.315158 30699 net.cpp:177] Memory required for data: 584949024
I0418 00:22:59.315160 30699 layer_factory.hpp:77] Creating layer Second_out_norm_mbox_conf_1x1_conv
I0418 00:22:59.315166 30699 net.cpp:112] Creating Layer Second_out_norm_mbox_conf_1x1_conv
I0418 00:22:59.315169 30699 net.cpp:446] Second_out_norm_mbox_conf_1x1_conv <- Second_out_norm_Second_out_norm_0_split_1
I0418 00:22:59.315182 30699 net.cpp:420] Second_out_norm_mbox_conf_1x1_conv -> Second_out_norm_mbox_conf_1x1_conv
I0418 00:22:59.316498 30699 net.cpp:162] Setting up Second_out_norm_mbox_conf_1x1_conv
I0418 00:22:59.316506 30699 net.cpp:169] Top shape: 2 12 19 19 (8664)
I0418 00:22:59.316510 30699 net.cpp:177] Memory required for data: 584983680
I0418 00:22:59.316514 30699 layer_factory.hpp:77] Creating layer Second_out_norm_mbox_conf_dw_conv
I0418 00:22:59.316520 30699 net.cpp:112] Creating Layer Second_out_norm_mbox_conf_dw_conv
I0418 00:22:59.316524 30699 net.cpp:446] Second_out_norm_mbox_conf_dw_conv <- Second_out_norm_mbox_conf_1x1_conv
I0418 00:22:59.316529 30699 net.cpp:420] Second_out_norm_mbox_conf_dw_conv -> Second_out_norm_mbox_conf_dw_conv
I0418 00:22:59.316604 30699 net.cpp:162] Setting up Second_out_norm_mbox_conf_dw_conv
I0418 00:22:59.316608 30699 net.cpp:169] Top shape: 2 12 19 19 (8664)
I0418 00:22:59.316612 30699 net.cpp:177] Memory required for data: 585018336
I0418 00:22:59.316614 30699 layer_factory.hpp:77] Creating layer Second_out_norm_mbox_conf_bn
I0418 00:22:59.316618 30699 net.cpp:112] Creating Layer Second_out_norm_mbox_conf_bn
I0418 00:22:59.316622 30699 net.cpp:446] Second_out_norm_mbox_conf_bn <- Second_out_norm_mbox_conf_dw_conv
I0418 00:22:59.316625 30699 net.cpp:407] Second_out_norm_mbox_conf_bn -> Second_out_norm_mbox_conf_dw_conv (in-place)
I0418 00:22:59.316772 30699 net.cpp:162] Setting up Second_out_norm_mbox_conf_bn
I0418 00:22:59.316776 30699 net.cpp:169] Top shape: 2 12 19 19 (8664)
I0418 00:22:59.316781 30699 net.cpp:177] Memory required for data: 585052992
I0418 00:22:59.316787 30699 layer_factory.hpp:77] Creating layer Second_out_norm_mbox_conf_sb
I0418 00:22:59.316792 30699 net.cpp:112] Creating Layer Second_out_norm_mbox_conf_sb
I0418 00:22:59.316795 30699 net.cpp:446] Second_out_norm_mbox_conf_sb <- Second_out_norm_mbox_conf_dw_conv
I0418 00:22:59.316799 30699 net.cpp:407] Second_out_norm_mbox_conf_sb -> Second_out_norm_mbox_conf_dw_conv (in-place)
I0418 00:22:59.316829 30699 layer_factory.hpp:77] Creating layer Second_out_norm_mbox_conf_sb
I0418 00:22:59.316910 30699 net.cpp:162] Setting up Second_out_norm_mbox_conf_sb
I0418 00:22:59.316915 30699 net.cpp:169] Top shape: 2 12 19 19 (8664)
I0418 00:22:59.316917 30699 net.cpp:177] Memory required for data: 585087648
I0418 00:22:59.316921 30699 layer_factory.hpp:77] Creating layer Second_out_norm_mbox_conf_sb_perm
I0418 00:22:59.316926 30699 net.cpp:112] Creating Layer Second_out_norm_mbox_conf_sb_perm
I0418 00:22:59.316929 30699 net.cpp:446] Second_out_norm_mbox_conf_sb_perm <- Second_out_norm_mbox_conf_dw_conv
I0418 00:22:59.316934 30699 net.cpp:420] Second_out_norm_mbox_conf_sb_perm -> Second_out_norm_mbox_conf_sb_perm
I0418 00:22:59.317005 30699 net.cpp:162] Setting up Second_out_norm_mbox_conf_sb_perm
I0418 00:22:59.317009 30699 net.cpp:169] Top shape: 2 19 19 12 (8664)
I0418 00:22:59.317013 30699 net.cpp:177] Memory required for data: 585122304
I0418 00:22:59.317016 30699 layer_factory.hpp:77] Creating layer Second_out_norm_mbox_conf_sb_flat
I0418 00:22:59.317021 30699 net.cpp:112] Creating Layer Second_out_norm_mbox_conf_sb_flat
I0418 00:22:59.317025 30699 net.cpp:446] Second_out_norm_mbox_conf_sb_flat <- Second_out_norm_mbox_conf_sb_perm
I0418 00:22:59.317029 30699 net.cpp:420] Second_out_norm_mbox_conf_sb_flat -> Second_out_norm_mbox_conf_sb_flat
I0418 00:22:59.317046 30699 net.cpp:162] Setting up Second_out_norm_mbox_conf_sb_flat
I0418 00:22:59.317050 30699 net.cpp:169] Top shape: 2 4332 (8664)
I0418 00:22:59.317052 30699 net.cpp:177] Memory required for data: 585156960
I0418 00:22:59.317054 30699 layer_factory.hpp:77] Creating layer Second_out_norm_mbox_priorbox
I0418 00:22:59.317059 30699 net.cpp:112] Creating Layer Second_out_norm_mbox_priorbox
I0418 00:22:59.317061 30699 net.cpp:446] Second_out_norm_mbox_priorbox <- Second_out_norm_Second_out_norm_0_split_2
I0418 00:22:59.317065 30699 net.cpp:446] Second_out_norm_mbox_priorbox <- data_data_0_split_2
I0418 00:22:59.317078 30699 net.cpp:420] Second_out_norm_mbox_priorbox -> Second_out_norm_mbox_priorbox
I0418 00:22:59.317098 30699 net.cpp:162] Setting up Second_out_norm_mbox_priorbox
I0418 00:22:59.317101 30699 net.cpp:169] Top shape: 1 2 8664 (17328)
I0418 00:22:59.317104 30699 net.cpp:177] Memory required for data: 585226272
I0418 00:22:59.317106 30699 layer_factory.hpp:77] Creating layer Third_out_norm
I0418 00:22:59.317111 30699 net.cpp:112] Creating Layer Third_out_norm
I0418 00:22:59.317114 30699 net.cpp:446] Third_out_norm <- Eltwise3_Third_out_0_split_1
I0418 00:22:59.317117 30699 net.cpp:420] Third_out_norm -> Third_out_norm
I0418 00:22:59.317224 30699 net.cpp:162] Setting up Third_out_norm
I0418 00:22:59.317227 30699 net.cpp:169] Top shape: 2 128 10 10 (25600)
I0418 00:22:59.317230 30699 net.cpp:177] Memory required for data: 585328672
I0418 00:22:59.317234 30699 layer_factory.hpp:77] Creating layer Third_out_norm_Third_out_norm_0_split
I0418 00:22:59.317240 30699 net.cpp:112] Creating Layer Third_out_norm_Third_out_norm_0_split
I0418 00:22:59.317246 30699 net.cpp:446] Third_out_norm_Third_out_norm_0_split <- Third_out_norm
I0418 00:22:59.317251 30699 net.cpp:420] Third_out_norm_Third_out_norm_0_split -> Third_out_norm_Third_out_norm_0_split_0
I0418 00:22:59.317258 30699 net.cpp:420] Third_out_norm_Third_out_norm_0_split -> Third_out_norm_Third_out_norm_0_split_1
I0418 00:22:59.317265 30699 net.cpp:420] Third_out_norm_Third_out_norm_0_split -> Third_out_norm_Third_out_norm_0_split_2
I0418 00:22:59.317299 30699 net.cpp:162] Setting up Third_out_norm_Third_out_norm_0_split
I0418 00:22:59.317303 30699 net.cpp:169] Top shape: 2 128 10 10 (25600)
I0418 00:22:59.317306 30699 net.cpp:169] Top shape: 2 128 10 10 (25600)
I0418 00:22:59.317309 30699 net.cpp:169] Top shape: 2 128 10 10 (25600)
I0418 00:22:59.317312 30699 net.cpp:177] Memory required for data: 585635872
I0418 00:22:59.317313 30699 layer_factory.hpp:77] Creating layer Third_out_norm_mbox_loc_1x1_conv
I0418 00:22:59.317320 30699 net.cpp:112] Creating Layer Third_out_norm_mbox_loc_1x1_conv
I0418 00:22:59.317325 30699 net.cpp:446] Third_out_norm_mbox_loc_1x1_conv <- Third_out_norm_Third_out_norm_0_split_0
I0418 00:22:59.317332 30699 net.cpp:420] Third_out_norm_mbox_loc_1x1_conv -> Third_out_norm_mbox_loc_1x1_conv
I0418 00:22:59.319963 30699 net.cpp:162] Setting up Third_out_norm_mbox_loc_1x1_conv
I0418 00:22:59.319973 30699 net.cpp:169] Top shape: 2 24 10 10 (4800)
I0418 00:22:59.319978 30699 net.cpp:177] Memory required for data: 585655072
I0418 00:22:59.319984 30699 layer_factory.hpp:77] Creating layer Third_out_norm_mbox_loc_dw_conv
I0418 00:22:59.319993 30699 net.cpp:112] Creating Layer Third_out_norm_mbox_loc_dw_conv
I0418 00:22:59.319998 30699 net.cpp:446] Third_out_norm_mbox_loc_dw_conv <- Third_out_norm_mbox_loc_1x1_conv
I0418 00:22:59.320004 30699 net.cpp:420] Third_out_norm_mbox_loc_dw_conv -> Third_out_norm_mbox_loc_dw_conv
I0418 00:22:59.320088 30699 net.cpp:162] Setting up Third_out_norm_mbox_loc_dw_conv
I0418 00:22:59.320093 30699 net.cpp:169] Top shape: 2 24 10 10 (4800)
I0418 00:22:59.320096 30699 net.cpp:177] Memory required for data: 585674272
I0418 00:22:59.320101 30699 layer_factory.hpp:77] Creating layer Third_out_norm_mbox_loc_bn
I0418 00:22:59.320109 30699 net.cpp:112] Creating Layer Third_out_norm_mbox_loc_bn
I0418 00:22:59.320113 30699 net.cpp:446] Third_out_norm_mbox_loc_bn <- Third_out_norm_mbox_loc_dw_conv
I0418 00:22:59.320118 30699 net.cpp:407] Third_out_norm_mbox_loc_bn -> Third_out_norm_mbox_loc_dw_conv (in-place)
I0418 00:22:59.320786 30699 net.cpp:162] Setting up Third_out_norm_mbox_loc_bn
I0418 00:22:59.320793 30699 net.cpp:169] Top shape: 2 24 10 10 (4800)
I0418 00:22:59.320798 30699 net.cpp:177] Memory required for data: 585693472
I0418 00:22:59.320806 30699 layer_factory.hpp:77] Creating layer Third_out_norm_mbox_loc_sb
I0418 00:22:59.320814 30699 net.cpp:112] Creating Layer Third_out_norm_mbox_loc_sb
I0418 00:22:59.320818 30699 net.cpp:446] Third_out_norm_mbox_loc_sb <- Third_out_norm_mbox_loc_dw_conv
I0418 00:22:59.320837 30699 net.cpp:407] Third_out_norm_mbox_loc_sb -> Third_out_norm_mbox_loc_dw_conv (in-place)
I0418 00:22:59.320875 30699 layer_factory.hpp:77] Creating layer Third_out_norm_mbox_loc_sb
I0418 00:22:59.320962 30699 net.cpp:162] Setting up Third_out_norm_mbox_loc_sb
I0418 00:22:59.320967 30699 net.cpp:169] Top shape: 2 24 10 10 (4800)
I0418 00:22:59.320971 30699 net.cpp:177] Memory required for data: 585712672
I0418 00:22:59.320976 30699 layer_factory.hpp:77] Creating layer Third_out_norm_mbox_loc_sb_perm
I0418 00:22:59.320982 30699 net.cpp:112] Creating Layer Third_out_norm_mbox_loc_sb_perm
I0418 00:22:59.320986 30699 net.cpp:446] Third_out_norm_mbox_loc_sb_perm <- Third_out_norm_mbox_loc_dw_conv
I0418 00:22:59.320991 30699 net.cpp:420] Third_out_norm_mbox_loc_sb_perm -> Third_out_norm_mbox_loc_sb_perm
I0418 00:22:59.321058 30699 net.cpp:162] Setting up Third_out_norm_mbox_loc_sb_perm
I0418 00:22:59.321063 30699 net.cpp:169] Top shape: 2 10 10 24 (4800)
I0418 00:22:59.321065 30699 net.cpp:177] Memory required for data: 585731872
I0418 00:22:59.321069 30699 layer_factory.hpp:77] Creating layer Third_out_norm_mbox_loc_sb_flat
I0418 00:22:59.321075 30699 net.cpp:112] Creating Layer Third_out_norm_mbox_loc_sb_flat
I0418 00:22:59.321079 30699 net.cpp:446] Third_out_norm_mbox_loc_sb_flat <- Third_out_norm_mbox_loc_sb_perm
I0418 00:22:59.321085 30699 net.cpp:420] Third_out_norm_mbox_loc_sb_flat -> Third_out_norm_mbox_loc_sb_flat
I0418 00:22:59.321105 30699 net.cpp:162] Setting up Third_out_norm_mbox_loc_sb_flat
I0418 00:22:59.321108 30699 net.cpp:169] Top shape: 2 2400 (4800)
I0418 00:22:59.321111 30699 net.cpp:177] Memory required for data: 585751072
I0418 00:22:59.321115 30699 layer_factory.hpp:77] Creating layer Third_out_norm_mbox_conf_1x1_conv
I0418 00:22:59.321125 30699 net.cpp:112] Creating Layer Third_out_norm_mbox_conf_1x1_conv
I0418 00:22:59.321128 30699 net.cpp:446] Third_out_norm_mbox_conf_1x1_conv <- Third_out_norm_Third_out_norm_0_split_1
I0418 00:22:59.321133 30699 net.cpp:420] Third_out_norm_mbox_conf_1x1_conv -> Third_out_norm_mbox_conf_1x1_conv
I0418 00:22:59.322454 30699 net.cpp:162] Setting up Third_out_norm_mbox_conf_1x1_conv
I0418 00:22:59.322461 30699 net.cpp:169] Top shape: 2 12 10 10 (2400)
I0418 00:22:59.322466 30699 net.cpp:177] Memory required for data: 585760672
I0418 00:22:59.322472 30699 layer_factory.hpp:77] Creating layer Third_out_norm_mbox_conf_dw_conv
I0418 00:22:59.322481 30699 net.cpp:112] Creating Layer Third_out_norm_mbox_conf_dw_conv
I0418 00:22:59.322485 30699 net.cpp:446] Third_out_norm_mbox_conf_dw_conv <- Third_out_norm_mbox_conf_1x1_conv
I0418 00:22:59.322491 30699 net.cpp:420] Third_out_norm_mbox_conf_dw_conv -> Third_out_norm_mbox_conf_dw_conv
I0418 00:22:59.322576 30699 net.cpp:162] Setting up Third_out_norm_mbox_conf_dw_conv
I0418 00:22:59.322579 30699 net.cpp:169] Top shape: 2 12 10 10 (2400)
I0418 00:22:59.322583 30699 net.cpp:177] Memory required for data: 585770272
I0418 00:22:59.322588 30699 layer_factory.hpp:77] Creating layer Third_out_norm_mbox_conf_bn
I0418 00:22:59.322597 30699 net.cpp:112] Creating Layer Third_out_norm_mbox_conf_bn
I0418 00:22:59.322600 30699 net.cpp:446] Third_out_norm_mbox_conf_bn <- Third_out_norm_mbox_conf_dw_conv
I0418 00:22:59.322605 30699 net.cpp:407] Third_out_norm_mbox_conf_bn -> Third_out_norm_mbox_conf_dw_conv (in-place)
I0418 00:22:59.322755 30699 net.cpp:162] Setting up Third_out_norm_mbox_conf_bn
I0418 00:22:59.322760 30699 net.cpp:169] Top shape: 2 12 10 10 (2400)
I0418 00:22:59.322763 30699 net.cpp:177] Memory required for data: 585779872
I0418 00:22:59.322768 30699 layer_factory.hpp:77] Creating layer Third_out_norm_mbox_conf_sb
I0418 00:22:59.322775 30699 net.cpp:112] Creating Layer Third_out_norm_mbox_conf_sb
I0418 00:22:59.322779 30699 net.cpp:446] Third_out_norm_mbox_conf_sb <- Third_out_norm_mbox_conf_dw_conv
I0418 00:22:59.322784 30699 net.cpp:407] Third_out_norm_mbox_conf_sb -> Third_out_norm_mbox_conf_dw_conv (in-place)
I0418 00:22:59.322818 30699 layer_factory.hpp:77] Creating layer Third_out_norm_mbox_conf_sb
I0418 00:22:59.322919 30699 net.cpp:162] Setting up Third_out_norm_mbox_conf_sb
I0418 00:22:59.322934 30699 net.cpp:169] Top shape: 2 12 10 10 (2400)
I0418 00:22:59.322937 30699 net.cpp:177] Memory required for data: 585789472
I0418 00:22:59.322942 30699 layer_factory.hpp:77] Creating layer Third_out_norm_mbox_conf_sb_perm
I0418 00:22:59.322950 30699 net.cpp:112] Creating Layer Third_out_norm_mbox_conf_sb_perm
I0418 00:22:59.322962 30699 net.cpp:446] Third_out_norm_mbox_conf_sb_perm <- Third_out_norm_mbox_conf_dw_conv
I0418 00:22:59.322968 30699 net.cpp:420] Third_out_norm_mbox_conf_sb_perm -> Third_out_norm_mbox_conf_sb_perm
I0418 00:22:59.323045 30699 net.cpp:162] Setting up Third_out_norm_mbox_conf_sb_perm
I0418 00:22:59.323048 30699 net.cpp:169] Top shape: 2 10 10 12 (2400)
I0418 00:22:59.323051 30699 net.cpp:177] Memory required for data: 585799072
I0418 00:22:59.323053 30699 layer_factory.hpp:77] Creating layer Third_out_norm_mbox_conf_sb_flat
I0418 00:22:59.323058 30699 net.cpp:112] Creating Layer Third_out_norm_mbox_conf_sb_flat
I0418 00:22:59.323071 30699 net.cpp:446] Third_out_norm_mbox_conf_sb_flat <- Third_out_norm_mbox_conf_sb_perm
I0418 00:22:59.323076 30699 net.cpp:420] Third_out_norm_mbox_conf_sb_flat -> Third_out_norm_mbox_conf_sb_flat
I0418 00:22:59.323107 30699 net.cpp:162] Setting up Third_out_norm_mbox_conf_sb_flat
I0418 00:22:59.323109 30699 net.cpp:169] Top shape: 2 1200 (2400)
I0418 00:22:59.323112 30699 net.cpp:177] Memory required for data: 585808672
I0418 00:22:59.323114 30699 layer_factory.hpp:77] Creating layer Third_out_norm_mbox_priorbox
I0418 00:22:59.323120 30699 net.cpp:112] Creating Layer Third_out_norm_mbox_priorbox
I0418 00:22:59.323124 30699 net.cpp:446] Third_out_norm_mbox_priorbox <- Third_out_norm_Third_out_norm_0_split_2
I0418 00:22:59.323127 30699 net.cpp:446] Third_out_norm_mbox_priorbox <- data_data_0_split_3
I0418 00:22:59.323132 30699 net.cpp:420] Third_out_norm_mbox_priorbox -> Third_out_norm_mbox_priorbox
I0418 00:22:59.323161 30699 net.cpp:162] Setting up Third_out_norm_mbox_priorbox
I0418 00:22:59.323165 30699 net.cpp:169] Top shape: 1 2 2400 (4800)
I0418 00:22:59.323168 30699 net.cpp:177] Memory required for data: 585827872
I0418 00:22:59.323170 30699 layer_factory.hpp:77] Creating layer Fourth_norm
I0418 00:22:59.323174 30699 net.cpp:112] Creating Layer Fourth_norm
I0418 00:22:59.323179 30699 net.cpp:446] Fourth_norm <- Fourth_Fourth_0_split_4
I0418 00:22:59.323184 30699 net.cpp:420] Fourth_norm -> Fourth_norm
I0418 00:22:59.323319 30699 net.cpp:162] Setting up Fourth_norm
I0418 00:22:59.323325 30699 net.cpp:169] Top shape: 2 128 5 5 (6400)
I0418 00:22:59.323330 30699 net.cpp:177] Memory required for data: 585853472
I0418 00:22:59.323335 30699 layer_factory.hpp:77] Creating layer Fourth_norm_Fourth_norm_0_split
I0418 00:22:59.323343 30699 net.cpp:112] Creating Layer Fourth_norm_Fourth_norm_0_split
I0418 00:22:59.323348 30699 net.cpp:446] Fourth_norm_Fourth_norm_0_split <- Fourth_norm
I0418 00:22:59.323352 30699 net.cpp:420] Fourth_norm_Fourth_norm_0_split -> Fourth_norm_Fourth_norm_0_split_0
I0418 00:22:59.323359 30699 net.cpp:420] Fourth_norm_Fourth_norm_0_split -> Fourth_norm_Fourth_norm_0_split_1
I0418 00:22:59.323367 30699 net.cpp:420] Fourth_norm_Fourth_norm_0_split -> Fourth_norm_Fourth_norm_0_split_2
I0418 00:22:59.323405 30699 net.cpp:162] Setting up Fourth_norm_Fourth_norm_0_split
I0418 00:22:59.323408 30699 net.cpp:169] Top shape: 2 128 5 5 (6400)
I0418 00:22:59.323411 30699 net.cpp:169] Top shape: 2 128 5 5 (6400)
I0418 00:22:59.323415 30699 net.cpp:169] Top shape: 2 128 5 5 (6400)
I0418 00:22:59.323418 30699 net.cpp:177] Memory required for data: 585930272
I0418 00:22:59.323421 30699 layer_factory.hpp:77] Creating layer Fourth_norm_mbox_loc_1x1_conv
I0418 00:22:59.323432 30699 net.cpp:112] Creating Layer Fourth_norm_mbox_loc_1x1_conv
I0418 00:22:59.323436 30699 net.cpp:446] Fourth_norm_mbox_loc_1x1_conv <- Fourth_norm_Fourth_norm_0_split_0
I0418 00:22:59.323441 30699 net.cpp:420] Fourth_norm_mbox_loc_1x1_conv -> Fourth_norm_mbox_loc_1x1_conv
I0418 00:22:59.324890 30699 net.cpp:162] Setting up Fourth_norm_mbox_loc_1x1_conv
I0418 00:22:59.324898 30699 net.cpp:169] Top shape: 2 24 5 5 (1200)
I0418 00:22:59.324901 30699 net.cpp:177] Memory required for data: 585935072
I0418 00:22:59.324906 30699 layer_factory.hpp:77] Creating layer Fourth_norm_mbox_loc_dw_conv
I0418 00:22:59.324915 30699 net.cpp:112] Creating Layer Fourth_norm_mbox_loc_dw_conv
I0418 00:22:59.324919 30699 net.cpp:446] Fourth_norm_mbox_loc_dw_conv <- Fourth_norm_mbox_loc_1x1_conv
I0418 00:22:59.324926 30699 net.cpp:420] Fourth_norm_mbox_loc_dw_conv -> Fourth_norm_mbox_loc_dw_conv
I0418 00:22:59.325024 30699 net.cpp:162] Setting up Fourth_norm_mbox_loc_dw_conv
I0418 00:22:59.325028 30699 net.cpp:169] Top shape: 2 24 5 5 (1200)
I0418 00:22:59.325031 30699 net.cpp:177] Memory required for data: 585939872
I0418 00:22:59.325034 30699 layer_factory.hpp:77] Creating layer Fourth_norm_mbox_loc_bn
I0418 00:22:59.325040 30699 net.cpp:112] Creating Layer Fourth_norm_mbox_loc_bn
I0418 00:22:59.325044 30699 net.cpp:446] Fourth_norm_mbox_loc_bn <- Fourth_norm_mbox_loc_dw_conv
I0418 00:22:59.325050 30699 net.cpp:407] Fourth_norm_mbox_loc_bn -> Fourth_norm_mbox_loc_dw_conv (in-place)
I0418 00:22:59.325246 30699 net.cpp:162] Setting up Fourth_norm_mbox_loc_bn
I0418 00:22:59.325250 30699 net.cpp:169] Top shape: 2 24 5 5 (1200)
I0418 00:22:59.325253 30699 net.cpp:177] Memory required for data: 585944672
I0418 00:22:59.325259 30699 layer_factory.hpp:77] Creating layer Fourth_norm_mbox_loc_sb
I0418 00:22:59.325266 30699 net.cpp:112] Creating Layer Fourth_norm_mbox_loc_sb
I0418 00:22:59.325270 30699 net.cpp:446] Fourth_norm_mbox_loc_sb <- Fourth_norm_mbox_loc_dw_conv
I0418 00:22:59.325278 30699 net.cpp:407] Fourth_norm_mbox_loc_sb -> Fourth_norm_mbox_loc_dw_conv (in-place)
I0418 00:22:59.325309 30699 layer_factory.hpp:77] Creating layer Fourth_norm_mbox_loc_sb
I0418 00:22:59.325395 30699 net.cpp:162] Setting up Fourth_norm_mbox_loc_sb
I0418 00:22:59.325399 30699 net.cpp:169] Top shape: 2 24 5 5 (1200)
I0418 00:22:59.325402 30699 net.cpp:177] Memory required for data: 585949472
I0418 00:22:59.325407 30699 layer_factory.hpp:77] Creating layer Fourth_norm_mbox_loc_sb_perm
I0418 00:22:59.325413 30699 net.cpp:112] Creating Layer Fourth_norm_mbox_loc_sb_perm
I0418 00:22:59.325417 30699 net.cpp:446] Fourth_norm_mbox_loc_sb_perm <- Fourth_norm_mbox_loc_dw_conv
I0418 00:22:59.325422 30699 net.cpp:420] Fourth_norm_mbox_loc_sb_perm -> Fourth_norm_mbox_loc_sb_perm
I0418 00:22:59.325490 30699 net.cpp:162] Setting up Fourth_norm_mbox_loc_sb_perm
I0418 00:22:59.325493 30699 net.cpp:169] Top shape: 2 5 5 24 (1200)
I0418 00:22:59.325496 30699 net.cpp:177] Memory required for data: 585954272
I0418 00:22:59.325498 30699 layer_factory.hpp:77] Creating layer Fourth_norm_mbox_loc_sb_flat
I0418 00:22:59.325505 30699 net.cpp:112] Creating Layer Fourth_norm_mbox_loc_sb_flat
I0418 00:22:59.325507 30699 net.cpp:446] Fourth_norm_mbox_loc_sb_flat <- Fourth_norm_mbox_loc_sb_perm
I0418 00:22:59.325513 30699 net.cpp:420] Fourth_norm_mbox_loc_sb_flat -> Fourth_norm_mbox_loc_sb_flat
I0418 00:22:59.325533 30699 net.cpp:162] Setting up Fourth_norm_mbox_loc_sb_flat
I0418 00:22:59.325536 30699 net.cpp:169] Top shape: 2 600 (1200)
I0418 00:22:59.325539 30699 net.cpp:177] Memory required for data: 585959072
I0418 00:22:59.325541 30699 layer_factory.hpp:77] Creating layer Fourth_norm_mbox_conf_1x1_conv
I0418 00:22:59.325549 30699 net.cpp:112] Creating Layer Fourth_norm_mbox_conf_1x1_conv
I0418 00:22:59.325554 30699 net.cpp:446] Fourth_norm_mbox_conf_1x1_conv <- Fourth_norm_Fourth_norm_0_split_1
I0418 00:22:59.325559 30699 net.cpp:420] Fourth_norm_mbox_conf_1x1_conv -> Fourth_norm_mbox_conf_1x1_conv
I0418 00:22:59.328023 30699 net.cpp:162] Setting up Fourth_norm_mbox_conf_1x1_conv
I0418 00:22:59.328032 30699 net.cpp:169] Top shape: 2 12 5 5 (600)
I0418 00:22:59.328035 30699 net.cpp:177] Memory required for data: 585961472
I0418 00:22:59.328040 30699 layer_factory.hpp:77] Creating layer Fourth_norm_mbox_conf_dw_conv
I0418 00:22:59.328048 30699 net.cpp:112] Creating Layer Fourth_norm_mbox_conf_dw_conv
I0418 00:22:59.328064 30699 net.cpp:446] Fourth_norm_mbox_conf_dw_conv <- Fourth_norm_mbox_conf_1x1_conv
I0418 00:22:59.328071 30699 net.cpp:420] Fourth_norm_mbox_conf_dw_conv -> Fourth_norm_mbox_conf_dw_conv
I0418 00:22:59.328179 30699 net.cpp:162] Setting up Fourth_norm_mbox_conf_dw_conv
I0418 00:22:59.328183 30699 net.cpp:169] Top shape: 2 12 5 5 (600)
I0418 00:22:59.328186 30699 net.cpp:177] Memory required for data: 585963872
I0418 00:22:59.328191 30699 layer_factory.hpp:77] Creating layer Fourth_norm_mbox_conf_bn
I0418 00:22:59.328197 30699 net.cpp:112] Creating Layer Fourth_norm_mbox_conf_bn
I0418 00:22:59.328202 30699 net.cpp:446] Fourth_norm_mbox_conf_bn <- Fourth_norm_mbox_conf_dw_conv
I0418 00:22:59.328207 30699 net.cpp:407] Fourth_norm_mbox_conf_bn -> Fourth_norm_mbox_conf_dw_conv (in-place)
I0418 00:22:59.328416 30699 net.cpp:162] Setting up Fourth_norm_mbox_conf_bn
I0418 00:22:59.328421 30699 net.cpp:169] Top shape: 2 12 5 5 (600)
I0418 00:22:59.328423 30699 net.cpp:177] Memory required for data: 585966272
I0418 00:22:59.328429 30699 layer_factory.hpp:77] Creating layer Fourth_norm_mbox_conf_sb
I0418 00:22:59.328436 30699 net.cpp:112] Creating Layer Fourth_norm_mbox_conf_sb
I0418 00:22:59.328440 30699 net.cpp:446] Fourth_norm_mbox_conf_sb <- Fourth_norm_mbox_conf_dw_conv
I0418 00:22:59.328454 30699 net.cpp:407] Fourth_norm_mbox_conf_sb -> Fourth_norm_mbox_conf_dw_conv (in-place)
I0418 00:22:59.328497 30699 layer_factory.hpp:77] Creating layer Fourth_norm_mbox_conf_sb
I0418 00:22:59.328603 30699 net.cpp:162] Setting up Fourth_norm_mbox_conf_sb
I0418 00:22:59.328606 30699 net.cpp:169] Top shape: 2 12 5 5 (600)
I0418 00:22:59.328609 30699 net.cpp:177] Memory required for data: 585968672
I0418 00:22:59.328613 30699 layer_factory.hpp:77] Creating layer Fourth_norm_mbox_conf_sb_perm
I0418 00:22:59.328620 30699 net.cpp:112] Creating Layer Fourth_norm_mbox_conf_sb_perm
I0418 00:22:59.328634 30699 net.cpp:446] Fourth_norm_mbox_conf_sb_perm <- Fourth_norm_mbox_conf_dw_conv
I0418 00:22:59.328639 30699 net.cpp:420] Fourth_norm_mbox_conf_sb_perm -> Fourth_norm_mbox_conf_sb_perm
I0418 00:22:59.328706 30699 net.cpp:162] Setting up Fourth_norm_mbox_conf_sb_perm
I0418 00:22:59.328711 30699 net.cpp:169] Top shape: 2 5 5 12 (600)
I0418 00:22:59.328712 30699 net.cpp:177] Memory required for data: 585971072
I0418 00:22:59.328714 30699 layer_factory.hpp:77] Creating layer Fourth_norm_mbox_conf_sb_flat
I0418 00:22:59.328722 30699 net.cpp:112] Creating Layer Fourth_norm_mbox_conf_sb_flat
I0418 00:22:59.328724 30699 net.cpp:446] Fourth_norm_mbox_conf_sb_flat <- Fourth_norm_mbox_conf_sb_perm
I0418 00:22:59.328732 30699 net.cpp:420] Fourth_norm_mbox_conf_sb_flat -> Fourth_norm_mbox_conf_sb_flat
I0418 00:22:59.328750 30699 net.cpp:162] Setting up Fourth_norm_mbox_conf_sb_flat
I0418 00:22:59.328753 30699 net.cpp:169] Top shape: 2 300 (600)
I0418 00:22:59.328757 30699 net.cpp:177] Memory required for data: 585973472
I0418 00:22:59.328758 30699 layer_factory.hpp:77] Creating layer Fourth_norm_mbox_priorbox
I0418 00:22:59.328768 30699 net.cpp:112] Creating Layer Fourth_norm_mbox_priorbox
I0418 00:22:59.328771 30699 net.cpp:446] Fourth_norm_mbox_priorbox <- Fourth_norm_Fourth_norm_0_split_2
I0418 00:22:59.328774 30699 net.cpp:446] Fourth_norm_mbox_priorbox <- data_data_0_split_4
I0418 00:22:59.328778 30699 net.cpp:420] Fourth_norm_mbox_priorbox -> Fourth_norm_mbox_priorbox
I0418 00:22:59.328797 30699 net.cpp:162] Setting up Fourth_norm_mbox_priorbox
I0418 00:22:59.328800 30699 net.cpp:169] Top shape: 1 2 600 (1200)
I0418 00:22:59.328804 30699 net.cpp:177] Memory required for data: 585978272
I0418 00:22:59.328805 30699 layer_factory.hpp:77] Creating layer Fifth_norm
I0418 00:22:59.328809 30699 net.cpp:112] Creating Layer Fifth_norm
I0418 00:22:59.328814 30699 net.cpp:446] Fifth_norm <- Fifth_Fifth_0_split_4
I0418 00:22:59.328819 30699 net.cpp:420] Fifth_norm -> Fifth_norm
I0418 00:22:59.328923 30699 net.cpp:162] Setting up Fifth_norm
I0418 00:22:59.328927 30699 net.cpp:169] Top shape: 2 128 3 3 (2304)
I0418 00:22:59.328941 30699 net.cpp:177] Memory required for data: 585987488
I0418 00:22:59.328945 30699 layer_factory.hpp:77] Creating layer Fifth_norm_Fifth_norm_0_split
I0418 00:22:59.328953 30699 net.cpp:112] Creating Layer Fifth_norm_Fifth_norm_0_split
I0418 00:22:59.328956 30699 net.cpp:446] Fifth_norm_Fifth_norm_0_split <- Fifth_norm
I0418 00:22:59.328961 30699 net.cpp:420] Fifth_norm_Fifth_norm_0_split -> Fifth_norm_Fifth_norm_0_split_0
I0418 00:22:59.328969 30699 net.cpp:420] Fifth_norm_Fifth_norm_0_split -> Fifth_norm_Fifth_norm_0_split_1
I0418 00:22:59.328974 30699 net.cpp:420] Fifth_norm_Fifth_norm_0_split -> Fifth_norm_Fifth_norm_0_split_2
I0418 00:22:59.329008 30699 net.cpp:162] Setting up Fifth_norm_Fifth_norm_0_split
I0418 00:22:59.329012 30699 net.cpp:169] Top shape: 2 128 3 3 (2304)
I0418 00:22:59.329015 30699 net.cpp:169] Top shape: 2 128 3 3 (2304)
I0418 00:22:59.329018 30699 net.cpp:169] Top shape: 2 128 3 3 (2304)
I0418 00:22:59.329022 30699 net.cpp:177] Memory required for data: 586015136
I0418 00:22:59.329025 30699 layer_factory.hpp:77] Creating layer Fifth_norm_mbox_loc_1x1_conv
I0418 00:22:59.329035 30699 net.cpp:112] Creating Layer Fifth_norm_mbox_loc_1x1_conv
I0418 00:22:59.329041 30699 net.cpp:446] Fifth_norm_mbox_loc_1x1_conv <- Fifth_norm_Fifth_norm_0_split_0
I0418 00:22:59.329046 30699 net.cpp:420] Fifth_norm_mbox_loc_1x1_conv -> Fifth_norm_mbox_loc_1x1_conv
I0418 00:22:59.330492 30699 net.cpp:162] Setting up Fifth_norm_mbox_loc_1x1_conv
I0418 00:22:59.330499 30699 net.cpp:169] Top shape: 2 16 3 3 (288)
I0418 00:22:59.330503 30699 net.cpp:177] Memory required for data: 586016288
I0418 00:22:59.330507 30699 layer_factory.hpp:77] Creating layer Fifth_norm_mbox_loc_dw_conv
I0418 00:22:59.330518 30699 net.cpp:112] Creating Layer Fifth_norm_mbox_loc_dw_conv
I0418 00:22:59.330521 30699 net.cpp:446] Fifth_norm_mbox_loc_dw_conv <- Fifth_norm_mbox_loc_1x1_conv
I0418 00:22:59.330526 30699 net.cpp:420] Fifth_norm_mbox_loc_dw_conv -> Fifth_norm_mbox_loc_dw_conv
I0418 00:22:59.330615 30699 net.cpp:162] Setting up Fifth_norm_mbox_loc_dw_conv
I0418 00:22:59.330619 30699 net.cpp:169] Top shape: 2 16 3 3 (288)
I0418 00:22:59.330622 30699 net.cpp:177] Memory required for data: 586017440
I0418 00:22:59.330626 30699 layer_factory.hpp:77] Creating layer Fifth_norm_mbox_loc_bn
I0418 00:22:59.330632 30699 net.cpp:112] Creating Layer Fifth_norm_mbox_loc_bn
I0418 00:22:59.330646 30699 net.cpp:446] Fifth_norm_mbox_loc_bn <- Fifth_norm_mbox_loc_dw_conv
I0418 00:22:59.330651 30699 net.cpp:407] Fifth_norm_mbox_loc_bn -> Fifth_norm_mbox_loc_dw_conv (in-place)
I0418 00:22:59.330814 30699 net.cpp:162] Setting up Fifth_norm_mbox_loc_bn
I0418 00:22:59.330819 30699 net.cpp:169] Top shape: 2 16 3 3 (288)
I0418 00:22:59.330821 30699 net.cpp:177] Memory required for data: 586018592
I0418 00:22:59.330827 30699 layer_factory.hpp:77] Creating layer Fifth_norm_mbox_loc_sb
I0418 00:22:59.330834 30699 net.cpp:112] Creating Layer Fifth_norm_mbox_loc_sb
I0418 00:22:59.330837 30699 net.cpp:446] Fifth_norm_mbox_loc_sb <- Fifth_norm_mbox_loc_dw_conv
I0418 00:22:59.330843 30699 net.cpp:407] Fifth_norm_mbox_loc_sb -> Fifth_norm_mbox_loc_dw_conv (in-place)
I0418 00:22:59.330878 30699 layer_factory.hpp:77] Creating layer Fifth_norm_mbox_loc_sb
I0418 00:22:59.330965 30699 net.cpp:162] Setting up Fifth_norm_mbox_loc_sb
I0418 00:22:59.330968 30699 net.cpp:169] Top shape: 2 16 3 3 (288)
I0418 00:22:59.330971 30699 net.cpp:177] Memory required for data: 586019744
I0418 00:22:59.330976 30699 layer_factory.hpp:77] Creating layer Fifth_norm_mbox_loc_sb_perm
I0418 00:22:59.330981 30699 net.cpp:112] Creating Layer Fifth_norm_mbox_loc_sb_perm
I0418 00:22:59.330984 30699 net.cpp:446] Fifth_norm_mbox_loc_sb_perm <- Fifth_norm_mbox_loc_dw_conv
I0418 00:22:59.330989 30699 net.cpp:420] Fifth_norm_mbox_loc_sb_perm -> Fifth_norm_mbox_loc_sb_perm
I0418 00:22:59.331055 30699 net.cpp:162] Setting up Fifth_norm_mbox_loc_sb_perm
I0418 00:22:59.331058 30699 net.cpp:169] Top shape: 2 3 3 16 (288)
I0418 00:22:59.331061 30699 net.cpp:177] Memory required for data: 586020896
I0418 00:22:59.331073 30699 layer_factory.hpp:77] Creating layer Fifth_norm_mbox_loc_sb_flat
I0418 00:22:59.331079 30699 net.cpp:112] Creating Layer Fifth_norm_mbox_loc_sb_flat
I0418 00:22:59.331081 30699 net.cpp:446] Fifth_norm_mbox_loc_sb_flat <- Fifth_norm_mbox_loc_sb_perm
I0418 00:22:59.331085 30699 net.cpp:420] Fifth_norm_mbox_loc_sb_flat -> Fifth_norm_mbox_loc_sb_flat
I0418 00:22:59.331104 30699 net.cpp:162] Setting up Fifth_norm_mbox_loc_sb_flat
I0418 00:22:59.331107 30699 net.cpp:169] Top shape: 2 144 (288)
I0418 00:22:59.331110 30699 net.cpp:177] Memory required for data: 586022048
I0418 00:22:59.331112 30699 layer_factory.hpp:77] Creating layer Fifth_norm_mbox_conf_1x1_conv
I0418 00:22:59.331118 30699 net.cpp:112] Creating Layer Fifth_norm_mbox_conf_1x1_conv
I0418 00:22:59.331121 30699 net.cpp:446] Fifth_norm_mbox_conf_1x1_conv <- Fifth_norm_Fifth_norm_0_split_1
I0418 00:22:59.331128 30699 net.cpp:420] Fifth_norm_mbox_conf_1x1_conv -> Fifth_norm_mbox_conf_1x1_conv
I0418 00:22:59.332443 30699 net.cpp:162] Setting up Fifth_norm_mbox_conf_1x1_conv
I0418 00:22:59.332451 30699 net.cpp:169] Top shape: 2 8 3 3 (144)
I0418 00:22:59.332454 30699 net.cpp:177] Memory required for data: 586022624
I0418 00:22:59.332459 30699 layer_factory.hpp:77] Creating layer Fifth_norm_mbox_conf_dw_conv
I0418 00:22:59.332468 30699 net.cpp:112] Creating Layer Fifth_norm_mbox_conf_dw_conv
I0418 00:22:59.332473 30699 net.cpp:446] Fifth_norm_mbox_conf_dw_conv <- Fifth_norm_mbox_conf_1x1_conv
I0418 00:22:59.332479 30699 net.cpp:420] Fifth_norm_mbox_conf_dw_conv -> Fifth_norm_mbox_conf_dw_conv
I0418 00:22:59.332568 30699 net.cpp:162] Setting up Fifth_norm_mbox_conf_dw_conv
I0418 00:22:59.332572 30699 net.cpp:169] Top shape: 2 8 3 3 (144)
I0418 00:22:59.332576 30699 net.cpp:177] Memory required for data: 586023200
I0418 00:22:59.332579 30699 layer_factory.hpp:77] Creating layer Fifth_norm_mbox_conf_bn
I0418 00:22:59.332587 30699 net.cpp:112] Creating Layer Fifth_norm_mbox_conf_bn
I0418 00:22:59.332590 30699 net.cpp:446] Fifth_norm_mbox_conf_bn <- Fifth_norm_mbox_conf_dw_conv
I0418 00:22:59.332597 30699 net.cpp:407] Fifth_norm_mbox_conf_bn -> Fifth_norm_mbox_conf_dw_conv (in-place)
I0418 00:22:59.332739 30699 net.cpp:162] Setting up Fifth_norm_mbox_conf_bn
I0418 00:22:59.332743 30699 net.cpp:169] Top shape: 2 8 3 3 (144)
I0418 00:22:59.332746 30699 net.cpp:177] Memory required for data: 586023776
I0418 00:22:59.332751 30699 layer_factory.hpp:77] Creating layer Fifth_norm_mbox_conf_sb
I0418 00:22:59.332760 30699 net.cpp:112] Creating Layer Fifth_norm_mbox_conf_sb
I0418 00:22:59.332764 30699 net.cpp:446] Fifth_norm_mbox_conf_sb <- Fifth_norm_mbox_conf_dw_conv
I0418 00:22:59.332768 30699 net.cpp:407] Fifth_norm_mbox_conf_sb -> Fifth_norm_mbox_conf_dw_conv (in-place)
I0418 00:22:59.332799 30699 layer_factory.hpp:77] Creating layer Fifth_norm_mbox_conf_sb
I0418 00:22:59.332885 30699 net.cpp:162] Setting up Fifth_norm_mbox_conf_sb
I0418 00:22:59.332888 30699 net.cpp:169] Top shape: 2 8 3 3 (144)
I0418 00:22:59.332890 30699 net.cpp:177] Memory required for data: 586024352
I0418 00:22:59.332895 30699 layer_factory.hpp:77] Creating layer Fifth_norm_mbox_conf_sb_perm
I0418 00:22:59.332902 30699 net.cpp:112] Creating Layer Fifth_norm_mbox_conf_sb_perm
I0418 00:22:59.332907 30699 net.cpp:446] Fifth_norm_mbox_conf_sb_perm <- Fifth_norm_mbox_conf_dw_conv
I0418 00:22:59.332911 30699 net.cpp:420] Fifth_norm_mbox_conf_sb_perm -> Fifth_norm_mbox_conf_sb_perm
I0418 00:22:59.332978 30699 net.cpp:162] Setting up Fifth_norm_mbox_conf_sb_perm
I0418 00:22:59.332981 30699 net.cpp:169] Top shape: 2 3 3 8 (144)
I0418 00:22:59.332983 30699 net.cpp:177] Memory required for data: 586024928
I0418 00:22:59.332985 30699 layer_factory.hpp:77] Creating layer Fifth_norm_mbox_conf_sb_flat
I0418 00:22:59.332991 30699 net.cpp:112] Creating Layer Fifth_norm_mbox_conf_sb_flat
I0418 00:22:59.332994 30699 net.cpp:446] Fifth_norm_mbox_conf_sb_flat <- Fifth_norm_mbox_conf_sb_perm
I0418 00:22:59.332999 30699 net.cpp:420] Fifth_norm_mbox_conf_sb_flat -> Fifth_norm_mbox_conf_sb_flat
I0418 00:22:59.333034 30699 net.cpp:162] Setting up Fifth_norm_mbox_conf_sb_flat
I0418 00:22:59.333037 30699 net.cpp:169] Top shape: 2 72 (144)
I0418 00:22:59.333040 30699 net.cpp:177] Memory required for data: 586025504
I0418 00:22:59.333043 30699 layer_factory.hpp:77] Creating layer Fifth_norm_mbox_priorbox
I0418 00:22:59.333050 30699 net.cpp:112] Creating Layer Fifth_norm_mbox_priorbox
I0418 00:22:59.333055 30699 net.cpp:446] Fifth_norm_mbox_priorbox <- Fifth_norm_Fifth_norm_0_split_2
I0418 00:22:59.333058 30699 net.cpp:446] Fifth_norm_mbox_priorbox <- data_data_0_split_5
I0418 00:22:59.333065 30699 net.cpp:420] Fifth_norm_mbox_priorbox -> Fifth_norm_mbox_priorbox
I0418 00:22:59.333096 30699 net.cpp:162] Setting up Fifth_norm_mbox_priorbox
I0418 00:22:59.333101 30699 net.cpp:169] Top shape: 1 2 144 (288)
I0418 00:22:59.333102 30699 net.cpp:177] Memory required for data: 586026656
I0418 00:22:59.333104 30699 layer_factory.hpp:77] Creating layer Sixth_norm
I0418 00:22:59.333111 30699 net.cpp:112] Creating Layer Sixth_norm
I0418 00:22:59.333114 30699 net.cpp:446] Sixth_norm <- Sixth_Sixth_0_split_1
I0418 00:22:59.333119 30699 net.cpp:420] Sixth_norm -> Sixth_norm
I0418 00:22:59.333256 30699 net.cpp:162] Setting up Sixth_norm
I0418 00:22:59.333259 30699 net.cpp:169] Top shape: 2 128 2 2 (1024)
I0418 00:22:59.333262 30699 net.cpp:177] Memory required for data: 586030752
I0418 00:22:59.333266 30699 layer_factory.hpp:77] Creating layer Sixth_norm_Sixth_norm_0_split
I0418 00:22:59.333271 30699 net.cpp:112] Creating Layer Sixth_norm_Sixth_norm_0_split
I0418 00:22:59.333276 30699 net.cpp:446] Sixth_norm_Sixth_norm_0_split <- Sixth_norm
I0418 00:22:59.333289 30699 net.cpp:420] Sixth_norm_Sixth_norm_0_split -> Sixth_norm_Sixth_norm_0_split_0
I0418 00:22:59.333294 30699 net.cpp:420] Sixth_norm_Sixth_norm_0_split -> Sixth_norm_Sixth_norm_0_split_1
I0418 00:22:59.333299 30699 net.cpp:420] Sixth_norm_Sixth_norm_0_split -> Sixth_norm_Sixth_norm_0_split_2
I0418 00:22:59.333339 30699 net.cpp:162] Setting up Sixth_norm_Sixth_norm_0_split
I0418 00:22:59.333343 30699 net.cpp:169] Top shape: 2 128 2 2 (1024)
I0418 00:22:59.333345 30699 net.cpp:169] Top shape: 2 128 2 2 (1024)
I0418 00:22:59.333348 30699 net.cpp:169] Top shape: 2 128 2 2 (1024)
I0418 00:22:59.333359 30699 net.cpp:177] Memory required for data: 586043040
I0418 00:22:59.333361 30699 layer_factory.hpp:77] Creating layer Sixth_norm_mbox_loc_1x1_conv
I0418 00:22:59.333367 30699 net.cpp:112] Creating Layer Sixth_norm_mbox_loc_1x1_conv
I0418 00:22:59.333369 30699 net.cpp:446] Sixth_norm_mbox_loc_1x1_conv <- Sixth_norm_Sixth_norm_0_split_0
I0418 00:22:59.333374 30699 net.cpp:420] Sixth_norm_mbox_loc_1x1_conv -> Sixth_norm_mbox_loc_1x1_conv
I0418 00:22:59.334683 30699 net.cpp:162] Setting up Sixth_norm_mbox_loc_1x1_conv
I0418 00:22:59.334692 30699 net.cpp:169] Top shape: 2 16 2 2 (128)
I0418 00:22:59.334695 30699 net.cpp:177] Memory required for data: 586043552
I0418 00:22:59.334698 30699 layer_factory.hpp:77] Creating layer Sixth_norm_mbox_loc_dw_conv
I0418 00:22:59.334705 30699 net.cpp:112] Creating Layer Sixth_norm_mbox_loc_dw_conv
I0418 00:22:59.334708 30699 net.cpp:446] Sixth_norm_mbox_loc_dw_conv <- Sixth_norm_mbox_loc_1x1_conv
I0418 00:22:59.334714 30699 net.cpp:420] Sixth_norm_mbox_loc_dw_conv -> Sixth_norm_mbox_loc_dw_conv
I0418 00:22:59.334792 30699 net.cpp:162] Setting up Sixth_norm_mbox_loc_dw_conv
I0418 00:22:59.334797 30699 net.cpp:169] Top shape: 2 16 2 2 (128)
I0418 00:22:59.334800 30699 net.cpp:177] Memory required for data: 586044064
I0418 00:22:59.334803 30699 layer_factory.hpp:77] Creating layer Sixth_norm_mbox_loc_bn
I0418 00:22:59.334810 30699 net.cpp:112] Creating Layer Sixth_norm_mbox_loc_bn
I0418 00:22:59.334815 30699 net.cpp:446] Sixth_norm_mbox_loc_bn <- Sixth_norm_mbox_loc_dw_conv
I0418 00:22:59.334820 30699 net.cpp:407] Sixth_norm_mbox_loc_bn -> Sixth_norm_mbox_loc_dw_conv (in-place)
I0418 00:22:59.335008 30699 net.cpp:162] Setting up Sixth_norm_mbox_loc_bn
I0418 00:22:59.335012 30699 net.cpp:169] Top shape: 2 16 2 2 (128)
I0418 00:22:59.335016 30699 net.cpp:177] Memory required for data: 586044576
I0418 00:22:59.335032 30699 layer_factory.hpp:77] Creating layer Sixth_norm_mbox_loc_sb
I0418 00:22:59.335039 30699 net.cpp:112] Creating Layer Sixth_norm_mbox_loc_sb
I0418 00:22:59.335053 30699 net.cpp:446] Sixth_norm_mbox_loc_sb <- Sixth_norm_mbox_loc_dw_conv
I0418 00:22:59.335057 30699 net.cpp:407] Sixth_norm_mbox_loc_sb -> Sixth_norm_mbox_loc_dw_conv (in-place)
I0418 00:22:59.335099 30699 layer_factory.hpp:77] Creating layer Sixth_norm_mbox_loc_sb
I0418 00:22:59.335208 30699 net.cpp:162] Setting up Sixth_norm_mbox_loc_sb
I0418 00:22:59.335211 30699 net.cpp:169] Top shape: 2 16 2 2 (128)
I0418 00:22:59.335214 30699 net.cpp:177] Memory required for data: 586045088
I0418 00:22:59.335228 30699 layer_factory.hpp:77] Creating layer Sixth_norm_mbox_loc_sb_perm
I0418 00:22:59.335232 30699 net.cpp:112] Creating Layer Sixth_norm_mbox_loc_sb_perm
I0418 00:22:59.335244 30699 net.cpp:446] Sixth_norm_mbox_loc_sb_perm <- Sixth_norm_mbox_loc_dw_conv
I0418 00:22:59.335248 30699 net.cpp:420] Sixth_norm_mbox_loc_sb_perm -> Sixth_norm_mbox_loc_sb_perm
I0418 00:22:59.335319 30699 net.cpp:162] Setting up Sixth_norm_mbox_loc_sb_perm
I0418 00:22:59.335321 30699 net.cpp:169] Top shape: 2 2 2 16 (128)
I0418 00:22:59.335325 30699 net.cpp:177] Memory required for data: 586045600
I0418 00:22:59.335336 30699 layer_factory.hpp:77] Creating layer Sixth_norm_mbox_loc_sb_flat
I0418 00:22:59.335341 30699 net.cpp:112] Creating Layer Sixth_norm_mbox_loc_sb_flat
I0418 00:22:59.335343 30699 net.cpp:446] Sixth_norm_mbox_loc_sb_flat <- Sixth_norm_mbox_loc_sb_perm
I0418 00:22:59.335346 30699 net.cpp:420] Sixth_norm_mbox_loc_sb_flat -> Sixth_norm_mbox_loc_sb_flat
I0418 00:22:59.335366 30699 net.cpp:162] Setting up Sixth_norm_mbox_loc_sb_flat
I0418 00:22:59.335371 30699 net.cpp:169] Top shape: 2 64 (128)
I0418 00:22:59.335372 30699 net.cpp:177] Memory required for data: 586046112
I0418 00:22:59.335376 30699 layer_factory.hpp:77] Creating layer Sixth_norm_mbox_conf_1x1_conv
I0418 00:22:59.335384 30699 net.cpp:112] Creating Layer Sixth_norm_mbox_conf_1x1_conv
I0418 00:22:59.335388 30699 net.cpp:446] Sixth_norm_mbox_conf_1x1_conv <- Sixth_norm_Sixth_norm_0_split_1
I0418 00:22:59.335393 30699 net.cpp:420] Sixth_norm_mbox_conf_1x1_conv -> Sixth_norm_mbox_conf_1x1_conv
I0418 00:22:59.338270 30699 net.cpp:162] Setting up Sixth_norm_mbox_conf_1x1_conv
I0418 00:22:59.338279 30699 net.cpp:169] Top shape: 2 8 2 2 (64)
I0418 00:22:59.338282 30699 net.cpp:177] Memory required for data: 586046368
I0418 00:22:59.338286 30699 layer_factory.hpp:77] Creating layer Sixth_norm_mbox_conf_dw_conv
I0418 00:22:59.338305 30699 net.cpp:112] Creating Layer Sixth_norm_mbox_conf_dw_conv
I0418 00:22:59.338308 30699 net.cpp:446] Sixth_norm_mbox_conf_dw_conv <- Sixth_norm_mbox_conf_1x1_conv
I0418 00:22:59.338322 30699 net.cpp:420] Sixth_norm_mbox_conf_dw_conv -> Sixth_norm_mbox_conf_dw_conv
I0418 00:22:59.338452 30699 net.cpp:162] Setting up Sixth_norm_mbox_conf_dw_conv
I0418 00:22:59.338466 30699 net.cpp:169] Top shape: 2 8 2 2 (64)
I0418 00:22:59.338469 30699 net.cpp:177] Memory required for data: 586046624
I0418 00:22:59.338472 30699 layer_factory.hpp:77] Creating layer Sixth_norm_mbox_conf_bn
I0418 00:22:59.338486 30699 net.cpp:112] Creating Layer Sixth_norm_mbox_conf_bn
I0418 00:22:59.338490 30699 net.cpp:446] Sixth_norm_mbox_conf_bn <- Sixth_norm_mbox_conf_dw_conv
I0418 00:22:59.338492 30699 net.cpp:407] Sixth_norm_mbox_conf_bn -> Sixth_norm_mbox_conf_dw_conv (in-place)
I0418 00:22:59.338687 30699 net.cpp:162] Setting up Sixth_norm_mbox_conf_bn
I0418 00:22:59.338701 30699 net.cpp:169] Top shape: 2 8 2 2 (64)
I0418 00:22:59.338702 30699 net.cpp:177] Memory required for data: 586046880
I0418 00:22:59.338706 30699 layer_factory.hpp:77] Creating layer Sixth_norm_mbox_conf_sb
I0418 00:22:59.338711 30699 net.cpp:112] Creating Layer Sixth_norm_mbox_conf_sb
I0418 00:22:59.338714 30699 net.cpp:446] Sixth_norm_mbox_conf_sb <- Sixth_norm_mbox_conf_dw_conv
I0418 00:22:59.338719 30699 net.cpp:407] Sixth_norm_mbox_conf_sb -> Sixth_norm_mbox_conf_dw_conv (in-place)
I0418 00:22:59.338769 30699 layer_factory.hpp:77] Creating layer Sixth_norm_mbox_conf_sb
I0418 00:22:59.338855 30699 net.cpp:162] Setting up Sixth_norm_mbox_conf_sb
I0418 00:22:59.338858 30699 net.cpp:169] Top shape: 2 8 2 2 (64)
I0418 00:22:59.338861 30699 net.cpp:177] Memory required for data: 586047136
I0418 00:22:59.338865 30699 layer_factory.hpp:77] Creating layer Sixth_norm_mbox_conf_sb_perm
I0418 00:22:59.338871 30699 net.cpp:112] Creating Layer Sixth_norm_mbox_conf_sb_perm
I0418 00:22:59.338876 30699 net.cpp:446] Sixth_norm_mbox_conf_sb_perm <- Sixth_norm_mbox_conf_dw_conv
I0418 00:22:59.338881 30699 net.cpp:420] Sixth_norm_mbox_conf_sb_perm -> Sixth_norm_mbox_conf_sb_perm
I0418 00:22:59.338950 30699 net.cpp:162] Setting up Sixth_norm_mbox_conf_sb_perm
I0418 00:22:59.338954 30699 net.cpp:169] Top shape: 2 2 2 8 (64)
I0418 00:22:59.338956 30699 net.cpp:177] Memory required for data: 586047392
I0418 00:22:59.338958 30699 layer_factory.hpp:77] Creating layer Sixth_norm_mbox_conf_sb_flat
I0418 00:22:59.338965 30699 net.cpp:112] Creating Layer Sixth_norm_mbox_conf_sb_flat
I0418 00:22:59.338969 30699 net.cpp:446] Sixth_norm_mbox_conf_sb_flat <- Sixth_norm_mbox_conf_sb_perm
I0418 00:22:59.338974 30699 net.cpp:420] Sixth_norm_mbox_conf_sb_flat -> Sixth_norm_mbox_conf_sb_flat
I0418 00:22:59.338994 30699 net.cpp:162] Setting up Sixth_norm_mbox_conf_sb_flat
I0418 00:22:59.338997 30699 net.cpp:169] Top shape: 2 32 (64)
I0418 00:22:59.339000 30699 net.cpp:177] Memory required for data: 586047648
I0418 00:22:59.339002 30699 layer_factory.hpp:77] Creating layer Sixth_norm_mbox_priorbox
I0418 00:22:59.339010 30699 net.cpp:112] Creating Layer Sixth_norm_mbox_priorbox
I0418 00:22:59.339015 30699 net.cpp:446] Sixth_norm_mbox_priorbox <- Sixth_norm_Sixth_norm_0_split_2
I0418 00:22:59.339018 30699 net.cpp:446] Sixth_norm_mbox_priorbox <- data_data_0_split_6
I0418 00:22:59.339025 30699 net.cpp:420] Sixth_norm_mbox_priorbox -> Sixth_norm_mbox_priorbox
I0418 00:22:59.339046 30699 net.cpp:162] Setting up Sixth_norm_mbox_priorbox
I0418 00:22:59.339049 30699 net.cpp:169] Top shape: 1 2 64 (128)
I0418 00:22:59.339052 30699 net.cpp:177] Memory required for data: 586048160
I0418 00:22:59.339054 30699 layer_factory.hpp:77] Creating layer mbox_loc
I0418 00:22:59.339062 30699 net.cpp:112] Creating Layer mbox_loc
I0418 00:22:59.339067 30699 net.cpp:446] mbox_loc <- First_out_norm_mbox_loc_sb_flat
I0418 00:22:59.339072 30699 net.cpp:446] mbox_loc <- Second_out_norm_mbox_loc_sb_flat
I0418 00:22:59.339077 30699 net.cpp:446] mbox_loc <- Third_out_norm_mbox_loc_sb_flat
I0418 00:22:59.339082 30699 net.cpp:446] mbox_loc <- Fourth_norm_mbox_loc_sb_flat
I0418 00:22:59.339085 30699 net.cpp:446] mbox_loc <- Fifth_norm_mbox_loc_sb_flat
I0418 00:22:59.339089 30699 net.cpp:446] mbox_loc <- Sixth_norm_mbox_loc_sb_flat
I0418 00:22:59.339095 30699 net.cpp:420] mbox_loc -> mbox_loc
I0418 00:22:59.339118 30699 net.cpp:162] Setting up mbox_loc
I0418 00:22:59.339120 30699 net.cpp:169] Top shape: 2 34976 (69952)
I0418 00:22:59.339123 30699 net.cpp:177] Memory required for data: 586327968
I0418 00:22:59.339126 30699 layer_factory.hpp:77] Creating layer mbox_conf
I0418 00:22:59.339133 30699 net.cpp:112] Creating Layer mbox_conf
I0418 00:22:59.339138 30699 net.cpp:446] mbox_conf <- First_out_norm_mbox_conf_sb_flat
I0418 00:22:59.339143 30699 net.cpp:446] mbox_conf <- Second_out_norm_mbox_conf_sb_flat
I0418 00:22:59.339146 30699 net.cpp:446] mbox_conf <- Third_out_norm_mbox_conf_sb_flat
I0418 00:22:59.339150 30699 net.cpp:446] mbox_conf <- Fourth_norm_mbox_conf_sb_flat
I0418 00:22:59.339154 30699 net.cpp:446] mbox_conf <- Fifth_norm_mbox_conf_sb_flat
I0418 00:22:59.339159 30699 net.cpp:446] mbox_conf <- Sixth_norm_mbox_conf_sb_flat
I0418 00:22:59.339164 30699 net.cpp:420] mbox_conf -> mbox_conf
I0418 00:22:59.339182 30699 net.cpp:162] Setting up mbox_conf
I0418 00:22:59.339186 30699 net.cpp:169] Top shape: 2 17488 (34976)
I0418 00:22:59.339188 30699 net.cpp:177] Memory required for data: 586467872
I0418 00:22:59.339191 30699 layer_factory.hpp:77] Creating layer mbox_priorbox
I0418 00:22:59.339207 30699 net.cpp:112] Creating Layer mbox_priorbox
I0418 00:22:59.339212 30699 net.cpp:446] mbox_priorbox <- First_out_norm_mbox_priorbox
I0418 00:22:59.339216 30699 net.cpp:446] mbox_priorbox <- Second_out_norm_mbox_priorbox
I0418 00:22:59.339221 30699 net.cpp:446] mbox_priorbox <- Third_out_norm_mbox_priorbox
I0418 00:22:59.339224 30699 net.cpp:446] mbox_priorbox <- Fourth_norm_mbox_priorbox
I0418 00:22:59.339228 30699 net.cpp:446] mbox_priorbox <- Fifth_norm_mbox_priorbox
I0418 00:22:59.339232 30699 net.cpp:446] mbox_priorbox <- Sixth_norm_mbox_priorbox
I0418 00:22:59.339238 30699 net.cpp:420] mbox_priorbox -> mbox_priorbox
I0418 00:22:59.339258 30699 net.cpp:162] Setting up mbox_priorbox
I0418 00:22:59.339262 30699 net.cpp:169] Top shape: 1 2 34976 (69952)
I0418 00:22:59.339267 30699 net.cpp:177] Memory required for data: 586747680
I0418 00:22:59.339269 30699 layer_factory.hpp:77] Creating layer mbox_conf_reshape
I0418 00:22:59.339277 30699 net.cpp:112] Creating Layer mbox_conf_reshape
I0418 00:22:59.339279 30699 net.cpp:446] mbox_conf_reshape <- mbox_conf
I0418 00:22:59.339285 30699 net.cpp:420] mbox_conf_reshape -> mbox_conf_reshape
I0418 00:22:59.339345 30699 net.cpp:162] Setting up mbox_conf_reshape
I0418 00:22:59.339350 30699 net.cpp:169] Top shape: 2 8744 2 (34976)
I0418 00:22:59.339354 30699 net.cpp:177] Memory required for data: 586887584
I0418 00:22:59.339357 30699 layer_factory.hpp:77] Creating layer mbox_conf_softmax
I0418 00:22:59.339365 30699 net.cpp:112] Creating Layer mbox_conf_softmax
I0418 00:22:59.339368 30699 net.cpp:446] mbox_conf_softmax <- mbox_conf_reshape
I0418 00:22:59.339373 30699 net.cpp:420] mbox_conf_softmax -> mbox_conf_softmax
I0418 00:22:59.339870 30699 net.cpp:162] Setting up mbox_conf_softmax
I0418 00:22:59.339877 30699 net.cpp:169] Top shape: 2 8744 2 (34976)
I0418 00:22:59.339881 30699 net.cpp:177] Memory required for data: 587027488
I0418 00:22:59.339884 30699 layer_factory.hpp:77] Creating layer mbox_conf_flatten
I0418 00:22:59.339892 30699 net.cpp:112] Creating Layer mbox_conf_flatten
I0418 00:22:59.339896 30699 net.cpp:446] mbox_conf_flatten <- mbox_conf_softmax
I0418 00:22:59.339902 30699 net.cpp:420] mbox_conf_flatten -> mbox_conf_flatten
I0418 00:22:59.339926 30699 net.cpp:162] Setting up mbox_conf_flatten
I0418 00:22:59.339929 30699 net.cpp:169] Top shape: 2 17488 (34976)
I0418 00:22:59.339931 30699 net.cpp:177] Memory required for data: 587167392
I0418 00:22:59.339934 30699 layer_factory.hpp:77] Creating layer detection_out
I0418 00:22:59.339947 30699 net.cpp:112] Creating Layer detection_out
I0418 00:22:59.339951 30699 net.cpp:446] detection_out <- mbox_loc
I0418 00:22:59.339953 30699 net.cpp:446] detection_out <- mbox_conf_flatten
I0418 00:22:59.339957 30699 net.cpp:446] detection_out <- mbox_priorbox
I0418 00:22:59.339964 30699 net.cpp:420] detection_out -> detection_out
I0418 00:22:59.340299 30699 net.cpp:162] Setting up detection_out
I0418 00:22:59.340306 30699 net.cpp:169] Top shape: 1 1 1 7 (7)
I0418 00:22:59.340308 30699 net.cpp:177] Memory required for data: 587167420
I0418 00:22:59.340312 30699 layer_factory.hpp:77] Creating layer detection_eval
I0418 00:22:59.340318 30699 net.cpp:112] Creating Layer detection_eval
I0418 00:22:59.340322 30699 net.cpp:446] detection_eval <- detection_out
I0418 00:22:59.340327 30699 net.cpp:446] detection_eval <- label
I0418 00:22:59.340332 30699 net.cpp:420] detection_eval -> detection_eval
I0418 00:22:59.340477 30699 net.cpp:162] Setting up detection_eval
I0418 00:22:59.340481 30699 net.cpp:169] Top shape: 1 1 2 5 (10)
I0418 00:22:59.340484 30699 net.cpp:177] Memory required for data: 587167460
I0418 00:22:59.340487 30699 net.cpp:240] detection_eval does not need backward computation.
I0418 00:22:59.340490 30699 net.cpp:240] detection_out does not need backward computation.
I0418 00:22:59.340495 30699 net.cpp:240] mbox_conf_flatten does not need backward computation.
I0418 00:22:59.340498 30699 net.cpp:240] mbox_conf_softmax does not need backward computation.
…
