…
      sampler {
        min_scale: 0.3
        max_scale: 1
        min_aspect_ratio: 0.5
        max_aspect_ratio: 2
      }
      sample_constraint {
        min_jaccard_overlap: 0.9
      }
      max_sample: 1
      max_trials: 50
    }
    batch_sampler {
      sampler {
        min_scale: 0.3
        max_scale: 1
        min_aspect_ratio: 0.5
        max_aspect_ratio: 2
      }
      sample_constraint {
        max_jaccard_overlap: 1
      }
      max_sample: 1
      max_trials: 50
    }
    label_map_file: "data/VOC0712/labelmap_voc.prototxt"
  }
}
layer {
  name: "Convolution1"
  type: "Convolution"
  bottom: "data"
  top: "Convolution1"
  convolution_param {
    num_output: 64
    bias_term: false
    pad: 1
    kernel_size: 3
    stride: 2
    weight_filler {
      type: "xavier"
    }
    bias_filler {
      type: "constant"
    }
  }
}
layer {
  name: "BatchNorm1"
  type: "BatchNorm"
  bottom: "Convolution1"
  top: "BatchNorm1"
}
layer {
  name: "Scale1"
  type: "Scale"
  bottom: "BatchNorm1"
  top: "BatchNorm1"
  scale_param {
    filler {
      value: 1
    }
    bias_term: true
    bias_filler {
      value: 0
    }
  }
}
layer {
  name: "ReLU1"
  type: "ReLU"
  bottom: "BatchNorm1"
  top: "BatchNorm1"
}
layer {
  name: "Convolution2"
  type: "Convolution"
  bottom: "BatchNorm1"
  top: "Convolution2"
  convolution_param {
    num_output: 64
    bias_term: false
    pad: 0
    kernel_size: 1
    stride: 1
    weight_filler {
      type: "xavier"
    }
    bias_filler {
      type: "constant"
    }
  }
}
layer {
  name: "ConvolutionDepthwise1"
  type: "ConvolutionDepthwise"
  bottom: "Convolution2"
  top: "ConvolutionDepthwise1"
  convolution_param {
    num_output: 64
    bias_term: false
    pad: 1
    kernel_size: 3
    stride: 1
    weight_filler {
      type: "xavier"
    }
    bias_filler {
      type: "constant"
    }
  }
}
layer {
  name: "BatchNorm2"
  type: "BatchNorm"
  bottom: "ConvolutionDepthwise1"
  top: "BatchNorm2"
}
layer {
  name: "Scale2"
  type: "Scale"
  bottom: "BatchNorm2"
  top: "BatchNorm2"
  scale_param {
    filler {
      value: 1
    }
    bias_term: true
    bias_filler {
      value: 0
    }
  }
}
layer {
  name: "ReLU2"
  type: "ReLU"
  bottom: "BatchNorm2"
  top: "BatchNorm2"
}
layer {
  name: "Convolution3"
  type: "Convolution"
  bottom: "BatchNorm2"
  top: "Convolution3"
  convolution_param {
    num_output: 128
    bias_term: false
    pad: 0
    kernel_size: 1
    stride: 1
    weight_filler {
      type: "xavier"
    }
    bias_filler {
      type: "constant"
    }
  }
}
layer {
  name: "ConvolutionDepthwise2"
  type: "ConvolutionDepthwise"
  bottom: "Convolution3"
  top: "ConvolutionDepthwise2"
  convolution_param {
    num_output: 128
    bias_term: false
    pad: 1
    kernel_size: 3
    stride: 1
    weight_filler {
      type: "xavier"
    }
    bias_filler {
      type: "constant"
    }
  }
}
layer {
  name: "BatchNorm3"
  type: "BatchNorm"
  bottom: "ConvolutionDepthwise2"
  top: "BatchNorm3"
}
layer {
  name: "Scale3"
  type: "Scale"
  bottom: "BatchNorm3"
  top: "BatchNorm3"
  scale_param {
    filler {
      value: 1
    }
    bias_term: true
    bias_filler {
      value: 0
    }
  }
}
layer {
  name: "ReLU3"
  type: "ReLU"
  bottom: "BatchNorm3"
  top: "BatchNorm3"
}
layer {
  name: "Pooling1"
  type: "Pooling"
  bottom: "BatchNorm3"
  top: "Pooling1"
  pooling_param {
    pool: MAX
    kernel_size: 2
    stride: 2
  }
}
layer {
  name: "Convolution4"
  type: "Convolution"
  bottom: "Pooling1"
  top: "Convolution4"
  convolution_param {
    num_output: 32
    bias_term: false
    pad: 0
    kernel_size: 1
    stride: 1
    weight_filler {
      type: "xavier"
    }
    bias_filler {
      type: "constant"
    }
  }
}
layer {
  name: "BatchNorm4"
  type: "BatchNorm"
  bottom: "Convolution4"
  top: "Convolution4"
}
layer {
  name: "Scale4"
  type: "Scale"
  bottom: "Convolution4"
  top: "Convolution4"
  scale_param {
    filler {
      value: 1
    }
    bias_term: true
    bias_filler {
      value: 0
    }
  }
}
layer {
  name: "ConvolutionDepthwise3"
  type: "ConvolutionDepthwise"
  bottom: "Convolution4"
  top: "ConvolutionDepthwise3"
  convolution_param {
    num_output: 32
    bias_term: false
    pad: 1
    kernel_size: 3
    stride: 1
    weight_filler {
      type: "xavier"
    }
    bias_filler {
      type: "constant"
    }
  }
}
layer {
  name: "BatchNorm5"
  type: "BatchNorm"
  bottom: "ConvolutionDepthwise3"
  top: "ConvolutionDepthwise3"
}
layer {
  name: "Scale5"
  type: "Scale"
  bottom: "ConvolutionDepthwise3"
  top: "ConvolutionDepthwise3"
  scale_param {
    filler {
      value: 1
    }
    bias_term: true
    bias_filler {
      value: 0
    }
  }
}
layer {
  name: "ReLU4"
  type: "ReLU"
  bottom: "ConvolutionDepthwise3"
  top: "ConvolutionDepthwise3"
}
layer {
  name: "Concat1"
  type: "Concat"
  bottom: "Pooling1"
  bottom: "ConvolutionDepthwise3"
  top: "Concat1"
  concat_param {
    axis: 1
  }
}
layer {
  name: "Convolution5"
  type: "Convolution"
  bottom: "Concat1"
  top: "Convolution5"
  convolution_param {
    num_output: 32
    bias_term: false
    pad: 0
    kernel_size: 1
    stride: 1
    weight_filler {
      type: "xavier"
    }
    bias_filler {
      type: "constant"
    }
  }
}
layer {
  name: "BatchNorm6"
  type: "BatchNorm"
  bottom: "Convolution5"
  top: "Convolution5"
}
layer {
  name: "Scale6"
  type: "Scale"
  bottom: "Convolution5"
  top: "Convolution5"
  scale_param {
    filler {
      value: 1
    }
    bias_term: true
    bias_filler {
      value: 0
    }
  }
}
layer {
  name: "ConvolutionDepthwise4"
  type: "ConvolutionDepthwise"
  bottom: "Convolution5"
  top: "ConvolutionDepthwise4"
  convolution_param {
    num_output: 32
    bias_term: false
    pad: 1
    kernel_size: 3
    stride: 1
    weight_filler {
      type: "xavier"
    }
    bias_filler {
      type: "constant"
    }
  }
}
layer {
  name: "BatchNorm7"
  type: "BatchNorm"
  bottom: "ConvolutionDepthwise4"
  top: "ConvolutionDepthwise4"
}
layer {
  name: "Scale7"
  type: "Scale"
  bottom: "ConvolutionDepthwise4"
  top: "ConvolutionDepthwise4"
  scale_param {
    filler {
      value: 1
    }
    bias_term: true
    bias_filler {
      value: 0
    }
  }
}
layer {
  name: "ReLU5"
  type: "ReLU"
  bottom: "ConvolutionDepthwise4"
  top: "ConvolutionDepthwise4"
}
layer {
  name: "Concat2"
  type: "Concat"
  bottom: "Concat1"
  bottom: "ConvolutionDepthwise4"
  top: "Concat2"
  concat_param {
    axis: 1
  }
}
layer {
  name: "Convolution6"
  type: "Convolution"
  bottom: "Concat2"
  top: "Convolution6"
  convolution_param {
    num_output: 32
    bias_term: false
    pad: 0
    kernel_size: 1
    stride: 1
    weight_filler {
      type: "xavier"
    }
    bias_filler {
      type: "constant"
    }
  }
}
layer {
  name: "BatchNorm8"
  type: "BatchNorm"
  bottom: "Convolution6"
  top: "Convolution6"
}
layer {
  name: "Scale8"
  type: "Scale"
  bottom: "Convolution6"
  top: "Convolution6"
  scale_param {
    filler {
      value: 1
    }
    bias_term: true
    bias_filler {
      value: 0
    }
  }
}
layer {
  name: "ConvolutionDepthwise5"
  type: "ConvolutionDepthwise"
  bottom: "Convolution6"
  top: "ConvolutionDepthwise5"
  convolution_param {
    num_output: 32
    bias_term: false
    pad: 1
    kernel_size: 3
    stride: 1
    weight_filler {
      type: "xavier"
    }
    bias_filler {
      type: "constant"
    }
  }
}
layer {
  name: "BatchNorm9"
  type: "BatchNorm"
  bottom: "ConvolutionDepthwise5"
  top: "ConvolutionDepthwise5"
}
layer {
  name: "Scale9"
  type: "Scale"
  bottom: "ConvolutionDepthwise5"
  top: "ConvolutionDepthwise5"
  scale_param {
    filler {
      value: 1
    }
    bias_term: true
    bias_filler {
      value: 0
    }
  }
}
layer {
  name: "ReLU6"
  type: "ReLU"
  bottom: "ConvolutionDepthwise5"
  top: "ConvolutionDepthwise5"
}
layer {
  name: "Concat3"
  type: "Concat"
  bottom: "Concat2"
  bottom: "ConvolutionDepthwise5"
  top: "Concat3"
  concat_param {
    axis: 1
  }
}
layer {
  name: "Convolution7"
  type: "Convolution"
  bottom: "Concat3"
  top: "Convolution7"
  convolution_param {
    num_output: 32
    bias_term: false
    pad: 0
    kernel_size: 1
    stride: 1
    weight_filler {
      type: "xavier"
    }
    bias_filler {
      type: "constant"
    }
  }
}
layer {
  name: "BatchNorm10"
  type: "BatchNorm"
  bottom: "Convolution7"
  top: "Convolution7"
}
layer {
  name: "Scale10"
  type: "Scale"
  bottom: "Convolution7"
  top: "Convolution7"
  scale_param {
    filler {
      value: 1
    }
    bias_term: true
    bias_filler {
      value: 0
    }
  }
}
layer {
  name: "ConvolutionDepthwise6"
  type: "ConvolutionDepthwise"
  bottom: "Convolution7"
  top: "ConvolutionDepthwise6"
  convolution_param {
    num_output: 32
    bias_term: false
    pad: 1
    kernel_size: 3
    stride: 1
    weight_filler {
      type: "xavier"
    }
    bias_filler {
      type: "constant"
    }
  }
}
layer {
  name: "BatchNorm11"
  type: "BatchNorm"
  bottom: "ConvolutionDepthwise6"
  top: "ConvolutionDepthwise6"
}
layer {
  name: "Scale11"
  type: "Scale"
  bottom: "ConvolutionDepthwise6"
  top: "ConvolutionDepthwise6"
  scale_param {
    filler {
      value: 1
    }
    bias_term: true
    bias_filler {
      value: 0
    }
  }
}
layer {
  name: "ReLU7"
  type: "ReLU"
  bottom: "ConvolutionDepthwise6"
  top: "ConvolutionDepthwise6"
}
layer {
  name: "Concat4"
  type: "Concat"
  bottom: "Concat3"
  bottom: "ConvolutionDepthwise6"
  top: "Concat4"
  concat_param {
    axis: 1
  }
}
layer {
  name: "Convolution8"
  type: "Convolution"
  bottom: "Concat4"
  top: "Convolution8"
  convolution_param {
    num_output: 128
    bias_term: false
    pad: 0
    kernel_size: 1
    stride: 1
    weight_filler {
      type: "xavier"
    }
    bias_filler {
      type: "constant"
    }
  }
}
layer {
  name: "BatchNorm12"
  type: "BatchNorm"
  bottom: "Convolution8"
  top: "BatchNorm12"
}
layer {
  name: "Scale12"
  type: "Scale"
  bottom: "BatchNorm12"
  top: "BatchNorm12"
  scale_param {
    filler {
      value: 1
    }
    bias_term: true
    bias_filler {
      value: 0
    }
  }
}
layer {
  name: "ReLU8"
  type: "ReLU"
  bottom: "BatchNorm12"
  top: "ReLU8"
}
layer {
  name: "Pooling2"
  type: "Pooling"
  bottom: "ReLU8"
  top: "Pooling2"
  pooling_param {
    pool: MAX
    kernel_size: 2
    stride: 2
  }
}
layer {
  name: "Convolution9"
  type: "Convolution"
  bottom: "Pooling2"
  top: "Convolution9"
  convolution_param {
    num_output: 48
    bias_term: false
    pad: 0
    kernel_size: 1
    stride: 1
    weight_filler {
      type: "xavier"
    }
    bias_filler {
      type: "constant"
    }
  }
}
layer {
  name: "BatchNorm13"
  type: "BatchNorm"
  bottom: "Convolution9"
  top: "Convolution9"
}
layer {
  name: "Scale13"
  type: "Scale"
  bottom: "Convolution9"
  top: "Convolution9"
  scale_param {
    filler {
      value: 1
    }
    bias_term: true
    bias_filler {
      value: 0
    }
  }
}
layer {
  name: "ConvolutionDepthwise7"
  type: "ConvolutionDepthwise"
  bottom: "Convolution9"
  top: "ConvolutionDepthwise7"
  convolution_param {
    num_output: 48
    bias_term: false
    pad: 1
    kernel_size: 3
    stride: 1
    weight_filler {
      type: "xavier"
    }
    bias_filler {
      type: "constant"
    }
  }
}
layer {
  name: "BatchNorm14"
  type: "BatchNorm"
  bottom: "ConvolutionDepthwise7"
  top: "ConvolutionDepthwise7"
}
layer {
  name: "Scale14"
  type: "Scale"
  bottom: "ConvolutionDepthwise7"
  top: "ConvolutionDepthwise7"
  scale_param {
    filler {
      value: 1
    }
    bias_term: true
    bias_filler {
      value: 0
    }
  }
}
layer {
  name: "ReLU9"
  type: "ReLU"
  bottom: "ConvolutionDepthwise7"
  top: "ConvolutionDepthwise7"
}
layer {
  name: "Concat5"
  type: "Concat"
  bottom: "Pooling2"
  bottom: "ConvolutionDepthwise7"
  top: "Concat5"
  concat_param {
    axis: 1
  }
}
layer {
  name: "Convolution10"
  type: "Convolution"
  bottom: "Concat5"
  top: "Convolution10"
  convolution_param {
    num_output: 48
    bias_term: false
    pad: 0
    kernel_size: 1
    stride: 1
    weight_filler {
      type: "xavier"
    }
    bias_filler {
      type: "constant"
    }
  }
}
layer {
  name: "BatchNorm15"
  type: "BatchNorm"
  bottom: "Convolution10"
  top: "Convolution10"
}
layer {
  name: "Scale15"
  type: "Scale"
  bottom: "Convolution10"
  top: "Convolution10"
  scale_param {
    filler {
      value: 1
    }
    bias_term: true
    bias_filler {
      value: 0
    }
  }
}
layer {
  name: "ConvolutionDepthwise8"
  type: "ConvolutionDepthwise"
  bottom: "Convolution10"
  top: "ConvolutionDepthwise8"
  convolution_param {
    num_output: 48
    bias_term: false
    pad: 1
    kernel_size: 3
    stride: 1
    weight_filler {
      type: "xavier"
    }
    bias_filler {
      type: "constant"
    }
  }
}
layer {
  name: "BatchNorm16"
  type: "BatchNorm"
  bottom: "ConvolutionDepthwise8"
  top: "ConvolutionDepthwise8"
}
layer {
  name: "Scale16"
  type: "Scale"
  bottom: "ConvolutionDepthwise8"
  top: "ConvolutionDepthwise8"
  scale_param {
    filler {
      value: 1
    }
    bias_term: true
    bias_filler {
      value: 0
    }
  }
}
layer {
  name: "ReLU10"
  type: "ReLU"
  bottom: "ConvolutionDepthwise8"
  top: "ConvolutionDepthwise8"
}
layer {
  name: "Concat6"
  type: "Concat"
  bottom: "Concat5"
  bottom: "ConvolutionDepthwise8"
  top: "Concat6"
  concat_param {
    axis: 1
  }
}
layer {
  name: "Convolution11"
  type: "Convolution"
  bottom: "Concat6"
  top: "Convolution11"
  convolution_param {
    num_output: 48
    bias_term: false
    pad: 0
    kernel_size: 1
    stride: 1
    weight_filler {
      type: "xavier"
    }
    bias_filler {
      type: "constant"
    }
  }
}
layer {
  name: "BatchNorm17"
  type: "BatchNorm"
  bottom: "Convolution11"
  top: "Convolution11"
}
layer {
  name: "Scale17"
  type: "Scale"
  bottom: "Convolution11"
  top: "Convolution11"
  scale_param {
    filler {
      value: 1
    }
    bias_term: true
    bias_filler {
      value: 0
    }
  }
}
layer {
  name: "ConvolutionDepthwise9"
  type: "ConvolutionDepthwise"
  bottom: "Convolution11"
  top: "ConvolutionDepthwise9"
  convolution_param {
    num_output: 48
    bias_term: false
    pad: 1
    kernel_size: 3
    stride: 1
    weight_filler {
      type: "xavier"
    }
    bias_filler {
      type: "constant"
    }
  }
}
layer {
  name: "BatchNorm18"
  type: "BatchNorm"
  bottom: "ConvolutionDepthwise9"
  top: "ConvolutionDepthwise9"
}
layer {
  name: "Scale18"
  type: "Scale"
  bottom: "ConvolutionDepthwise9"
  top: "ConvolutionDepthwise9"
  scale_param {
    filler {
      value: 1
    }
    bias_term: true
    bias_filler {
      value: 0
    }
  }
}
layer {
  name: "ReLU11"
  type: "ReLU"
  bottom: "ConvolutionDepthwise9"
  top: "ConvolutionDepthwise9"
}
layer {
  name: "Concat7"
  type: "Concat"
  bottom: "Concat6"
  bottom: "ConvolutionDepthwise9"
  top: "Concat7"
  concat_param {
    axis: 1
  }
}
layer {
  name: "Convolution12"
  type: "Convolution"
  bottom: "Concat7"
  top: "Convolution12"
  convolution_param {
    num_output: 48
    bias_term: false
    pad: 0
    kernel_size: 1
    stride: 1
    weight_filler {
      type: "xavier"
    }
    bias_filler {
      type: "constant"
    }
  }
}
layer {
  name: "BatchNorm19"
  type: "BatchNorm"
  bottom: "Convolution12"
  top: "Convolution12"
}
layer {
  name: "Scale19"
  type: "Scale"
  bottom: "Convolution12"
  top: "Convolution12"
  scale_param {
    filler {
      value: 1
    }
    bias_term: true
    bias_filler {
      value: 0
    }
  }
}
layer {
  name: "ConvolutionDepthwise10"
  type: "ConvolutionDepthwise"
  bottom: "Convolution12"
  top: "ConvolutionDepthwise10"
  convolution_param {
    num_output: 48
    bias_term: false
    pad: 1
    kernel_size: 3
    stride: 1
    weight_filler {
      type: "xavier"
    }
    bias_filler {
      type: "constant"
    }
  }
}
layer {
  name: "BatchNorm20"
  type: "BatchNorm"
  bottom: "ConvolutionDepthwise10"
  top: "ConvolutionDepthwise10"
}
layer {
  name: "Scale20"
  type: "Scale"
  bottom: "ConvolutionDepthwise10"
  top: "ConvolutionDepthwise10"
  scale_param {
    filler {
      value: 1
    }
    bias_term: true
    bias_filler {
      value: 0
    }
  }
}
layer {
  name: "ReLU12"
  type: "ReLU"
  bottom: "ConvolutionDepthwise10"
  top: "ConvolutionDepthwise10"
}
layer {
  name: "Concat8"
  type: "Concat"
  bottom: "Concat7"
  bottom: "ConvolutionDepthwise10"
  top: "Concat8"
  concat_param {
    axis: 1
  }
}
layer {
  name: "Convolution13"
  type: "Convolution"
  bottom: "Concat8"
  top: "Convolution13"
  convolution_param {
    num_output: 48
    bias_term: false
    pad: 0
    kernel_size: 1
    stride: 1
    weight_filler {
      type: "xavier"
    }
    bias_filler {
      type: "constant"
    }
  }
}
layer {
  name: "BatchNorm21"
  type: "BatchNorm"
  bottom: "Convolution13"
  top: "Convolution13"
}
layer {
  name: "Scale21"
  type: "Scale"
  bottom: "Convolution13"
  top: "Convolution13"
  scale_param {
    filler {
      value: 1
    }
    bias_term: true
    bias_filler {
      value: 0
    }
  }
}
layer {
  name: "ConvolutionDepthwise11"
  type: "ConvolutionDepthwise"
  bottom: "Convolution13"
  top: "ConvolutionDepthwise11"
  convolution_param {
    num_output: 48
    bias_term: false
    pad: 1
    kernel_size: 3
    stride: 1
    weight_filler {
      type: "xavier"
    }
    bias_filler {
      type: "constant"
    }
  }
}
layer {
  name: "BatchNorm22"
  type: "BatchNorm"
  bottom: "ConvolutionDepthwise11"
  top: "ConvolutionDepthwise11"
}
layer {
  name: "Scale22"
  type: "Scale"
  bottom: "ConvolutionDepthwise11"
  top: "ConvolutionDepthwise11"
  scale_param {
    filler {
      value: 1
    }
    bias_term: true
    bias_filler {
      value: 0
    }
  }
}
layer {
  name: "ReLU13"
  type: "ReLU"
  bottom: "ConvolutionDepthwise11"
  top: "ConvolutionDepthwise11"
}
layer {
  name: "Concat9"
  type: "Concat"
  bottom: "Concat8"
  bottom: "ConvolutionDepthwise11"
  top: "Concat9"
  concat_param {
    axis: 1
  }
}
layer {
  name: "Convolution14"
  type: "Convolution"
  bottom: "Concat9"
  top: "Convolution14"
  convolution_param {
    num_output: 48
    bias_term: false
    pad: 0
    kernel_size: 1
    stride: 1
    weight_filler {
      type: "xavier"
    }
    bias_filler {
      type: "constant"
    }
  }
}
layer {
  name: "BatchNorm23"
  type: "BatchNorm"
  bottom: "Convolution14"
  top: "Convolution14"
}
layer {
  name: "Scale23"
  type: "Scale"
  bottom: "Convolution14"
  top: "Convolution14"
  scale_param {
    filler {
      value: 1
    }
    bias_term: true
    bias_filler {
      value: 0
    }
  }
}
layer {
  name: "ConvolutionDepthwise12"
  type: "ConvolutionDepthwise"
  bottom: "Convolution14"
  top: "ConvolutionDepthwise12"
  convolution_param {
    num_output: 48
    bias_term: false
    pad: 1
    kernel_size: 3
    stride: 1
    weight_filler {
      type: "xavier"
    }
    bias_filler {
      type: "constant"
    }
  }
}
layer {
  name: "BatchNorm24"
  type: "BatchNorm"
  bottom: "ConvolutionDepthwise12"
  top: "ConvolutionDepthwise12"
}
layer {
  name: "Scale24"
  type: "Scale"
  bottom: "ConvolutionDepthwise12"
  top: "ConvolutionDepthwise12"
  scale_param {
    filler {
      value: 1
    }
    bias_term: true
    bias_filler {
      value: 0
    }
  }
}
layer {
  name: "ReLU14"
  type: "ReLU"
  bottom: "ConvolutionDepthwise12"
  top: "ConvolutionDepthwise12"
}
layer {
  name: "Concat10"
  type: "Concat"
  bottom: "Concat9"
  bottom: "ConvolutionDepthwise12"
  top: "Concat10"
  concat_param {
    axis: 1
  }
}
layer {
  name: "Convolution15"
  type: "Convolution"
  bottom: "Concat10"
  top: "Convolution15"
  convolution_param {
    num_output: 128
    bias_term: false
    pad: 0
    kernel_size: 1
    stride: 1
    weight_filler {
      type: "xavier"
    }
    bias_filler {
      type: "constant"
    }
  }
}
layer {
  name: "BatchNorm25"
  type: "BatchNorm"
  bottom: "Convolution15"
  top: "BatchNorm25"
}
layer {
  name: "Scale25"
  type: "Scale"
  bottom: "BatchNorm25"
  top: "BatchNorm25"
  scale_param {
    filler {
      value: 1
    }
    bias_term: true
    bias_filler {
      value: 0
    }
  }
}
layer {
  name: "First"
  type: "ReLU"
  bottom: "BatchNorm25"
  top: "First"
}
layer {
  name: "Pooling3"
  type: "Pooling"
  bottom: "First"
  top: "Pooling3"
  pooling_param {
    pool: MAX
    kernel_size: 2
    stride: 2
  }
}
layer {
  name: "Convolution16"
  type: "Convolution"
  bottom: "Pooling3"
  top: "Convolution16"
  convolution_param {
    num_output: 64
    bias_term: false
    pad: 0
    kernel_size: 1
    stride: 1
    weight_filler {
      type: "xavier"
    }
    bias_filler {
      type: "constant"
    }
  }
}
layer {
  name: "BatchNorm26"
  type: "BatchNorm"
  bottom: "Convolution16"
  top: "BatchNorm26"
}
layer {
  name: "Scale26"
  type: "Scale"
  bottom: "BatchNorm26"
  top: "BatchNorm26"
  scale_param {
    filler {
      value: 1
    }
    bias_term: true
    bias_filler {
      value: 0
    }
  }
}
layer {
  name: "ReLU15"
  type: "ReLU"
  bottom: "BatchNorm26"
  top: "BatchNorm26"
}
layer {
  name: "Pooling4"
  type: "Pooling"
  bottom: "First"
  top: "Pooling4"
  pooling_param {
    pool: MAX
    kernel_size: 2
    stride: 2
  }
}
layer {
  name: "Convolution17"
  type: "Convolution"
  bottom: "Pooling4"
  top: "Convolution17"
  convolution_param {
    num_output: 64
    bias_term: false
    pad: 0
    kernel_size: 1
    stride: 1
    weight_filler {
      type: "xavier"
    }
    bias_filler {
      type: "constant"
    }
  }
}
layer {
  name: "BatchNorm27"
  type: "BatchNorm"
  bottom: "Convolution17"
  top: "Convolution17"
}
layer {
  name: "Scale27"
  type: "Scale"
  bottom: "Convolution17"
  top: "Convolution17"
  scale_param {
    filler {
      value: 1
    }
    bias_term: true
    bias_filler {
      value: 0
    }
  }
}
layer {
  name: "ConvolutionDepthwise13"
  type: "ConvolutionDepthwise"
  bottom: "Convolution17"
  top: "ConvolutionDepthwise13"
  convolution_param {
    num_output: 64
    bias_term: false
    pad: 1
    kernel_size: 3
    stride: 1
    weight_filler {
      type: "xavier"
    }
    bias_filler {
      type: "constant"
    }
  }
}
layer {
  name: "BatchNorm28"
  type: "BatchNorm"
  bottom: "ConvolutionDepthwise13"
  top: "ConvolutionDepthwise13"
}
layer {
  name: "Scale28"
  type: "Scale"
  bottom: "ConvolutionDepthwise13"
  top: "ConvolutionDepthwise13"
  scale_param {
    filler {
      value: 1
    }
    bias_term: true
    bias_filler {
      value: 0
    }
  }
}
layer {
  name: "ReLU16"
  type: "ReLU"
  bottom: "ConvolutionDepthwise13"
  top: "ConvolutionDepthwise13"
}
layer {
  name: "Concat11"
  type: "Concat"
  bottom: "Pooling4"
  bottom: "ConvolutionDepthwise13"
  top: "Concat11"
  concat_param {
    axis: 1
  }
}
layer {
  name: "Convolution18"
  type: "Convolution"
  bottom: "Concat11"
  top: "Convolution18"
  convolution_param {
    num_output: 64
    bias_term: false
    pad: 0
    kernel_size: 1
    stride: 1
    weight_filler {
      type: "xavier"
    }
    bias_filler {
      type: "constant"
    }
  }
}
layer {
  name: "BatchNorm29"
  type: "BatchNorm"
  bottom: "Convolution18"
  top: "Convolution18"
}
layer {
  name: "Scale29"
  type: "Scale"
  bottom: "Convolution18"
  top: "Convolution18"
  scale_param {
    filler {
      value: 1
    }
    bias_term: true
    bias_filler {
      value: 0
    }
  }
}
layer {
  name: "ConvolutionDepthwise14"
  type: "ConvolutionDepthwise"
  bottom: "Convolution18"
  top: "ConvolutionDepthwise14"
  convolution_param {
    num_output: 64
    bias_term: false
    pad: 1
    kernel_size: 3
    stride: 1
    weight_filler {
      type: "xavier"
    }
    bias_filler {
      type: "constant"
    }
  }
}
layer {
  name: "BatchNorm30"
  type: "BatchNorm"
  bottom: "ConvolutionDepthwise14"
  top: "ConvolutionDepthwise14"
}
layer {
  name: "Scale30"
  type: "Scale"
  bottom: "ConvolutionDepthwise14"
  top: "ConvolutionDepthwise14"
  scale_param {
    filler {
      value: 1
    }
    bias_term: true
    bias_filler {
      value: 0
    }
  }
}
layer {
  name: "ReLU17"
  type: "ReLU"
  bottom: "ConvolutionDepthwise14"
  top: "ConvolutionDepthwise14"
}
layer {
  name: "Concat12"
  type: "Concat"
  bottom: "Concat11"
  bottom: "ConvolutionDepthwise14"
  top: "Concat12"
  concat_param {
    axis: 1
  }
}
layer {
  name: "Convolution19"
  type: "Convolution"
  bottom: "Concat12"
  top: "Convolution19"
  convolution_param {
    num_output: 64
    bias_term: false
    pad: 0
    kernel_size: 1
    stride: 1
    weight_filler {
      type: "xavier"
    }
    bias_filler {
      type: "constant"
    }
  }
}
layer {
  name: "BatchNorm31"
  type: "BatchNorm"
  bottom: "Convolution19"
  top: "Convolution19"
}
layer {
  name: "Scale31"
  type: "Scale"
  bottom: "Convolution19"
  top: "Convolution19"
  scale_param {
    filler {
      value: 1
    }
    bias_term: true
    bias_filler {
      value: 0
    }
  }
}
layer {
  name: "ConvolutionDepthwise15"
  type: "ConvolutionDepthwise"
  bottom: "Convolution19"
  top: "ConvolutionDepthwise15"
  convolution_param {
    num_output: 64
    bias_term: false
    pad: 1
    kernel_size: 3
    stride: 1
    weight_filler {
      type: "xavier"
    }
    bias_filler {
      type: "constant"
    }
  }
}
layer {
  name: "BatchNorm32"
  type: "BatchNorm"
  bottom: "ConvolutionDepthwise15"
  top: "ConvolutionDepthwise15"
}
layer {
  name: "Scale32"
  type: "Scale"
  bottom: "ConvolutionDepthwise15"
  top: "ConvolutionDepthwise15"
  scale_param {
    filler {
      value: 1
    }
    bias_term: true
    bias_filler {
      value: 0
    }
  }
}
layer {
  name: "ReLU18"
  type: "ReLU"
  bottom: "ConvolutionDepthwise15"
  top: "ConvolutionDepthwise15"
}
layer {
  name: "Concat13"
  type: "Concat"
  bottom: "Concat12"
  bottom: "ConvolutionDepthwise15"
  top: "Concat13"
  concat_param {
    axis: 1
  }
}
layer {
  name: "Convolution20"
  type: "Convolution"
  bottom: "Concat13"
  top: "Convolution20"
  convolution_param {
    num_output: 64
    bias_term: false
    pad: 0
    kernel_size: 1
    stride: 1
    weight_filler {
      type: "xavier"
    }
    bias_filler {
      type: "constant"
    }
  }
}
layer {
  name: "BatchNorm33"
  type: "BatchNorm"
  bottom: "Convolution20"
  top: "Convolution20"
}
layer {
  name: "Scale33"
  type: "Scale"
  bottom: "Convolution20"
  top: "Convolution20"
  scale_param {
    filler {
      value: 1
    }
    bias_term: true
    bias_filler {
      value: 0
    }
  }
}
layer {
  name: "ConvolutionDepthwise16"
  type: "ConvolutionDepthwise"
  bottom: "Convolution20"
  top: "ConvolutionDepthwise16"
  convolution_param {
    num_output: 64
    bias_term: false
    pad: 1
    kernel_size: 3
    stride: 1
    weight_filler {
      type: "xavier"
    }
    bias_filler {
      type: "constant"
    }
  }
}
layer {
  name: "BatchNorm34"
  type: "BatchNorm"
  bottom: "ConvolutionDepthwise16"
  top: "ConvolutionDepthwise16"
}
layer {
  name: "Scale34"
  type: "Scale"
  bottom: "ConvolutionDepthwise16"
  top: "ConvolutionDepthwise16"
  scale_param {
    filler {
      value: 1
    }
    bias_term: true
    bias_filler {
      value: 0
    }
  }
}
layer {
  name: "ReLU19"
  type: "ReLU"
  bottom: "ConvolutionDepthwise16"
  top: "ConvolutionDepthwise16"
}
layer {
  name: "Concat14"
  type: "Concat"
  bottom: "Concat13"
  bottom: "ConvolutionDepthwise16"
  top: "Concat14"
  concat_param {
    axis: 1
  }
}
layer {
  name: "Convolution21"
  type: "Convolution"
  bottom: "Concat14"
  top: "Convolution21"
  convolution_param {
    num_output: 64
 
I0415 03:36:48.931049  1616 layer_factory.hpp:77] Creating layer data
I0415 03:36:48.931638  1616 net.cpp:112] Creating Layer data
I0415 03:36:48.931651  1616 net.cpp:420] data -> data
I0415 03:36:48.931685  1616 net.cpp:420] data -> label
I0415 03:36:49.008345  1630 db_lmdb.cpp:35] Opened lmdb /home/itachi/data/VOCdevkit/VOC0712/lmdb/VOC0712_trainval_lmdb
I0415 03:36:49.158474  1616 annotated_data_layer.cpp:74] output data size: 8,3,300,300
I0415 03:36:49.167446  1616 net.cpp:162] Setting up data
I0415 03:36:49.167580  1616 net.cpp:169] Top shape: 8 3 300 300 (2160000)
I0415 03:36:49.167592  1616 net.cpp:169] Top shape: 1 1 5 8 (40)
I0415 03:36:49.167594  1616 net.cpp:177] Memory required for data: 8640160
I0415 03:36:49.167623  1616 layer_factory.hpp:77] Creating layer data_data_0_split
I0415 03:36:49.167634  1616 net.cpp:112] Creating Layer data_data_0_split
I0415 03:36:49.167639  1616 net.cpp:446] data_data_0_split <- data
I0415 03:36:49.167650  1616 net.cpp:420] data_data_0_split -> data_data_0_split_0
I0415 03:36:49.167697  1616 net.cpp:420] data_data_0_split -> data_data_0_split_1
I0415 03:36:49.167701  1616 net.cpp:420] data_data_0_split -> data_data_0_split_2
I0415 03:36:49.167716  1616 net.cpp:420] data_data_0_split -> data_data_0_split_3
I0415 03:36:49.167721  1616 net.cpp:420] data_data_0_split -> data_data_0_split_4
I0415 03:36:49.167724  1616 net.cpp:420] data_data_0_split -> data_data_0_split_5
I0415 03:36:49.167727  1616 net.cpp:420] data_data_0_split -> data_data_0_split_6
I0415 03:36:49.167826  1616 net.cpp:162] Setting up data_data_0_split
I0415 03:36:49.167830  1616 net.cpp:169] Top shape: 8 3 300 300 (2160000)
I0415 03:36:49.167845  1616 net.cpp:169] Top shape: 8 3 300 300 (2160000)
I0415 03:36:49.167847  1616 net.cpp:169] Top shape: 8 3 300 300 (2160000)
I0415 03:36:49.167850  1616 net.cpp:169] Top shape: 8 3 300 300 (2160000)
I0415 03:36:49.167852  1616 net.cpp:169] Top shape: 8 3 300 300 (2160000)
I0415 03:36:49.167855  1616 net.cpp:169] Top shape: 8 3 300 300 (2160000)
I0415 03:36:49.167868  1616 net.cpp:169] Top shape: 8 3 300 300 (2160000)
I0415 03:36:49.167871  1616 net.cpp:177] Memory required for data: 69120160
I0415 03:36:49.167873  1616 layer_factory.hpp:77] Creating layer Convolution1
I0415 03:36:49.167891  1616 net.cpp:112] Creating Layer Convolution1
I0415 03:36:49.167904  1616 net.cpp:446] Convolution1 <- data_data_0_split_0
I0415 03:36:49.167908  1616 net.cpp:420] Convolution1 -> Convolution1
I0415 03:36:49.908018  1631 blocking_queue.cpp:50] Waiting for data
I0415 03:36:52.671114  1616 net.cpp:162] Setting up Convolution1
I0415 03:36:52.671129  1616 net.cpp:169] Top shape: 8 64 150 150 (11520000)
I0415 03:36:52.671147  1616 net.cpp:177] Memory required for data: 115200160
I0415 03:36:52.671164  1616 layer_factory.hpp:77] Creating layer BatchNorm1
I0415 03:36:52.671181  1616 net.cpp:112] Creating Layer BatchNorm1
I0415 03:36:52.671185  1616 net.cpp:446] BatchNorm1 <- Convolution1
I0415 03:36:52.671190  1616 net.cpp:420] BatchNorm1 -> BatchNorm1
I0415 03:36:52.671347  1616 net.cpp:162] Setting up BatchNorm1
I0415 03:36:52.671351  1616 net.cpp:169] Top shape: 8 64 150 150 (11520000)
I0415 03:36:52.671365  1616 net.cpp:177] Memory required for data: 161280160
I0415 03:36:52.671371  1616 layer_factory.hpp:77] Creating layer Scale1
I0415 03:36:52.671391  1616 net.cpp:112] Creating Layer Scale1
I0415 03:36:52.671396  1616 net.cpp:446] Scale1 <- BatchNorm1
I0415 03:36:52.671398  1616 net.cpp:407] Scale1 -> BatchNorm1 (in-place)
I0415 03:36:52.671435  1616 layer_factory.hpp:77] Creating layer Scale1
I0415 03:36:52.671568  1616 net.cpp:162] Setting up Scale1
I0415 03:36:52.671572  1616 net.cpp:169] Top shape: 8 64 150 150 (11520000)
I0415 03:36:52.671586  1616 net.cpp:177] Memory required for data: 207360160
I0415 03:36:52.671591  1616 layer_factory.hpp:77] Creating layer ReLU1
I0415 03:36:52.671594  1616 net.cpp:112] Creating Layer ReLU1
I0415 03:36:52.671597  1616 net.cpp:446] ReLU1 <- BatchNorm1
I0415 03:36:52.671599  1616 net.cpp:407] ReLU1 -> BatchNorm1 (in-place)
I0415 03:36:52.686563  1616 net.cpp:162] Setting up ReLU1
I0415 03:36:52.686570  1616 net.cpp:169] Top shape: 8 64 150 150 (11520000)
I0415 03:36:52.686585  1616 net.cpp:177] Memory required for data: 253440160
I0415 03:36:52.686589  1616 layer_factory.hpp:77] Creating layer Convolution2
I0415 03:36:52.686596  1616 net.cpp:112] Creating Layer Convolution2
I0415 03:36:52.686599  1616 net.cpp:446] Convolution2 <- BatchNorm1
I0415 03:36:52.686614  1616 net.cpp:420] Convolution2 -> Convolution2
I0415 03:36:52.688547  1616 net.cpp:162] Setting up Convolution2
I0415 03:36:52.688555  1616 net.cpp:169] Top shape: 8 64 150 150 (11520000)
I0415 03:36:52.688570  1616 net.cpp:177] Memory required for data: 299520160
I0415 03:36:52.688573  1616 layer_factory.hpp:77] Creating layer ConvolutionDepthwise1
I0415 03:36:52.688580  1616 net.cpp:112] Creating Layer ConvolutionDepthwise1
I0415 03:36:52.688582  1616 net.cpp:446] ConvolutionDepthwise1 <- Convolution2
I0415 03:36:52.688598  1616 net.cpp:420] ConvolutionDepthwise1 -> ConvolutionDepthwise1
I0415 03:36:52.688817  1616 net.cpp:162] Setting up ConvolutionDepthwise1
I0415 03:36:52.688822  1616 net.cpp:169] Top shape: 8 64 150 150 (11520000)
I0415 03:36:52.688835  1616 net.cpp:177] Memory required for data: 345600160
I0415 03:36:52.688838  1616 layer_factory.hpp:77] Creating layer BatchNorm2
I0415 03:36:52.688843  1616 net.cpp:112] Creating Layer BatchNorm2
I0415 03:36:52.688846  1616 net.cpp:446] BatchNorm2 <- ConvolutionDepthwise1
I0415 03:36:52.688849  1616 net.cpp:420] BatchNorm2 -> BatchNorm2
I0415 03:36:52.689008  1616 net.cpp:162] Setting up BatchNorm2
I0415 03:36:52.689013  1616 net.cpp:169] Top shape: 8 64 150 150 (11520000)
I0415 03:36:52.689026  1616 net.cpp:177] Memory required for data: 391680160
I0415 03:36:52.689031  1616 layer_factory.hpp:77] Creating layer Scale2
I0415 03:36:52.689038  1616 net.cpp:112] Creating Layer Scale2
I0415 03:36:52.689039  1616 net.cpp:446] Scale2 <- BatchNorm2
I0415 03:36:52.689043  1616 net.cpp:407] Scale2 -> BatchNorm2 (in-place)
I0415 03:36:52.689085  1616 layer_factory.hpp:77] Creating layer Scale2
I0415 03:36:52.689213  1616 net.cpp:162] Setting up Scale2
I0415 03:36:52.689218  1616 net.cpp:169] Top shape: 8 64 150 150 (11520000)
I0415 03:36:52.689220  1616 net.cpp:177] Memory required for data: 437760160
I0415 03:36:52.689224  1616 layer_factory.hpp:77] Creating layer ReLU2
I0415 03:36:52.689237  1616 net.cpp:112] Creating Layer ReLU2
I0415 03:36:52.689239  1616 net.cpp:446] ReLU2 <- BatchNorm2
I0415 03:36:52.689244  1616 net.cpp:407] ReLU2 -> BatchNorm2 (in-place)
I0415 03:36:52.689553  1616 net.cpp:162] Setting up ReLU2
I0415 03:36:52.689559  1616 net.cpp:169] Top shape: 8 64 150 150 (11520000)
I0415 03:36:52.689563  1616 net.cpp:177] Memory required for data: 483840160
I0415 03:36:52.689565  1616 layer_factory.hpp:77] Creating layer Convolution3
I0415 03:36:52.689584  1616 net.cpp:112] Creating Layer Convolution3
I0415 03:36:52.689586  1616 net.cpp:446] Convolution3 <- BatchNorm2
I0415 03:36:52.689590  1616 net.cpp:420] Convolution3 -> Convolution3
I0415 03:36:52.691709  1616 net.cpp:162] Setting up Convolution3
I0415 03:36:52.691718  1616 net.cpp:169] Top shape: 8 128 150 150 (23040000)
I0415 03:36:52.691723  1616 net.cpp:177] Memory required for data: 576000160
I0415 03:36:52.691727  1616 layer_factory.hpp:77] Creating layer ConvolutionDepthwise2
I0415 03:36:52.691746  1616 net.cpp:112] Creating Layer ConvolutionDepthwise2
I0415 03:36:52.691751  1616 net.cpp:446] ConvolutionDepthwise2 <- Convolution3
I0415 03:36:52.691754  1616 net.cpp:420] ConvolutionDepthwise2 -> ConvolutionDepthwise2
I0415 03:36:52.692387  1616 net.cpp:162] Setting up ConvolutionDepthwise2
I0415 03:36:52.692394  1616 net.cpp:169] Top shape: 8 128 150 150 (23040000)
I0415 03:36:52.692399  1616 net.cpp:177] Memory required for data: 668160160
I0415 03:36:52.692402  1616 layer_factory.hpp:77] Creating layer BatchNorm3
I0415 03:36:52.692416  1616 net.cpp:112] Creating Layer BatchNorm3
I0415 03:36:52.692420  1616 net.cpp:446] BatchNorm3 <- ConvolutionDepthwise2
I0415 03:36:52.692425  1616 net.cpp:420] BatchNorm3 -> BatchNorm3
I0415 03:36:52.692572  1616 net.cpp:162] Setting up BatchNorm3
I0415 03:36:52.692576  1616 net.cpp:169] Top shape: 8 128 150 150 (23040000)
I0415 03:36:52.692579  1616 net.cpp:177] Memory required for data: 760320160
I0415 03:36:52.692595  1616 layer_factory.hpp:77] Creating layer Scale3
I0415 03:36:52.692601  1616 net.cpp:112] Creating Layer Scale3
I0415 03:36:52.692605  1616 net.cpp:446] Scale3 <- BatchNorm3
I0415 03:36:52.692608  1616 net.cpp:407] Scale3 -> BatchNorm3 (in-place)
I0415 03:36:52.692632  1616 layer_factory.hpp:77] Creating layer Scale3
I0415 03:36:52.692749  1616 net.cpp:162] Setting up Scale3
I0415 03:36:52.692752  1616 net.cpp:169] Top shape: 8 128 150 150 (23040000)
I0415 03:36:52.692755  1616 net.cpp:177] Memory required for data: 852480160
I0415 03:36:52.692759  1616 layer_factory.hpp:77] Creating layer ReLU3
I0415 03:36:52.692775  1616 net.cpp:112] Creating Layer ReLU3
I0415 03:36:52.692777  1616 net.cpp:446] ReLU3 <- BatchNorm3
I0415 03:36:52.692780  1616 net.cpp:407] ReLU3 -> BatchNorm3 (in-place)
I0415 03:36:52.693209  1616 net.cpp:162] Setting up ReLU3
I0415 03:36:52.693215  1616 net.cpp:169] Top shape: 8 128 150 150 (23040000)
I0415 03:36:52.693219  1616 net.cpp:177] Memory required for data: 944640160
I0415 03:36:52.693222  1616 layer_factory.hpp:77] Creating layer Pooling1
I0415 03:36:52.693239  1616 net.cpp:112] Creating Layer Pooling1
I0415 03:36:52.693243  1616 net.cpp:446] Pooling1 <- BatchNorm3
I0415 03:36:52.693246  1616 net.cpp:420] Pooling1 -> Pooling1
I0415 03:36:52.693279  1616 net.cpp:162] Setting up Pooling1
I0415 03:36:52.693291  1616 net.cpp:169] Top shape: 8 128 75 75 (5760000)
I0415 03:36:52.693295  1616 net.cpp:177] Memory required for data: 967680160
I0415 03:36:52.693297  1616 layer_factory.hpp:77] Creating layer Pooling1_Pooling1_0_split
I0415 03:36:52.693310  1616 net.cpp:112] Creating Layer Pooling1_Pooling1_0_split
I0415 03:36:52.693313  1616 net.cpp:446] Pooling1_Pooling1_0_split <- Pooling1
I0415 03:36:52.693316  1616 net.cpp:420] Pooling1_Pooling1_0_split -> Pooling1_Pooling1_0_split_0
I0415 03:36:52.693320  1616 net.cpp:420] Pooling1_Pooling1_0_split -> Pooling1_Pooling1_0_split_1
I0415 03:36:52.693341  1616 net.cpp:162] Setting up Pooling1_Pooling1_0_split
I0415 03:36:52.693344  1616 net.cpp:169] Top shape: 8 128 75 75 (5760000)
I0415 03:36:52.693347  1616 net.cpp:169] Top shape: 8 128 75 75 (5760000)
I0415 03:36:52.693359  1616 net.cpp:177] Memory required for data: 1013760160
I0415 03:36:52.693361  1616 layer_factory.hpp:77] Creating layer Convolution4
I0415 03:36:52.693378  1616 net.cpp:112] Creating Layer Convolution4
I0415 03:36:52.693382  1616 net.cpp:446] Convolution4 <- Pooling1_Pooling1_0_split_0
I0415 03:36:52.693385  1616 net.cpp:420] Convolution4 -> Convolution4
I0415 03:36:52.694675  1616 net.cpp:162] Setting up Convolution4
I0415 03:36:52.694684  1616 net.cpp:169] Top shape: 8 32 75 75 (1440000)
I0415 03:36:52.694689  1616 net.cpp:177] Memory required for data: 1019520160
I0415 03:36:52.694702  1616 layer_factory.hpp:77] Creating layer BatchNorm4
I0415 03:36:52.694707  1616 net.cpp:112] Creating Layer BatchNorm4
I0415 03:36:52.694710  1616 net.cpp:446] BatchNorm4 <- Convolution4
I0415 03:36:52.694713  1616 net.cpp:407] BatchNorm4 -> Convolution4 (in-place)
I0415 03:36:52.694844  1616 net.cpp:162] Setting up BatchNorm4
I0415 03:36:52.694849  1616 net.cpp:169] Top shape: 8 32 75 75 (1440000)
I0415 03:36:52.694852  1616 net.cpp:177] Memory required for data: 1025280160
I0415 03:36:52.694856  1616 layer_factory.hpp:77] Creating layer Scale4
I0415 03:36:52.694871  1616 net.cpp:112] Creating Layer Scale4
I0415 03:36:52.694874  1616 net.cpp:446] Scale4 <- Convolution4
I0415 03:36:52.694876  1616 net.cpp:407] Scale4 -> Convolution4 (in-place)
I0415 03:36:52.694901  1616 layer_factory.hpp:77] Creating layer Scale4
I0415 03:36:52.695001  1616 net.cpp:162] Setting up Scale4
I0415 03:36:52.695004  1616 net.cpp:169] Top shape: 8 32 75 75 (1440000)
I0415 03:36:52.695008  1616 net.cpp:177] Memory required for data: 1031040160
I0415 03:36:52.695011  1616 layer_factory.hpp:77] Creating layer ConvolutionDepthwise3
I0415 03:36:52.695026  1616 net.cpp:112] Creating Layer ConvolutionDepthwise3
I0415 03:36:52.695029  1616 net.cpp:446] ConvolutionDepthwise3 <- Convolution4
I0415 03:36:52.695034  1616 net.cpp:420] ConvolutionDepthwise3 -> ConvolutionDepthwise3
I0415 03:36:52.695107  1616 net.cpp:162] Setting up ConvolutionDepthwise3
I0415 03:36:52.695111  1616 net.cpp:169] Top shape: 8 32 75 75 (1440000)
I0415 03:36:52.695114  1616 net.cpp:177] Memory required for data: 1036800160
I0415 03:36:52.695116  1616 layer_factory.hpp:77] Creating layer BatchNorm5
I0415 03:36:52.695120  1616 net.cpp:112] Creating Layer BatchNorm5
I0415 03:36:52.695122  1616 net.cpp:446] BatchNorm5 <- ConvolutionDepthwise3
I0415 03:36:52.695125  1616 net.cpp:407] BatchNorm5 -> ConvolutionDepthwise3 (in-place)
I0415 03:36:52.695258  1616 net.cpp:162] Setting up BatchNorm5
I0415 03:36:52.695262  1616 net.cpp:169] Top shape: 8 32 75 75 (1440000)
I0415 03:36:52.695266  1616 net.cpp:177] Memory required for data: 1042560160
I0415 03:36:52.695289  1616 layer_factory.hpp:77] Creating layer Scale5
I0415 03:36:52.695294  1616 net.cpp:112] Creating Layer Scale5
I0415 03:36:52.695297  1616 net.cpp:446] Scale5 <- ConvolutionDepthwise3
I0415 03:36:52.695300  1616 net.cpp:407] Scale5 -> ConvolutionDepthwise3 (in-place)
I0415 03:36:52.695325  1616 layer_factory.hpp:77] Creating layer Scale5
I0415 03:36:52.695399  1616 net.cpp:162] Setting up Scale5
I0415 03:36:52.695401  1616 net.cpp:169] Top shape: 8 32 75 75 (1440000)
I0415 03:36:52.695405  1616 net.cpp:177] Memory required for data: 1048320160
I0415 03:36:52.695408  1616 layer_factory.hpp:77] Creating layer ReLU4
I0415 03:36:52.695412  1616 net.cpp:112] Creating Layer ReLU4
I0415 03:36:52.695415  1616 net.cpp:446] ReLU4 <- ConvolutionDepthwise3
I0415 03:36:52.695417  1616 net.cpp:407] ReLU4 -> ConvolutionDepthwise3 (in-place)
I0415 03:36:52.695837  1616 net.cpp:162] Setting up ReLU4
I0415 03:36:52.695843  1616 net.cpp:169] Top shape: 8 32 75 75 (1440000)
I0415 03:36:52.695847  1616 net.cpp:177] Memory required for data: 1054080160
I0415 03:36:52.695849  1616 layer_factory.hpp:77] Creating layer Concat1
I0415 03:36:52.695859  1616 net.cpp:112] Creating Layer Concat1
I0415 03:36:52.695863  1616 net.cpp:446] Concat1 <- Pooling1_Pooling1_0_split_1
I0415 03:36:52.695866  1616 net.cpp:446] Concat1 <- ConvolutionDepthwise3
I0415 03:36:52.695869  1616 net.cpp:420] Concat1 -> Concat1
I0415 03:36:52.695888  1616 net.cpp:162] Setting up Concat1
I0415 03:36:52.695892  1616 net.cpp:169] Top shape: 8 160 75 75 (7200000)
I0415 03:36:52.695895  1616 net.cpp:177] Memory required for data: 1082880160
I0415 03:36:52.695897  1616 layer_factory.hpp:77] Creating layer Concat1_Concat1_0_split
I0415 03:36:52.695901  1616 net.cpp:112] Creating Layer Concat1_Concat1_0_split
I0415 03:36:52.695904  1616 net.cpp:446] Concat1_Concat1_0_split <- Concat1
I0415 03:36:52.695907  1616 net.cpp:420] Concat1_Concat1_0_split -> Concat1_Concat1_0_split_0
I0415 03:36:52.695911  1616 net.cpp:420] Concat1_Concat1_0_split -> Concat1_Concat1_0_split_1
I0415 03:36:52.695935  1616 net.cpp:162] Setting up Concat1_Concat1_0_split
I0415 03:36:52.695937  1616 net.cpp:169] Top shape: 8 160 75 75 (7200000)
I0415 03:36:52.695940  1616 net.cpp:169] Top shape: 8 160 75 75 (7200000)
I0415 03:36:52.695943  1616 net.cpp:177] Memory required for data: 1140480160
I0415 03:36:52.695945  1616 layer_factory.hpp:77] Creating layer Convolution5
I0415 03:36:52.695951  1616 net.cpp:112] Creating Layer Convolution5
I0415 03:36:52.695953  1616 net.cpp:446] Convolution5 <- Concat1_Concat1_0_split_0
I0415 03:36:52.695956  1616 net.cpp:420] Convolution5 -> Convolution5
I0415 03:36:52.697166  1616 net.cpp:162] Setting up Convolution5
I0415 03:36:52.697173  1616 net.cpp:169] Top shape: 8 32 75 75 (1440000)
I0415 03:36:52.697177  1616 net.cpp:177] Memory required for data: 1146240160
I0415 03:36:52.697183  1616 layer_factory.hpp:77] Creating layer BatchNorm6
I0415 03:36:52.697190  1616 net.cpp:112] Creating Layer BatchNorm6
I0415 03:36:52.697193  1616 net.cpp:446] BatchNorm6 <- Convolution5
I0415 03:36:52.697196  1616 net.cpp:407] BatchNorm6 -> Convolution5 (in-place)
I0415 03:36:52.697322  1616 net.cpp:162] Setting up BatchNorm6
I0415 03:36:52.697326  1616 net.cpp:169] Top shape: 8 32 75 75 (1440000)
I0415 03:36:52.697329  1616 net.cpp:177] Memory required for data: 1152000160
I0415 03:36:52.697333  1616 layer_factory.hpp:77] Creating layer Scale6
I0415 03:36:52.697337  1616 net.cpp:112] Creating Layer Scale6
I0415 03:36:52.697340  1616 net.cpp:446] Scale6 <- Convolution5
I0415 03:36:52.697345  1616 net.cpp:407] Scale6 -> Convolution5 (in-place)
I0415 03:36:52.697366  1616 layer_factory.hpp:77] Creating layer Scale6
I0415 03:36:52.697444  1616 net.cpp:162] Setting up Scale6
I0415 03:36:52.697448  1616 net.cpp:169] Top shape: 8 32 75 75 (1440000)
I0415 03:36:52.697451  1616 net.cpp:177] Memory required for data: 1157760160
I0415 03:36:52.697454  1616 layer_factory.hpp:77] Creating layer ConvolutionDepthwise4
I0415 03:36:52.697470  1616 net.cpp:112] Creating Layer ConvolutionDepthwise4
I0415 03:36:52.697474  1616 net.cpp:446] ConvolutionDepthwise4 <- Convolution5
I0415 03:36:52.697476  1616 net.cpp:420] ConvolutionDepthwise4 -> ConvolutionDepthwise4
I0415 03:36:52.697554  1616 net.cpp:162] Setting up ConvolutionDepthwise4
I0415 03:36:52.697558  1616 net.cpp:169] Top shape: 8 32 75 75 (1440000)
I0415 03:36:52.697561  1616 net.cpp:177] Memory required for data: 1163520160
I0415 03:36:52.697564  1616 layer_factory.hpp:77] Creating layer BatchNorm7
I0415 03:36:52.697568  1616 net.cpp:112] Creating Layer BatchNorm7
I0415 03:36:52.697572  1616 net.cpp:446] BatchNorm7 <- ConvolutionDepthwise4
I0415 03:36:52.697576  1616 net.cpp:407] BatchNorm7 -> ConvolutionDepthwise4 (in-place)
I0415 03:36:52.697695  1616 net.cpp:162] Setting up BatchNorm7
I0415 03:36:52.697697  1616 net.cpp:169] Top shape: 8 32 75 75 (1440000)
I0415 03:36:52.697700  1616 net.cpp:177] Memory required for data: 1169280160
I0415 03:36:52.697705  1616 layer_factory.hpp:77] Creating layer Scale7
I0415 03:36:52.697711  1616 net.cpp:112] Creating Layer Scale7
I0415 03:36:52.697715  1616 net.cpp:446] Scale7 <- ConvolutionDepthwise4
I0415 03:36:52.697717  1616 net.cpp:407] Scale7 -> ConvolutionDepthwise4 (in-place)
I0415 03:36:52.697739  1616 layer_factory.hpp:77] Creating layer Scale7
I0415 03:36:52.697813  1616 net.cpp:162] Setting up Scale7
I0415 03:36:52.697816  1616 net.cpp:169] Top shape: 8 32 75 75 (1440000)
I0415 03:36:52.697819  1616 net.cpp:177] Memory required for data: 1175040160
I0415 03:36:52.697823  1616 layer_factory.hpp:77] Creating layer ReLU5
I0415 03:36:52.697827  1616 net.cpp:112] Creating Layer ReLU5
I0415 03:36:52.697829  1616 net.cpp:446] ReLU5 <- ConvolutionDepthwise4
I0415 03:36:52.697831  1616 net.cpp:407] ReLU5 -> ConvolutionDepthwise4 (in-place)
I0415 03:36:52.699278  1616 net.cpp:162] Setting up ReLU5
I0415 03:36:52.699287  1616 net.cpp:169] Top shape: 8 32 75 75 (1440000)
I0415 03:36:52.699292  1616 net.cpp:177] Memory required for data: 1180800160
I0415 03:36:52.699295  1616 layer_factory.hpp:77] Creating layer Concat2
I0415 03:36:52.699303  1616 net.cpp:112] Creating Layer Concat2
I0415 03:36:52.699306  1616 net.cpp:446] Concat2 <- Concat1_Concat1_0_split_1
I0415 03:36:52.699311  1616 net.cpp:446] Concat2 <- ConvolutionDepthwise4
I0415 03:36:52.699314  1616 net.cpp:420] Concat2 -> Concat2
I0415 03:36:52.699357  1616 net.cpp:162] Setting up Concat2
I0415 03:36:52.699359  1616 net.cpp:169] Top shape: 8 192 75 75 (8640000)
I0415 03:36:52.699362  1616 net.cpp:177] Memory required for data: 1215360160
I0415 03:36:52.699374  1616 layer_factory.hpp:77] Creating layer Concat2_Concat2_0_split
I0415 03:36:52.699378  1616 net.cpp:112] Creating Layer Concat2_Concat2_0_split
I0415 03:36:52.699380  1616 net.cpp:446] Concat2_Concat2_0_split <- Concat2
I0415 03:36:52.699393  1616 net.cpp:420] Concat2_Concat2_0_split -> Concat2_Concat2_0_split_0
I0415 03:36:52.699398  1616 net.cpp:420] Concat2_Concat2_0_split -> Concat2_Concat2_0_split_1
I0415 03:36:52.699432  1616 net.cpp:162] Setting up Concat2_Concat2_0_split
I0415 03:36:52.699435  1616 net.cpp:169] Top shape: 8 192 75 75 (8640000)
I0415 03:36:52.699439  1616 net.cpp:169] Top shape: 8 192 75 75 (8640000)
I0415 03:36:52.699450  1616 net.cpp:177] Memory required for data: 1284480160
I0415 03:36:52.699452  1616 layer_factory.hpp:77] Creating layer Convolution6
I0415 03:36:52.699470  1616 net.cpp:112] Creating Layer Convolution6
I0415 03:36:52.699473  1616 net.cpp:446] Convolution6 <- Concat2_Concat2_0_split_0
I0415 03:36:52.699476  1616 net.cpp:420] Convolution6 -> Convolution6
I0415 03:36:52.700796  1616 net.cpp:162] Setting up Convolution6
I0415 03:36:52.700804  1616 net.cpp:169] Top shape: 8 32 75 75 (1440000)
I0415 03:36:52.700809  1616 net.cpp:177] Memory required for data: 1290240160
I0415 03:36:52.700812  1616 layer_factory.hpp:77] Creating layer BatchNorm8
I0415 03:36:52.700829  1616 net.cpp:112] Creating Layer BatchNorm8
I0415 03:36:52.700832  1616 net.cpp:446] BatchNorm8 <- Convolution6
I0415 03:36:52.700835  1616 net.cpp:407] BatchNorm8 -> Convolution6 (in-place)
I0415 03:36:52.700992  1616 net.cpp:162] Setting up BatchNorm8
I0415 03:36:52.700996  1616 net.cpp:169] Top shape: 8 32 75 75 (1440000)
I0415 03:36:52.701000  1616 net.cpp:177] Memory required for data: 1296000160
I0415 03:36:52.701014  1616 layer_factory.hpp:77] Creating layer Scale8
I0415 03:36:52.701020  1616 net.cpp:112] Creating Layer Scale8
I0415 03:36:52.701021  1616 net.cpp:446] Scale8 <- Convolution6
I0415 03:36:52.701025  1616 net.cpp:407] Scale8 -> Convolution6 (in-place)
I0415 03:36:52.701050  1616 layer_factory.hpp:77] Creating layer Scale8
I0415 03:36:52.701150  1616 net.cpp:162] Setting up Scale8
I0415 03:36:52.701154  1616 net.cpp:169] Top shape: 8 32 75 75 (1440000)
I0415 03:36:52.701158  1616 net.cpp:177] Memory required for data: 1301760160
I0415 03:36:52.701160  1616 layer_factory.hpp:77] Creating layer ConvolutionDepthwise5
I0415 03:36:52.701176  1616 net.cpp:112] Creating Layer ConvolutionDepthwise5
I0415 03:36:52.701179  1616 net.cpp:446] ConvolutionDepthwise5 <- Convolution6
I0415 03:36:52.701182  1616 net.cpp:420] ConvolutionDepthwise5 -> ConvolutionDepthwise5
I0415 03:36:52.701269  1616 net.cpp:162] Setting up ConvolutionDepthwise5
I0415 03:36:52.701273  1616 net.cpp:169] Top shape: 8 32 75 75 (1440000)
I0415 03:36:52.701277  1616 net.cpp:177] Memory required for data: 1307520160
I0415 03:36:52.701279  1616 layer_factory.hpp:77] Creating layer BatchNorm9
I0415 03:36:52.701293  1616 net.cpp:112] Creating Layer BatchNorm9
I0415 03:36:52.701295  1616 net.cpp:446] BatchNorm9 <- ConvolutionDepthwise5
I0415 03:36:52.701298  1616 net.cpp:407] BatchNorm9 -> ConvolutionDepthwise5 (in-place)
I0415 03:36:52.701449  1616 net.cpp:162] Setting up BatchNorm9
I0415 03:36:52.701452  1616 net.cpp:169] Top shape: 8 32 75 75 (1440000)
I0415 03:36:52.701455  1616 net.cpp:177] Memory required for data: 1313280160
I0415 03:36:52.701470  1616 layer_factory.hpp:77] Creating layer Scale9
I0415 03:36:52.701475  1616 net.cpp:112] Creating Layer Scale9
I0415 03:36:52.701478  1616 net.cpp:446] Scale9 <- ConvolutionDepthwise5
I0415 03:36:52.701491  1616 net.cpp:407] Scale9 -> ConvolutionDepthwise5 (in-place)
I0415 03:36:52.701524  1616 layer_factory.hpp:77] Creating layer Scale9
I0415 03:36:52.701642  1616 net.cpp:162] Setting up Scale9
I0415 03:36:52.701645  1616 net.cpp:169] Top shape: 8 32 75 75 (1440000)
I0415 03:36:52.701648  1616 net.cpp:177] Memory required for data: 1319040160
I0415 03:36:52.701651  1616 layer_factory.hpp:77] Creating layer ReLU6
I0415 03:36:52.701665  1616 net.cpp:112] Creating Layer ReLU6
I0415 03:36:52.701668  1616 net.cpp:446] ReLU6 <- ConvolutionDepthwise5
I0415 03:36:52.701673  1616 net.cpp:407] ReLU6 -> ConvolutionDepthwise5 (in-place)
I0415 03:36:52.702076  1616 net.cpp:162] Setting up ReLU6
I0415 03:36:52.702083  1616 net.cpp:169] Top shape: 8 32 75 75 (1440000)
I0415 03:36:52.702087  1616 net.cpp:177] Memory required for data: 1324800160
I0415 03:36:52.702100  1616 layer_factory.hpp:77] Creating layer Concat3
I0415 03:36:52.702105  1616 net.cpp:112] Creating Layer Concat3
I0415 03:36:52.702108  1616 net.cpp:446] Concat3 <- Concat2_Concat2_0_split_1
I0415 03:36:52.702112  1616 net.cpp:446] Concat3 <- ConvolutionDepthwise5
I0415 03:36:52.702116  1616 net.cpp:420] Concat3 -> Concat3
I0415 03:36:52.702136  1616 net.cpp:162] Setting up Concat3
I0415 03:36:52.702148  1616 net.cpp:169] Top shape: 8 224 75 75 (10080000)
I0415 03:36:52.702152  1616 net.cpp:177] Memory required for data: 1365120160
I0415 03:36:52.702153  1616 layer_factory.hpp:77] Creating layer Concat3_Concat3_0_split
I0415 03:36:52.702167  1616 net.cpp:112] Creating Layer Concat3_Concat3_0_split
I0415 03:36:52.702168  1616 net.cpp:446] Concat3_Concat3_0_split <- Concat3
I0415 03:36:52.702172  1616 net.cpp:420] Concat3_Concat3_0_split -> Concat3_Concat3_0_split_0
I0415 03:36:52.702188  1616 net.cpp:420] Concat3_Concat3_0_split -> Concat3_Concat3_0_split_1
I0415 03:36:52.702219  1616 net.cpp:162] Setting up Concat3_Concat3_0_split
I0415 03:36:52.702221  1616 net.cpp:169] Top shape: 8 224 75 75 (10080000)
I0415 03:36:52.702234  1616 net.cpp:169] Top shape: 8 224 75 75 (10080000)
I0415 03:36:52.702236  1616 net.cpp:177] Memory required for data: 1445760160
I0415 03:36:52.702239  1616 layer_factory.hpp:77] Creating layer Convolution7
I0415 03:36:52.702245  1616 net.cpp:112] Creating Layer Convolution7
I0415 03:36:52.702248  1616 net.cpp:446] Convolution7 <- Concat3_Concat3_0_split_0
I0415 03:36:52.702251  1616 net.cpp:420] Convolution7 -> Convolution7
I0415 03:36:52.703632  1616 net.cpp:162] Setting up Convolution7
I0415 03:36:52.703649  1616 net.cpp:169] Top shape: 8 32 75 75 (1440000)
I0415 03:36:52.703653  1616 net.cpp:177] Memory required for data: 1451520160
I0415 03:36:52.703657  1616 layer_factory.hpp:77] Creating layer BatchNorm10
I0415 03:36:52.703671  1616 net.cpp:112] Creating Layer BatchNorm10
I0415 03:36:52.703675  1616 net.cpp:446] BatchNorm10 <- Convolution7
I0415 03:36:52.703677  1616 net.cpp:407] BatchNorm10 -> Convolution7 (in-place)
I0415 03:36:52.703815  1616 net.cpp:162] Setting up BatchNorm10
I0415 03:36:52.703819  1616 net.cpp:169] Top shape: 8 32 75 75 (1440000)
I0415 03:36:52.703822  1616 net.cpp:177] Memory required for data: 1457280160
I0415 03:36:52.703827  1616 layer_factory.hpp:77] Creating layer Scale10
I0415 03:36:52.703841  1616 net.cpp:112] Creating Layer Scale10
I0415 03:36:52.703845  1616 net.cpp:446] Scale10 <- Convolution7
I0415 03:36:52.703848  1616 net.cpp:407] Scale10 -> Convolution7 (in-place)
I0415 03:36:52.703882  1616 layer_factory.hpp:77] Creating layer Scale10
I0415 03:36:52.704005  1616 net.cpp:162] Setting up Scale10
I0415 03:36:52.704008  1616 net.cpp:169] Top shape: 8 32 75 75 (1440000)
I0415 03:36:52.704011  1616 net.cpp:177] Memory required for data: 1463040160
I0415 03:36:52.704025  1616 layer_factory.hpp:77] Creating layer ConvolutionDepthwise6
I0415 03:36:52.704031  1616 net.cpp:112] Creating Layer ConvolutionDepthwise6
I0415 03:36:52.704035  1616 net.cpp:446] ConvolutionDepthwise6 <- Convolution7
I0415 03:36:52.704047  1616 net.cpp:420] ConvolutionDepthwise6 -> ConvolutionDepthwise6
I0415 03:36:52.704126  1616 net.cpp:162] Setting up ConvolutionDepthwise6
I0415 03:36:52.704130  1616 net.cpp:169] Top shape: 8 32 75 75 (1440000)
I0415 03:36:52.704134  1616 net.cpp:177] Memory required for data: 1468800160
I0415 03:36:52.704138  1616 layer_factory.hpp:77] Creating layer BatchNorm11
I0415 03:36:52.704141  1616 net.cpp:112] Creating Layer BatchNorm11
I0415 03:36:52.704144  1616 net.cpp:446] BatchNorm11 <- ConvolutionDepthwise6
I0415 03:36:52.704146  1616 net.cpp:407] BatchNorm11 -> ConvolutionDepthwise6 (in-place)
I0415 03:36:52.704274  1616 net.cpp:162] Setting up BatchNorm11
I0415 03:36:52.704278  1616 net.cpp:169] Top shape: 8 32 75 75 (1440000)
I0415 03:36:52.704282  1616 net.cpp:177] Memory required for data: 1474560160
I0415 03:36:52.704299  1616 layer_factory.hpp:77] Creating layer Scale11
I0415 03:36:52.704304  1616 net.cpp:112] Creating Layer Scale11
I0415 03:36:52.704306  1616 net.cpp:446] Scale11 <- ConvolutionDepthwise6
I0415 03:36:52.704310  1616 net.cpp:407] Scale11 -> ConvolutionDepthwise6 (in-place)
I0415 03:36:52.704344  1616 layer_factory.hpp:77] Creating layer Scale11
I0415 03:36:52.704458  1616 net.cpp:162] Setting up Scale11
I0415 03:36:52.704461  1616 net.cpp:169] Top shape: 8 32 75 75 (1440000)
I0415 03:36:52.704465  1616 net.cpp:177] Memory required for data: 1480320160
I0415 03:36:52.704478  1616 layer_factory.hpp:77] Creating layer ReLU7
I0415 03:36:52.704483  1616 net.cpp:112] Creating Layer ReLU7
I0415 03:36:52.704485  1616 net.cpp:446] ReLU7 <- ConvolutionDepthwise6
I0415 03:36:52.704488  1616 net.cpp:407] ReLU7 -> ConvolutionDepthwise6 (in-place)
I0415 03:36:52.704797  1616 net.cpp:162] Setting up ReLU7
I0415 03:36:52.704802  1616 net.cpp:169] Top shape: 8 32 75 75 (1440000)
I0415 03:36:52.704805  1616 net.cpp:177] Memory required for data: 1486080160
I0415 03:36:52.704807  1616 layer_factory.hpp:77] Creating layer Concat4
I0415 03:36:52.704813  1616 net.cpp:112] Creating Layer Concat4
I0415 03:36:52.704816  1616 net.cpp:446] Concat4 <- Concat3_Concat3_0_split_1
I0415 03:36:52.704830  1616 net.cpp:446] Concat4 <- ConvolutionDepthwise6
I0415 03:36:52.704834  1616 net.cpp:420] Concat4 -> Concat4
I0415 03:36:52.704874  1616 net.cpp:162] Setting up Concat4
I0415 03:36:52.704876  1616 net.cpp:169] Top shape: 8 256 75 75 (11520000)
I0415 03:36:52.704890  1616 net.cpp:177] Memory required for data: 1532160160
I0415 03:36:52.704891  1616 layer_factory.hpp:77] Creating layer Convolution8
I0415 03:36:52.704908  1616 net.cpp:112] Creating Layer Convolution8
I0415 03:36:52.704910  1616 net.cpp:446] Convolution8 <- Concat4
I0415 03:36:52.704913  1616 net.cpp:420] Convolution8 -> Convolution8
I0415 03:36:52.707150  1616 net.cpp:162] Setting up Convolution8
I0415 03:36:52.707160  1616 net.cpp:169] Top shape: 8 128 75 75 (5760000)
I0415 03:36:52.707165  1616 net.cpp:177] Memory required for data: 1555200160
I0415 03:36:52.707170  1616 layer_factory.hpp:77] Creating layer BatchNorm12
I0415 03:36:52.707175  1616 net.cpp:112] Creating Layer BatchNorm12
I0415 03:36:52.707177  1616 net.cpp:446] BatchNorm12 <- Convolution8
I0415 03:36:52.707181  1616 net.cpp:420] BatchNorm12 -> BatchNorm12
I0415 03:36:52.707312  1616 net.cpp:162] Setting up BatchNorm12
I0415 03:36:52.707316  1616 net.cpp:169] Top shape: 8 128 75 75 (5760000)
I0415 03:36:52.707320  1616 net.cpp:177] Memory required for data: 1578240160
I0415 03:36:52.707324  1616 layer_factory.hpp:77] Creating layer Scale12
I0415 03:36:52.707329  1616 net.cpp:112] Creating Layer Scale12
I0415 03:36:52.707332  1616 net.cpp:446] Scale12 <- BatchNorm12
I0415 03:36:52.707335  1616 net.cpp:407] Scale12 -> BatchNorm12 (in-place)
I0415 03:36:52.707370  1616 layer_factory.hpp:77] Creating layer Scale12
I0415 03:36:52.707473  1616 net.cpp:162] Setting up Scale12
I0415 03:36:52.707475  1616 net.cpp:169] Top shape: 8 128 75 75 (5760000)
I0415 03:36:52.707479  1616 net.cpp:177] Memory required for data: 1601280160
I0415 03:36:52.707482  1616 layer_factory.hpp:77] Creating layer ReLU8
I0415 03:36:52.707487  1616 net.cpp:112] Creating Layer ReLU8
I0415 03:36:52.707489  1616 net.cpp:446] ReLU8 <- BatchNorm12
I0415 03:36:52.707492  1616 net.cpp:420] ReLU8 -> ReLU8
I0415 03:36:52.707815  1616 net.cpp:162] Setting up ReLU8
I0415 03:36:52.707821  1616 net.cpp:169] Top shape: 8 128 75 75 (5760000)
I0415 03:36:52.707825  1616 net.cpp:177] Memory required for data: 1624320160
I0415 03:36:52.707828  1616 layer_factory.hpp:77] Creating layer Pooling2
I0415 03:36:52.707834  1616 net.cpp:112] Creating Layer Pooling2
I0415 03:36:52.707837  1616 net.cpp:446] Pooling2 <- ReLU8
I0415 03:36:52.707841  1616 net.cpp:420] Pooling2 -> Pooling2
I0415 03:36:52.707875  1616 net.cpp:162] Setting up Pooling2
I0415 03:36:52.707878  1616 net.cpp:169] Top shape: 8 128 38 38 (1478656)
I0415 03:36:52.707881  1616 net.cpp:177] Memory required for data: 1630234784
I0415 03:36:52.707893  1616 layer_factory.hpp:77] Creating layer Pooling2_Pooling2_0_split
I0415 03:36:52.707900  1616 net.cpp:112] Creating Layer Pooling2_Pooling2_0_split
I0415 03:36:52.707901  1616 net.cpp:446] Pooling2_Pooling2_0_split <- Pooling2
I0415 03:36:52.707904  1616 net.cpp:420] Pooling2_Pooling2_0_split -> Pooling2_Pooling2_0_split_0
I0415 03:36:52.707908  1616 net.cpp:420] Pooling2_Pooling2_0_split -> Pooling2_Pooling2_0_split_1
I0415 03:36:52.707929  1616 net.cpp:162] Setting up Pooling2_Pooling2_0_split
I0415 03:36:52.707932  1616 net.cpp:169] Top shape: 8 128 38 38 (1478656)
I0415 03:36:52.707936  1616 net.cpp:169] Top shape: 8 128 38 38 (1478656)
I0415 03:36:52.707938  1616 net.cpp:177] Memory required for data: 1642064032
I0415 03:36:52.707940  1616 layer_factory.hpp:77] Creating layer Convolution9
I0415 03:36:52.707947  1616 net.cpp:112] Creating Layer Convolution9
I0415 03:36:52.707949  1616 net.cpp:446] Convolution9 <- Pooling2_Pooling2_0_split_0
I0415 03:36:52.707954  1616 net.cpp:420] Convolution9 -> Convolution9
I0415 03:36:52.709285  1616 net.cpp:162] Setting up Convolution9
I0415 03:36:52.709291  1616 net.cpp:169] Top shape: 8 48 38 38 (554496)
I0415 03:36:52.709295  1616 net.cpp:177] Memory required for data: 1644282016
I0415 03:36:52.709311  1616 layer_factory.hpp:77] Creating layer BatchNorm13
I0415 03:36:52.709318  1616 net.cpp:112] Creating Layer BatchNorm13
I0415 03:36:52.709321  1616 net.cpp:446] BatchNorm13 <- Convolution9
I0415 03:36:52.709326  1616 net.cpp:407] BatchNorm13 -> Convolution9 (in-place)
I0415 03:36:52.709456  1616 net.cpp:162] Setting up BatchNorm13
I0415 03:36:52.709460  1616 net.cpp:169] Top shape: 8 48 38 38 (554496)
I0415 03:36:52.709463  1616 net.cpp:177] Memory required for data: 1646500000
I0415 03:36:52.709467  1616 layer_factory.hpp:77] Creating layer Scale13
I0415 03:36:52.709472  1616 net.cpp:112] Creating Layer Scale13
I0415 03:36:52.709475  1616 net.cpp:446] Scale13 <- Convolution9
I0415 03:36:52.709480  1616 net.cpp:407] Scale13 -> Convolution9 (in-place)
I0415 03:36:52.709502  1616 layer_factory.hpp:77] Creating layer Scale13
I0415 03:36:52.709574  1616 net.cpp:162] Setting up Scale13
I0415 03:36:52.709578  1616 net.cpp:169] Top shape: 8 48 38 38 (554496)
I0415 03:36:52.709580  1616 net.cpp:177] Memory required for data: 1648717984
I0415 03:36:52.709584  1616 layer_factory.hpp:77] Creating layer ConvolutionDepthwise7
I0415 03:36:52.709590  1616 net.cpp:112] Creating Layer ConvolutionDepthwise7
I0415 03:36:52.709594  1616 net.cpp:446] ConvolutionDepthwise7 <- Convolution9
I0415 03:36:52.709599  1616 net.cpp:420] ConvolutionDepthwise7 -> ConvolutionDepthwise7
I0415 03:36:52.710150  1616 net.cpp:162] Setting up ConvolutionDepthwise7
I0415 03:36:52.710156  1616 net.cpp:169] Top shape: 8 48 38 38 (554496)
I0415 03:36:52.710161  1616 net.cpp:177] Memory required for data: 1650935968
I0415 03:36:52.710165  1616 layer_factory.hpp:77] Creating layer BatchNorm14
I0415 03:36:52.710170  1616 net.cpp:112] Creating Layer BatchNorm14
I0415 03:36:52.710171  1616 net.cpp:446] BatchNorm14 <- ConvolutionDepthwise7
I0415 03:36:52.710175  1616 net.cpp:407] BatchNorm14 -> ConvolutionDepthwise7 (in-place)
I0415 03:36:52.710311  1616 net.cpp:162] Setting up BatchNorm14
I0415 03:36:52.710315  1616 net.cpp:169] Top shape: 8 48 38 38 (554496)
I0415 03:36:52.710319  1616 net.cpp:177] Memory required for data: 1653153952
I0415 03:36:52.710333  1616 layer_factory.hpp:77] Creating layer Scale14
I0415 03:36:52.710341  1616 net.cpp:112] Creating Layer Scale14
I0415 03:36:52.710345  1616 net.cpp:446] Scale14 <- ConvolutionDepthwise7
I0415 03:36:52.710347  1616 net.cpp:407] Scale14 -> ConvolutionDepthwise7 (in-place)
I0415 03:36:52.710382  1616 layer_factory.hpp:77] Creating layer Scale14
I0415 03:36:52.710482  1616 net.cpp:162] Setting up Scale14
I0415 03:36:52.710486  1616 net.cpp:169] Top shape: 8 48 38 38 (554496)
I0415 03:36:52.710489  1616 net.cpp:177] Memory required for data: 1655371936
I0415 03:36:52.710503  1616 layer_factory.hpp:77] Creating layer ReLU9
I0415 03:36:52.710507  1616 net.cpp:112] Creating Layer ReLU9
I0415 03:36:52.710510  1616 net.cpp:446] ReLU9 <- ConvolutionDepthwise7
I0415 03:36:52.710512  1616 net.cpp:407] ReLU9 -> ConvolutionDepthwise7 (in-place)
I0415 03:36:52.710922  1616 net.cpp:162] Setting up ReLU9
I0415 03:36:52.710927  1616 net.cpp:169] Top shape: 8 48 38 38 (554496)
I0415 03:36:52.710942  1616 net.cpp:177] Memory required for data: 1657589920
I0415 03:36:52.710944  1616 layer_factory.hpp:77] Creating layer Concat5
I0415 03:36:52.710952  1616 net.cpp:112] Creating Layer Concat5
I0415 03:36:52.710954  1616 net.cpp:446] Concat5 <- Pooling2_Pooling2_0_split_1
I0415 03:36:52.710958  1616 net.cpp:446] Concat5 <- ConvolutionDepthwise7
I0415 03:36:52.710961  1616 net.cpp:420] Concat5 -> Concat5
I0415 03:36:52.710981  1616 net.cpp:162] Setting up Concat5
I0415 03:36:52.710994  1616 net.cpp:169] Top shape: 8 176 38 38 (2033152)
I0415 03:36:52.710997  1616 net.cpp:177] Memory required for data: 1665722528
I0415 03:36:52.710999  1616 layer_factory.hpp:77] Creating layer Concat5_Concat5_0_split
I0415 03:36:52.711014  1616 net.cpp:112] Creating Layer Concat5_Concat5_0_split
I0415 03:36:52.711015  1616 net.cpp:446] Concat5_Concat5_0_split <- Concat5
I0415 03:36:52.711028  1616 net.cpp:420] Concat5_Concat5_0_split -> Concat5_Concat5_0_split_0
I0415 03:36:52.711033  1616 net.cpp:420] Concat5_Concat5_0_split -> Concat5_Concat5_0_split_1
I0415 03:36:52.711069  1616 net.cpp:162] Setting up Concat5_Concat5_0_split
I0415 03:36:52.711072  1616 net.cpp:169] Top shape: 8 176 38 38 (2033152)
I0415 03:36:52.711076  1616 net.cpp:169] Top shape: 8 176 38 38 (2033152)
I0415 03:36:52.711088  1616 net.cpp:177] Memory required for data: 1681987744
I0415 03:36:52.711091  1616 layer_factory.hpp:77] Creating layer Convolution10
I0415 03:36:52.711097  1616 net.cpp:112] Creating Layer Convolution10
I0415 03:36:52.711099  1616 net.cpp:446] Convolution10 <- Concat5_Concat5_0_split_0
I0415 03:36:52.711103  1616 net.cpp:420] Convolution10 -> Convolution10
I0415 03:36:52.712357  1616 net.cpp:162] Setting up Convolution10
I0415 03:36:52.712364  1616 net.cpp:169] Top shape: 8 48 38 38 (554496)
I0415 03:36:52.712378  1616 net.cpp:177] Memory required for data: 1684205728
I0415 03:36:52.712383  1616 layer_factory.hpp:77] Creating layer BatchNorm15
I0415 03:36:52.712388  1616 net.cpp:112] Creating Layer BatchNorm15
I0415 03:36:52.712390  1616 net.cpp:446] BatchNorm15 <- Convolution10
I0415 03:36:52.712393  1616 net.cpp:407] BatchNorm15 -> Convolution10 (in-place)
I0415 03:36:52.712527  1616 net.cpp:162] Setting up BatchNorm15
I0415 03:36:52.712532  1616 net.cpp:169] Top shape: 8 48 38 38 (554496)
I0415 03:36:52.712534  1616 net.cpp:177] Memory required for data: 1686423712
I0415 03:36:52.712548  1616 layer_factory.hpp:77] Creating layer Scale15
I0415 03:36:52.712553  1616 net.cpp:112] Creating Layer Scale15
I0415 03:36:52.712555  1616 net.cpp:446] Scale15 <- Convolution10
I0415 03:36:52.712558  1616 net.cpp:407] Scale15 -> Convolution10 (in-place)
I0415 03:36:52.712594  1616 layer_factory.hpp:77] Creating layer Scale15
I0415 03:36:52.712705  1616 net.cpp:162] Setting up Scale15
I0415 03:36:52.712709  1616 net.cpp:169] Top shape: 8 48 38 38 (554496)
I0415 03:36:52.712713  1616 net.cpp:177] Memory required for data: 1688641696
I0415 03:36:52.712715  1616 layer_factory.hpp:77] Creating layer ConvolutionDepthwise8
I0415 03:36:52.712730  1616 net.cpp:112] Creating Layer ConvolutionDepthwise8
I0415 03:36:52.712734  1616 net.cpp:446] ConvolutionDepthwise8 <- Convolution10
I0415 03:36:52.712738  1616 net.cpp:420] ConvolutionDepthwise8 -> ConvolutionDepthwise8
I0415 03:36:52.712810  1616 net.cpp:162] Setting up ConvolutionDepthwise8
I0415 03:36:52.712813  1616 net.cpp:169] Top shape: 8 48 38 38 (554496)
I0415 03:36:52.712816  1616 net.cpp:177] Memory required for data: 1690859680
I0415 03:36:52.712819  1616 layer_factory.hpp:77] Creating layer BatchNorm16
I0415 03:36:52.712832  1616 net.cpp:112] Creating Layer BatchNorm16
I0415 03:36:52.712836  1616 net.cpp:446] BatchNorm16 <- ConvolutionDepthwise8
I0415 03:36:52.712838  1616 net.cpp:407] BatchNorm16 -> ConvolutionDepthwise8 (in-place)
I0415 03:36:52.712965  1616 net.cpp:162] Setting up BatchNorm16
I0415 03:36:52.712968  1616 net.cpp:169] Top shape: 8 48 38 38 (554496)
I0415 03:36:52.712971  1616 net.cpp:177] Memory required for data: 1693077664
I0415 03:36:52.712975  1616 layer_factory.hpp:77] Creating layer Scale16
I0415 03:36:52.712988  1616 net.cpp:112] Creating Layer Scale16
I0415 03:36:52.712991  1616 net.cpp:446] Scale16 <- ConvolutionDepthwise8
I0415 03:36:52.712996  1616 net.cpp:407] Scale16 -> ConvolutionDepthwise8 (in-place)
I0415 03:36:52.713028  1616 layer_factory.hpp:77] Creating layer Scale16
I0415 03:36:52.713107  1616 net.cpp:162] Setting up Scale16
I0415 03:36:52.713111  1616 net.cpp:169] Top shape: 8 48 38 38 (554496)
I0415 03:36:52.713114  1616 net.cpp:177] Memory required for data: 1695295648
I0415 03:36:52.713117  1616 layer_factory.hpp:77] Creating layer ReLU10
I0415 03:36:52.713122  1616 net.cpp:112] Creating Layer ReLU10
I0415 03:36:52.713124  1616 net.cpp:446] ReLU10 <- ConvolutionDepthwise8
I0415 03:36:52.713127  1616 net.cpp:407] ReLU10 -> ConvolutionDepthwise8 (in-place)
I0415 03:36:52.714409  1616 net.cpp:162] Setting up ReLU10
I0415 03:36:52.714427  1616 net.cpp:169] Top shape: 8 48 38 38 (554496)
I0415 03:36:52.714432  1616 net.cpp:177] Memory required for data: 1697513632
I0415 03:36:52.714435  1616 layer_factory.hpp:77] Creating layer Concat6
I0415 03:36:52.714443  1616 net.cpp:112] Creating Layer Concat6
I0415 03:36:52.714447  1616 net.cpp:446] Concat6 <- Concat5_Concat5_0_split_1
I0415 03:36:52.714450  1616 net.cpp:446] Concat6 <- ConvolutionDepthwise8
I0415 03:36:52.714454  1616 net.cpp:420] Concat6 -> Concat6
I0415 03:36:52.714484  1616 net.cpp:162] Setting up Concat6
I0415 03:36:52.714488  1616 net.cpp:169] Top shape: 8 224 38 38 (2587648)
I0415 03:36:52.714490  1616 net.cpp:177] Memory required for data: 1707864224
I0415 03:36:52.714504  1616 layer_factory.hpp:77] Creating layer Concat6_Concat6_0_split
I0415 03:36:52.714509  1616 net.cpp:112] Creating Layer Concat6_Concat6_0_split
I0415 03:36:52.714511  1616 net.cpp:446] Concat6_Concat6_0_split <- Concat6
I0415 03:36:52.714515  1616 net.cpp:420] Concat6_Concat6_0_split -> Concat6_Concat6_0_split_0
I0415 03:36:52.714519  1616 net.cpp:420] Concat6_Concat6_0_split -> Concat6_Concat6_0_split_1
I0415 03:36:52.714555  1616 net.cpp:162] Setting up Concat6_Concat6_0_split
I0415 03:36:52.714557  1616 net.cpp:169] Top shape: 8 224 38 38 (2587648)
I0415 03:36:52.714560  1616 net.cpp:169] Top shape: 8 224 38 38 (2587648)
I0415 03:36:52.714572  1616 net.cpp:177] Memory required for data: 1728565408
I0415 03:36:52.714576  1616 layer_factory.hpp:77] Creating layer Convolution11
I0415 03:36:52.714581  1616 net.cpp:112] Creating Layer Convolution11
I0415 03:36:52.714583  1616 net.cpp:446] Convolution11 <- Concat6_Concat6_0_split_0
I0415 03:36:52.714587  1616 net.cpp:420] Convolution11 -> Convolution11
I0415 03:36:52.715857  1616 net.cpp:162] Setting up Convolution11
I0415 03:36:52.715865  1616 net.cpp:169] Top shape: 8 48 38 38 (554496)
I0415 03:36:52.715880  1616 net.cpp:177] Memory required for data: 1730783392
I0415 03:36:52.715883  1616 layer_factory.hpp:77] Creating layer BatchNorm17
I0415 03:36:52.715889  1616 net.cpp:112] Creating Layer BatchNorm17
I0415 03:36:52.715893  1616 net.cpp:446] BatchNorm17 <- Convolution11
I0415 03:36:52.715895  1616 net.cpp:407] BatchNorm17 -> Convolution11 (in-place)
I0415 03:36:52.716027  1616 net.cpp:162] Setting up BatchNorm17
I0415 03:36:52.716030  1616 net.cpp:169] Top shape: 8 48 38 38 (554496)
I0415 03:36:52.716033  1616 net.cpp:177] Memory required for data: 1733001376
I0415 03:36:52.716048  1616 layer_factory.hpp:77] Creating layer Scale17
I0415 03:36:52.716053  1616 net.cpp:112] Creating Layer Scale17
I0415 03:36:52.716055  1616 net.cpp:446] Scale17 <- Convolution11
I0415 03:36:52.716058  1616 net.cpp:407] Scale17 -> Convolution11 (in-place)
I0415 03:36:52.716092  1616 layer_factory.hpp:77] Creating layer Scale17
I0415 03:36:52.716181  1616 net.cpp:162] Setting up Scale17
I0415 03:36:52.716184  1616 net.cpp:169] Top shape: 8 48 38 38 (554496)
I0415 03:36:52.716187  1616 net.cpp:177] Memory required for data: 1735219360
I0415 03:36:52.716202  1616 layer_factory.hpp:77] Creating layer ConvolutionDepthwise9
I0415 03:36:52.716207  1616 net.cpp:112] Creating Layer ConvolutionDepthwise9
I0415 03:36:52.716209  1616 net.cpp:446] ConvolutionDepthwise9 <- Convolution11
I0415 03:36:52.716212  1616 net.cpp:420] ConvolutionDepthwise9 -> ConvolutionDepthwise9
I0415 03:36:52.716285  1616 net.cpp:162] Setting up ConvolutionDepthwise9
I0415 03:36:52.716289  1616 net.cpp:169] Top shape: 8 48 38 38 (554496)
I0415 03:36:52.716292  1616 net.cpp:177] Memory required for data: 1737437344
I0415 03:36:52.716305  1616 layer_factory.hpp:77] Creating layer BatchNorm18
I0415 03:36:52.716310  1616 net.cpp:112] Creating Layer BatchNorm18
I0415 03:36:52.716311  1616 net.cpp:446] BatchNorm18 <- ConvolutionDepthwise9
I0415 03:36:52.716315  1616 net.cpp:407] BatchNorm18 -> ConvolutionDepthwise9 (in-place)
I0415 03:36:52.716434  1616 net.cpp:162] Setting up BatchNorm18
I0415 03:36:52.716439  1616 net.cpp:169] Top shape: 8 48 38 38 (554496)
I0415 03:36:52.716441  1616 net.cpp:177] Memory required for data: 1739655328
I0415 03:36:52.716455  1616 layer_factory.hpp:77] Creating layer Scale18
I0415 03:36:52.716461  1616 net.cpp:112] Creating Layer Scale18
I0415 03:36:52.716464  1616 net.cpp:446] Scale18 <- ConvolutionDepthwise9
I0415 03:36:52.716466  1616 net.cpp:407] Scale18 -> ConvolutionDepthwise9 (in-place)
I0415 03:36:52.716501  1616 layer_factory.hpp:77] Creating layer Scale18
I0415 03:36:52.716583  1616 net.cpp:162] Setting up Scale18
I0415 03:36:52.716585  1616 net.cpp:169] Top shape: 8 48 38 38 (554496)
I0415 03:36:52.716589  1616 net.cpp:177] Memory required for data: 1741873312
I0415 03:36:52.716593  1616 layer_factory.hpp:77] Creating layer ReLU11
I0415 03:36:52.716598  1616 net.cpp:112] Creating Layer ReLU11
I0415 03:36:52.716599  1616 net.cpp:446] ReLU11 <- ConvolutionDepthwise9
I0415 03:36:52.716603  1616 net.cpp:407] ReLU11 -> ConvolutionDepthwise9 (in-place)
I0415 03:36:52.717008  1616 net.cpp:162] Setting up ReLU11
I0415 03:36:52.717015  1616 net.cpp:169] Top shape: 8 48 38 38 (554496)
I0415 03:36:52.717020  1616 net.cpp:177] Memory required for data: 1744091296
I0415 03:36:52.717023  1616 layer_factory.hpp:77] Creating layer Concat7
I0415 03:36:52.717028  1616 net.cpp:112] Creating Layer Concat7
I0415 03:36:52.717032  1616 net.cpp:446] Concat7 <- Concat6_Concat6_0_split_1
I0415 03:36:52.717036  1616 net.cpp:446] Concat7 <- ConvolutionDepthwise9
I0415 03:36:52.717038  1616 net.cpp:420] Concat7 -> Concat7
I0415 03:36:52.717056  1616 net.cpp:162] Setting up Concat7
I0415 03:36:52.717059  1616 net.cpp:169] Top shape: 8 272 38 38 (3142144)
I0415 03:36:52.717063  1616 net.cpp:177] Memory required for data: 1756659872
I0415 03:36:52.717065  1616 layer_factory.hpp:77] Creating layer Concat7_Concat7_0_split
I0415 03:36:52.717070  1616 net.cpp:112] Creating Layer Concat7_Concat7_0_split
I0415 03:36:52.717072  1616 net.cpp:446] Concat7_Concat7_0_split <- Concat7
I0415 03:36:52.717075  1616 net.cpp:420] Concat7_Concat7_0_split -> Concat7_Concat7_0_split_0
I0415 03:36:52.717080  1616 net.cpp:420] Concat7_Concat7_0_split -> Concat7_Concat7_0_split_1
I0415 03:36:52.717103  1616 net.cpp:162] Setting up Concat7_Concat7_0_split
I0415 03:36:52.717105  1616 net.cpp:169] Top shape: 8 272 38 38 (3142144)
I0415 03:36:52.717108  1616 net.cpp:169] Top shape: 8 272 38 38 (3142144)
I0415 03:36:52.717111  1616 net.cpp:177] Memory required for data: 1781797024
I0415 03:36:52.717113  1616 layer_factory.hpp:77] Creating layer Convolution12
I0415 03:36:52.717119  1616 net.cpp:112] Creating Layer Convolution12
I0415 03:36:52.717123  1616 net.cpp:446] Convolution12 <- Concat7_Concat7_0_split_0
I0415 03:36:52.717128  1616 net.cpp:420] Convolution12 -> Convolution12
I0415 03:36:52.718394  1616 net.cpp:162] Setting up Convolution12
I0415 03:36:52.718400  1616 net.cpp:169] Top shape: 8 48 38 38 (554496)
I0415 03:36:52.718405  1616 net.cpp:177] Memory required for data: 1784015008
I0415 03:36:52.718408  1616 layer_factory.hpp:77] Creating layer BatchNorm19
I0415 03:36:52.718413  1616 net.cpp:112] Creating Layer BatchNorm19
I0415 03:36:52.718416  1616 net.cpp:446] BatchNorm19 <- Convolution12
I0415 03:36:52.718420  1616 net.cpp:407] BatchNorm19 -> Convolution12 (in-place)
I0415 03:36:52.718544  1616 net.cpp:162] Setting up BatchNorm19
I0415 03:36:52.718549  1616 net.cpp:169] Top shape: 8 48 38 38 (554496)
I0415 03:36:52.718552  1616 net.cpp:177] Memory required for data: 1786232992
I0415 03:36:52.718556  1616 layer_factory.hpp:77] Creating layer Scale19
I0415 03:36:52.718560  1616 net.cpp:112] Creating Layer Scale19
I0415 03:36:52.718564  1616 net.cpp:446] Scale19 <- Convolution12
I0415 03:36:52.718566  1616 net.cpp:407] Scale19 -> Convolution12 (in-place)
I0415 03:36:52.718590  1616 layer_factory.hpp:77] Creating layer Scale19
I0415 03:36:52.718662  1616 net.cpp:162] Setting up Scale19
I0415 03:36:52.718665  1616 net.cpp:169] Top shape: 8 48 38 38 (554496)
I0415 03:36:52.718668  1616 net.cpp:177] Memory required for data: 1788450976
I0415 03:36:52.718672  1616 layer_factory.hpp:77] Creating layer ConvolutionDepthwise10
I0415 03:36:52.718686  1616 net.cpp:112] Creating Layer ConvolutionDepthwise10
I0415 03:36:52.718689  1616 net.cpp:446] ConvolutionDepthwise10 <- Convolution12
I0415 03:36:52.718693  1616 net.cpp:420] ConvolutionDepthwise10 -> ConvolutionDepthwise10
I0415 03:36:52.718758  1616 net.cpp:162] Setting up ConvolutionDepthwise10
I0415 03:36:52.718761  1616 net.cpp:169] Top shape: 8 48 38 38 (554496)
I0415 03:36:52.718765  1616 net.cpp:177] Memory required for data: 1790668960
I0415 03:36:52.718768  1616 layer_factory.hpp:77] Creating layer BatchNorm20
I0415 03:36:52.718771  1616 net.cpp:112] Creating Layer BatchNorm20
I0415 03:36:52.718775  1616 net.cpp:446] BatchNorm20 <- ConvolutionDepthwise10
I0415 03:36:52.718778  1616 net.cpp:407] BatchNorm20 -> ConvolutionDepthwise10 (in-place)
I0415 03:36:52.718896  1616 net.cpp:162] Setting up BatchNorm20
I0415 03:36:52.718900  1616 net.cpp:169] Top shape: 8 48 38 38 (554496)
I0415 03:36:52.718904  1616 net.cpp:177] Memory required for data: 1792886944
I0415 03:36:52.718909  1616 layer_factory.hpp:77] Creating layer Scale20
I0415 03:36:52.718911  1616 net.cpp:112] Creating Layer Scale20
I0415 03:36:52.718914  1616 net.cpp:446] Scale20 <- ConvolutionDepthwise10
I0415 03:36:52.718917  1616 net.cpp:407] Scale20 -> ConvolutionDepthwise10 (in-place)
I0415 03:36:52.718940  1616 layer_factory.hpp:77] Creating layer Scale20
I0415 03:36:52.719009  1616 net.cpp:162] Setting up Scale20
I0415 03:36:52.719013  1616 net.cpp:169] Top shape: 8 48 38 38 (554496)
I0415 03:36:52.719017  1616 net.cpp:177] Memory required for data: 1795104928
I0415 03:36:52.719019  1616 layer_factory.hpp:77] Creating layer ReLU12
I0415 03:36:52.719024  1616 net.cpp:112] Creating Layer ReLU12
I0415 03:36:52.719027  1616 net.cpp:446] ReLU12 <- ConvolutionDepthwise10
I0415 03:36:52.719029  1616 net.cpp:407] ReLU12 -> ConvolutionDepthwise10 (in-place)
I0415 03:36:52.719436  1616 net.cpp:162] Setting up ReLU12
I0415 03:36:52.719444  1616 net.cpp:169] Top shape: 8 48 38 38 (554496)
I0415 03:36:52.719447  1616 net.cpp:177] Memory required for data: 1797322912
I0415 03:36:52.719449  1616 layer_factory.hpp:77] Creating layer Concat8
I0415 03:36:52.719456  1616 net.cpp:112] Creating Layer Concat8
I0415 03:36:52.719458  1616 net.cpp:446] Concat8 <- Concat7_Concat7_0_split_1
I0415 03:36:52.719461  1616 net.cpp:446] Concat8 <- ConvolutionDepthwise10
I0415 03:36:52.719465  1616 net.cpp:420] Concat8 -> Concat8
I0415 03:36:52.719483  1616 net.cpp:162] Setting up Concat8
I0415 03:36:52.719487  1616 net.cpp:169] Top shape: 8 320 38 38 (3696640)
I0415 03:36:52.719491  1616 net.cpp:177] Memory required for data: 1812109472
I0415 03:36:52.719492  1616 layer_factory.hpp:77] Creating layer Concat8_Concat8_0_split
I0415 03:36:52.719496  1616 net.cpp:112] Creating Layer Concat8_Concat8_0_split
I0415 03:36:52.719498  1616 net.cpp:446] Concat8_Concat8_0_split <- Concat8
I0415 03:36:52.719502  1616 net.cpp:420] Concat8_Concat8_0_split -> Concat8_Concat8_0_split_0
I0415 03:36:52.719506  1616 net.cpp:420] Concat8_Concat8_0_split -> Concat8_Concat8_0_split_1
I0415 03:36:52.719528  1616 net.cpp:162] Setting up Concat8_Concat8_0_split
I0415 03:36:52.719532  1616 net.cpp:169] Top shape: 8 320 38 38 (3696640)
I0415 03:36:52.719534  1616 net.cpp:169] Top shape: 8 320 38 38 (3696640)
I0415 03:36:52.719537  1616 net.cpp:177] Memory required for data: 1841682592
I0415 03:36:52.719539  1616 layer_factory.hpp:77] Creating layer Convolution13
I0415 03:36:52.719547  1616 net.cpp:112] Creating Layer Convolution13
I0415 03:36:52.719550  1616 net.cpp:446] Convolution13 <- Concat8_Concat8_0_split_0
I0415 03:36:52.719553  1616 net.cpp:420] Convolution13 -> Convolution13
I0415 03:36:52.721762  1616 net.cpp:162] Setting up Convolution13
I0415 03:36:52.721772  1616 net.cpp:169] Top shape: 8 48 38 38 (554496)
I0415 03:36:52.721776  1616 net.cpp:177] Memory required for data: 1843900576
I0415 03:36:52.721781  1616 layer_factory.hpp:77] Creating layer BatchNorm21
I0415 03:36:52.721786  1616 net.cpp:112] Creating Layer BatchNorm21
I0415 03:36:52.721791  1616 net.cpp:446] BatchNorm21 <- Convolution13
I0415 03:36:52.721807  1616 net.cpp:407] BatchNorm21 -> Convolution13 (in-place)
I0415 03:36:52.721936  1616 net.cpp:162] Setting up BatchNorm21
I0415 03:36:52.721940  1616 net.cpp:169] Top shape: 8 48 38 38 (554496)
I0415 03:36:52.721943  1616 net.cpp:177] Memory required for data: 1846118560
I0415 03:36:52.721948  1616 layer_factory.hpp:77] Creating layer Scale21
I0415 03:36:52.721954  1616 net.cpp:112] Creating Layer Scale21
I0415 03:36:52.721956  1616 net.cpp:446] Scale21 <- Convolution13
I0415 03:36:52.721959  1616 net.cpp:407] Scale21 -> Convolution13 (in-place)
I0415 03:36:52.721984  1616 layer_factory.hpp:77] Creating layer Scale21
I0415 03:36:52.722057  1616 net.cpp:162] Setting up Scale21
I0415 03:36:52.722061  1616 net.cpp:169] Top shape: 8 48 38 38 (554496)
I0415 03:36:52.722064  1616 net.cpp:177] Memory required for data: 1848336544
I0415 03:36:52.722069  1616 layer_factory.hpp:77] Creating layer ConvolutionDepthwise11
I0415 03:36:52.722074  1616 net.cpp:112] Creating Layer ConvolutionDepthwise11
I0415 03:36:52.722077  1616 net.cpp:446] ConvolutionDepthwise11 <- Convolution13
I0415 03:36:52.722081  1616 net.cpp:420] ConvolutionDepthwise11 -> ConvolutionDepthwise11
I0415 03:36:52.722146  1616 net.cpp:162] Setting up ConvolutionDepthwise11
I0415 03:36:52.722149  1616 net.cpp:169] Top shape: 8 48 38 38 (554496)
I0415 03:36:52.722152  1616 net.cpp:177] Memory required for data: 1850554528
I0415 03:36:52.722163  1616 layer_factory.hpp:77] Creating layer BatchNorm22
I0415 03:36:52.722168  1616 net.cpp:112] Creating Layer BatchNorm22
I0415 03:36:52.722170  1616 net.cpp:446] BatchNorm22 <- ConvolutionDepthwise11
I0415 03:36:52.722173  1616 net.cpp:407] BatchNorm22 -> ConvolutionDepthwise11 (in-place)
I0415 03:36:52.722292  1616 net.cpp:162] Setting up BatchNorm22
I0415 03:36:52.722295  1616 net.cpp:169] Top shape: 8 48 38 38 (554496)
I0415 03:36:52.722298  1616 net.cpp:177] Memory required for data: 1852772512
I0415 03:36:52.722303  1616 layer_factory.hpp:77] Creating layer Scale22
I0415 03:36:52.722306  1616 net.cpp:112] Creating Layer Scale22
I0415 03:36:52.722309  1616 net.cpp:446] Scale22 <- ConvolutionDepthwise11
I0415 03:36:52.722313  1616 net.cpp:407] Scale22 -> ConvolutionDepthwise11 (in-place)
I0415 03:36:52.722335  1616 layer_factory.hpp:77] Creating layer Scale22
I0415 03:36:52.722405  1616 net.cpp:162] Setting up Scale22
I0415 03:36:52.722409  1616 net.cpp:169] Top shape: 8 48 38 38 (554496)
I0415 03:36:52.722411  1616 net.cpp:177] Memory required for data: 1854990496
I0415 03:36:52.722415  1616 layer_factory.hpp:77] Creating layer ReLU13
I0415 03:36:52.722419  1616 net.cpp:112] Creating Layer ReLU13
I0415 03:36:52.722420  1616 net.cpp:446] ReLU13 <- ConvolutionDepthwise11
I0415 03:36:52.722424  1616 net.cpp:407] ReLU13 -> ConvolutionDepthwise11 (in-place)
I0415 03:36:52.722735  1616 net.cpp:162] Setting up ReLU13
I0415 03:36:52.722741  1616 net.cpp:169] Top shape: 8 48 38 38 (554496)
I0415 03:36:52.722744  1616 net.cpp:177] Memory required for data: 1857208480
I0415 03:36:52.722748  1616 layer_factory.hpp:77] Creating layer Concat9
I0415 03:36:52.722754  1616 net.cpp:112] Creating Layer Concat9
I0415 03:36:52.722756  1616 net.cpp:446] Concat9 <- Concat8_Concat8_0_split_1
I0415 03:36:52.722759  1616 net.cpp:446] Concat9 <- ConvolutionDepthwise11
I0415 03:36:52.722764  1616 net.cpp:420] Concat9 -> Concat9
I0415 03:36:52.722780  1616 net.cpp:162] Setting up Concat9
I0415 03:36:52.722784  1616 net.cpp:169] Top shape: 8 368 38 38 (4251136)
I0415 03:36:52.722787  1616 net.cpp:177] Memory required for data: 1874213024
I0415 03:36:52.722790  1616 layer_factory.hpp:77] Creating layer Concat9_Concat9_0_split
I0415 03:36:52.722792  1616 net.cpp:112] Creating Layer Concat9_Concat9_0_split
I0415 03:36:52.722795  1616 net.cpp:446] Concat9_Concat9_0_split <- Concat9
I0415 03:36:52.722800  1616 net.cpp:420] Concat9_Concat9_0_split -> Concat9_Concat9_0_split_0
I0415 03:36:52.722803  1616 net.cpp:420] Concat9_Concat9_0_split -> Concat9_Concat9_0_split_1
I0415 03:36:52.722826  1616 net.cpp:162] Setting up Concat9_Concat9_0_split
I0415 03:36:52.722838  1616 net.cpp:169] Top shape: 8 368 38 38 (4251136)
I0415 03:36:52.722841  1616 net.cpp:169] Top shape: 8 368 38 38 (4251136)
I0415 03:36:52.722844  1616 net.cpp:177] Memory required for data: 1908222112
I0415 03:36:52.722846  1616 layer_factory.hpp:77] Creating layer Convolution14
I0415 03:36:52.722852  1616 net.cpp:112] Creating Layer Convolution14
I0415 03:36:52.722856  1616 net.cpp:446] Convolution14 <- Concat9_Concat9_0_split_0
I0415 03:36:52.722858  1616 net.cpp:420] Convolution14 -> Convolution14
I0415 03:36:52.724274  1616 net.cpp:162] Setting up Convolution14
I0415 03:36:52.724282  1616 net.cpp:169] Top shape: 8 48 38 38 (554496)
I0415 03:36:52.724287  1616 net.cpp:177] Memory required for data: 1910440096
I0415 03:36:52.724290  1616 layer_factory.hpp:77] Creating layer BatchNorm23
I0415 03:36:52.724295  1616 net.cpp:112] Creating Layer BatchNorm23
I0415 03:36:52.724298  1616 net.cpp:446] BatchNorm23 <- Convolution14
I0415 03:36:52.724301  1616 net.cpp:407] BatchNorm23 -> Convolution14 (in-place)
I0415 03:36:52.724424  1616 net.cpp:162] Setting up BatchNorm23
I0415 03:36:52.724428  1616 net.cpp:169] Top shape: 8 48 38 38 (554496)
I0415 03:36:52.724431  1616 net.cpp:177] Memory required for data: 1912658080
I0415 03:36:52.724436  1616 layer_factory.hpp:77] Creating layer Scale23
I0415 03:36:52.724442  1616 net.cpp:112] Creating Layer Scale23
I0415 03:36:52.724443  1616 net.cpp:446] Scale23 <- Convolution14
I0415 03:36:52.724447  1616 net.cpp:407] Scale23 -> Convolution14 (in-place)
I0415 03:36:52.724470  1616 layer_factory.hpp:77] Creating layer Scale23
I0415 03:36:52.724541  1616 net.cpp:162] Setting up Scale23
I0415 03:36:52.724545  1616 net.cpp:169] Top shape: 8 48 38 38 (554496)
I0415 03:36:52.724548  1616 net.cpp:177] Memory required for data: 1914876064
I0415 03:36:52.724551  1616 layer_factory.hpp:77] Creating layer ConvolutionDepthwise12
I0415 03:36:52.724557  1616 net.cpp:112] Creating Layer ConvolutionDepthwise12
I0415 03:36:52.724560  1616 net.cpp:446] ConvolutionDepthwise12 <- Convolution14
I0415 03:36:52.724565  1616 net.cpp:420] ConvolutionDepthwise12 -> ConvolutionDepthwise12
I0415 03:36:52.724627  1616 net.cpp:162] Setting up ConvolutionDepthwise12
I0415 03:36:52.724632  1616 net.cpp:169] Top shape: 8 48 38 38 (554496)
I0415 03:36:52.724634  1616 net.cpp:177] Memory required for data: 1917094048
I0415 03:36:52.724637  1616 layer_factory.hpp:77] Creating layer BatchNorm24
I0415 03:36:52.724642  1616 net.cpp:112] Creating Layer BatchNorm24
I0415 03:36:52.724643  1616 net.cpp:446] BatchNorm24 <- ConvolutionDepthwise12
I0415 03:36:52.724647  1616 net.cpp:407] BatchNorm24 -> ConvolutionDepthwise12 (in-place)
I0415 03:36:52.724764  1616 net.cpp:162] Setting up BatchNorm24
I0415 03:36:52.724767  1616 net.cpp:169] Top shape: 8 48 38 38 (554496)
I0415 03:36:52.724771  1616 net.cpp:177] Memory required for data: 1919312032
I0415 03:36:52.724776  1616 layer_factory.hpp:77] Creating layer Scale24
I0415 03:36:52.724779  1616 net.cpp:112] Creating Layer Scale24
I0415 03:36:52.724783  1616 net.cpp:446] Scale24 <- ConvolutionDepthwise12
I0415 03:36:52.724786  1616 net.cpp:407] Scale24 -> ConvolutionDepthwise12 (in-place)
I0415 03:36:52.724808  1616 layer_factory.hpp:77] Creating layer Scale24
I0415 03:36:52.724879  1616 net.cpp:162] Setting up Scale24
I0415 03:36:52.724882  1616 net.cpp:169] Top shape: 8 48 38 38 (554496)
I0415 03:36:52.724886  1616 net.cpp:177] Memory required for data: 1921530016
I0415 03:36:52.724889  1616 layer_factory.hpp:77] Creating layer ReLU14
I0415 03:36:52.724895  1616 net.cpp:112] Creating Layer ReLU14
I0415 03:36:52.724896  1616 net.cpp:446] ReLU14 <- ConvolutionDepthwise12
I0415 03:36:52.724900  1616 net.cpp:407] ReLU14 -> ConvolutionDepthwise12 (in-place)
I0415 03:36:52.725332  1616 net.cpp:162] Setting up ReLU14
I0415 03:36:52.725339  1616 net.cpp:169] Top shape: 8 48 38 38 (554496)
I0415 03:36:52.725343  1616 net.cpp:177] Memory required for data: 1923748000
I0415 03:36:52.725347  1616 layer_factory.hpp:77] Creating layer Concat10
I0415 03:36:52.725361  1616 net.cpp:112] Creating Layer Concat10
I0415 03:36:52.725365  1616 net.cpp:446] Concat10 <- Concat9_Concat9_0_split_1
I0415 03:36:52.725368  1616 net.cpp:446] Concat10 <- ConvolutionDepthwise12
I0415 03:36:52.725373  1616 net.cpp:420] Concat10 -> Concat10
I0415 03:36:52.725390  1616 net.cpp:162] Setting up Concat10
I0415 03:36:52.725394  1616 net.cpp:169] Top shape: 8 416 38 38 (4805632)
I0415 03:36:52.725397  1616 net.cpp:177] Memory required for data: 1942970528
I0415 03:36:52.725399  1616 layer_factory.hpp:77] Creating layer Convolution15
I0415 03:36:52.725406  1616 net.cpp:112] Creating Layer Convolution15
I0415 03:36:52.725409  1616 net.cpp:446] Convolution15 <- Concat10
I0415 03:36:52.725414  1616 net.cpp:420] Convolution15 -> Convolution15
I0415 03:36:52.726862  1616 net.cpp:162] Setting up Convolution15
I0415 03:36:52.726869  1616 net.cpp:169] Top shape: 8 128 38 38 (1478656)
I0415 03:36:52.726873  1616 net.cpp:177] Memory required for data: 1948885152
I0415 03:36:52.726877  1616 layer_factory.hpp:77] Creating layer BatchNorm25
I0415 03:36:52.726881  1616 net.cpp:112] Creating Layer BatchNorm25
I0415 03:36:52.726886  1616 net.cpp:446] BatchNorm25 <- Convolution15
I0415 03:36:52.726888  1616 net.cpp:420] BatchNorm25 -> BatchNorm25
I0415 03:36:52.727013  1616 net.cpp:162] Setting up BatchNorm25
I0415 03:36:52.727017  1616 net.cpp:169] Top shape: 8 128 38 38 (1478656)
I0415 03:36:52.727021  1616 net.cpp:177] Memory required for data: 1954799776
I0415 03:36:52.727025  1616 layer_factory.hpp:77] Creating layer Scale25
I0415 03:36:52.727030  1616 net.cpp:112] Creating Layer Scale25
I0415 03:36:52.727031  1616 net.cpp:446] Scale25 <- BatchNorm25
I0415 03:36:52.727035  1616 net.cpp:407] Scale25 -> BatchNorm25 (in-place)
I0415 03:36:52.727058  1616 layer_factory.hpp:77] Creating layer Scale25
I0415 03:36:52.727124  1616 net.cpp:162] Setting up Scale25
I0415 03:36:52.727128  1616 net.cpp:169] Top shape: 8 128 38 38 (1478656)
I0415 03:36:52.727130  1616 net.cpp:177] Memory required for data: 1960714400
I0415 03:36:52.727134  1616 layer_factory.hpp:77] Creating layer First
I0415 03:36:52.727138  1616 net.cpp:112] Creating Layer First
I0415 03:36:52.727140  1616 net.cpp:446] First <- BatchNorm25
I0415 03:36:52.727144  1616 net.cpp:420] First -> First
I0415 03:36:52.728363  1616 net.cpp:162] Setting up First
I0415 03:36:52.728371  1616 net.cpp:169] Top shape: 8 128 38 38 (1478656)
I0415 03:36:52.728376  1616 net.cpp:177] Memory required for data: 1966629024
I0415 03:36:52.728379  1616 layer_factory.hpp:77] Creating layer First_First_0_split
I0415 03:36:52.728386  1616 net.cpp:112] Creating Layer First_First_0_split
I0415 03:36:52.728390  1616 net.cpp:446] First_First_0_split <- First
I0415 03:36:52.728394  1616 net.cpp:420] First_First_0_split -> First_First_0_split_0
I0415 03:36:52.728400  1616 net.cpp:420] First_First_0_split -> First_First_0_split_1
I0415 03:36:52.728405  1616 net.cpp:420] First_First_0_split -> First_First_0_split_2
I0415 03:36:52.728408  1616 net.cpp:420] First_First_0_split -> First_First_0_split_3
I0415 03:36:52.728446  1616 net.cpp:162] Setting up First_First_0_split
I0415 03:36:52.728451  1616 net.cpp:169] Top shape: 8 128 38 38 (1478656)
I0415 03:36:52.728453  1616 net.cpp:169] Top shape: 8 128 38 38 (1478656)
I0415 03:36:52.728456  1616 net.cpp:169] Top shape: 8 128 38 38 (1478656)
I0415 03:36:52.728458  1616 net.cpp:169] Top shape: 8 128 38 38 (1478656)
I0415 03:36:52.728461  1616 net.cpp:177] Memory required for data: 1990287520
I0415 03:36:52.728464  1616 layer_factory.hpp:77] Creating layer Pooling3
I0415 03:36:52.728468  1616 net.cpp:112] Creating Layer Pooling3
I0415 03:36:52.728471  1616 net.cpp:446] Pooling3 <- First_First_0_split_0
I0415 03:36:52.728476  1616 net.cpp:420] Pooling3 -> Pooling3
I0415 03:36:52.728497  1616 net.cpp:162] Setting up Pooling3
I0415 03:36:52.728500  1616 net.cpp:169] Top shape: 8 128 19 19 (369664)
I0415 03:36:52.728503  1616 net.cpp:177] Memory required for data: 1991766176
I0415 03:36:52.728507  1616 layer_factory.hpp:77] Creating layer Convolution16
I0415 03:36:52.728523  1616 net.cpp:112] Creating Layer Convolution16
I0415 03:36:52.728528  1616 net.cpp:446] Convolution16 <- Pooling3
I0415 03:36:52.728531  1616 net.cpp:420] Convolution16 -> Convolution16
I0415 03:36:52.729809  1616 net.cpp:162] Setting up Convolution16
I0415 03:36:52.729816  1616 net.cpp:169] Top shape: 8 64 19 19 (184832)
I0415 03:36:52.729820  1616 net.cpp:177] Memory required for data: 1992505504
I0415 03:36:52.729825  1616 layer_factory.hpp:77] Creating layer BatchNorm26
I0415 03:36:52.729830  1616 net.cpp:112] Creating Layer BatchNorm26
I0415 03:36:52.729833  1616 net.cpp:446] BatchNorm26 <- Convolution16
I0415 03:36:52.729837  1616 net.cpp:420] BatchNorm26 -> BatchNorm26
I0415 03:36:52.729971  1616 net.cpp:162] Setting up BatchNorm26
I0415 03:36:52.729975  1616 net.cpp:169] Top shape: 8 64 19 19 (184832)
I0415 03:36:52.729979  1616 net.cpp:177] Memory required for data: 1993244832
I0415 03:36:52.729984  1616 layer_factory.hpp:77] Creating layer Scale26
I0415 03:36:52.729987  1616 net.cpp:112] Creating Layer Scale26
I0415 03:36:52.729990  1616 net.cpp:446] Scale26 <- BatchNorm26
I0415 03:36:52.729993  1616 net.cpp:407] Scale26 -> BatchNorm26 (in-place)
I0415 03:36:52.730020  1616 layer_factory.hpp:77] Creating layer Scale26
I0415 03:36:52.730089  1616 net.cpp:162] Setting up Scale26
I0415 03:36:52.730093  1616 net.cpp:169] Top shape: 8 64 19 19 (184832)
I0415 03:36:52.730096  1616 net.cpp:177] Memory required for data: 1993984160
I0415 03:36:52.730100  1616 layer_factory.hpp:77] Creating layer ReLU15
I0415 03:36:52.730105  1616 net.cpp:112] Creating Layer ReLU15
I0415 03:36:52.730108  1616 net.cpp:446] ReLU15 <- BatchNorm26
I0415 03:36:52.730111  1616 net.cpp:407] ReLU15 -> BatchNorm26 (in-place)
I0415 03:36:52.730515  1616 net.cpp:162] Setting up ReLU15
I0415 03:36:52.730521  1616 net.cpp:169] Top shape: 8 64 19 19 (184832)
I0415 03:36:52.730525  1616 net.cpp:177] Memory required for data: 1994723488
I0415 03:36:52.730528  1616 layer_factory.hpp:77] Creating layer Pooling4
I0415 03:36:52.730533  1616 net.cpp:112] Creating Layer Pooling4
I0415 03:36:52.730536  1616 net.cpp:446] Pooling4 <- First_First_0_split_1
I0415 03:36:52.730541  1616 net.cpp:420] Pooling4 -> Pooling4
I0415 03:36:52.730568  1616 net.cpp:162] Setting up Pooling4
I0415 03:36:52.730572  1616 net.cpp:169] Top shape: 8 128 19 19 (369664)
I0415 03:36:52.730576  1616 net.cpp:177] Memory required for data: 1996202144
I0415 03:36:52.730577  1616 layer_factory.hpp:77] Creating layer Pooling4_Pooling4_0_split
I0415 03:36:52.730581  1616 net.cpp:112] Creating Layer Pooling4_Pooling4_0_split
I0415 03:36:52.730583  1616 net.cpp:446] Pooling4_Pooling4_0_split <- Pooling4
I0415 03:36:52.730587  1616 net.cpp:420] Pooling4_Pooling4_0_split -> Pooling4_Pooling4_0_split_0
I0415 03:36:52.730592  1616 net.cpp:420] Pooling4_Pooling4_0_split -> Pooling4_Pooling4_0_split_1
I0415 03:36:52.730612  1616 net.cpp:162] Setting up Pooling4_Pooling4_0_split
I0415 03:36:52.730615  1616 net.cpp:169] Top shape: 8 128 19 19 (369664)
I0415 03:36:52.730619  1616 net.cpp:169] Top shape: 8 128 19 19 (369664)
I0415 03:36:52.730621  1616 net.cpp:177] Memory required for data: 1999159456
I0415 03:36:52.730624  1616 layer_factory.hpp:77] Creating layer Convolution17
I0415 03:36:52.730630  1616 net.cpp:112] Creating Layer Convolution17
I0415 03:36:52.730634  1616 net.cpp:446] Convolution17 <- Pooling4_Pooling4_0_split_0
I0415 03:36:52.730638  1616 net.cpp:420] Convolution17 -> Convolution17
I0415 03:36:52.731922  1616 net.cpp:162] Setting up Convolution17
I0415 03:36:52.731930  1616 net.cpp:169] Top shape: 8 64 19 19 (184832)
I0415 03:36:52.731943  1616 net.cpp:177] Memory required for data: 1999898784
I0415 03:36:52.731947  1616 layer_factory.hpp:77] Creating layer BatchNorm27
I0415 03:36:52.731951  1616 net.cpp:112] Creating Layer BatchNorm27
I0415 03:36:52.731954  1616 net.cpp:446] BatchNorm27 <- Convolution17
I0415 03:36:52.731958  1616 net.cpp:407] BatchNorm27 -> Convolution17 (in-place)
I0415 03:36:52.732110  1616 net.cpp:162] Setting up BatchNorm27
I0415 03:36:52.732123  1616 net.cpp:169] Top shape: 8 64 19 19 (184832)
I0415 03:36:52.732127  1616 net.cpp:177] Memory required for data: 2000638112
I0415 03:36:52.732132  1616 layer_factory.hpp:77] Creating layer Scale27
I0415 03:36:52.732147  1616 net.cpp:112] Creating Layer Scale27
I0415 03:36:52.732151  1616 net.cpp:446] Scale27 <- Convolution17
I0415 03:36:52.732153  1616 net.cpp:407] Scale27 -> Convolution17 (in-place)
I0415 03:36:52.732179  1616 layer_factory.hpp:77] Creating layer Scale27
I0415 03:36:52.732250  1616 net.cpp:162] Setting up Scale27
I0415 03:36:52.732254  1616 net.cpp:169] Top shape: 8 64 19 19 (184832)
I0415 03:36:52.732256  1616 net.cpp:177] Memory required for data: 2001377440
I0415 03:36:52.732260  1616 layer_factory.hpp:77] Creating layer ConvolutionDepthwise13
I0415 03:36:52.732266  1616 net.cpp:112] Creating Layer ConvolutionDepthwise13
I0415 03:36:52.732269  1616 net.cpp:446] ConvolutionDepthwise13 <- Convolution17
I0415 03:36:52.732273  1616 net.cpp:420] ConvolutionDepthwise13 -> ConvolutionDepthwise13
I0415 03:36:52.732336  1616 net.cpp:162] Setting up ConvolutionDepthwise13
I0415 03:36:52.732340  1616 net.cpp:169] Top shape: 8 64 19 19 (184832)
I0415 03:36:52.732343  1616 net.cpp:177] Memory required for data: 2002116768
I0415 03:36:52.732347  1616 layer_factory.hpp:77] Creating layer BatchNorm28
I0415 03:36:52.732354  1616 net.cpp:112] Creating Layer BatchNorm28
I0415 03:36:52.732358  1616 net.cpp:446] BatchNorm28 <- ConvolutionDepthwise13
I0415 03:36:52.732362  1616 net.cpp:407] BatchNorm28 -> ConvolutionDepthwise13 (in-place)
I0415 03:36:52.732479  1616 net.cpp:162] Setting up BatchNorm28
I0415 03:36:52.732482  1616 net.cpp:169] Top shape: 8 64 19 19 (184832)
I0415 03:36:52.732486  1616 net.cpp:177] Memory required for data: 2002856096
I0415 03:36:52.732491  1616 layer_factory.hpp:77] Creating layer Scale28
I0415 03:36:52.732494  1616 net.cpp:112] Creating Layer Scale28
I0415 03:36:52.732497  1616 net.cpp:446] Scale28 <- ConvolutionDepthwise13
I0415 03:36:52.732501  1616 net.cpp:407] Scale28 -> ConvolutionDepthwise13 (in-place)
I0415 03:36:52.732535  1616 layer_factory.hpp:77] Creating layer Scale28
I0415 03:36:52.732614  1616 net.cpp:162] Setting up Scale28
I0415 03:36:52.732619  1616 net.cpp:169] Top shape: 8 64 19 19 (184832)
I0415 03:36:52.732621  1616 net.cpp:177] Memory required for data: 2003595424
I0415 03:36:52.732625  1616 layer_factory.hpp:77] Creating layer ReLU16
I0415 03:36:52.732628  1616 net.cpp:112] Creating Layer ReLU16
I0415 03:36:52.732630  1616 net.cpp:446] ReLU16 <- ConvolutionDepthwise13
I0415 03:36:52.732633  1616 net.cpp:407] ReLU16 -> ConvolutionDepthwise13 (in-place)
I0415 03:36:52.733048  1616 net.cpp:162] Setting up ReLU16
I0415 03:36:52.733054  1616 net.cpp:169] Top shape: 8 64 19 19 (184832)
I0415 03:36:52.733059  1616 net.cpp:177] Memory required for data: 2004334752
I0415 03:36:52.733072  1616 layer_factory.hpp:77] Creating layer Concat11
I0415 03:36:52.733078  1616 net.cpp:112] Creating Layer Concat11
I0415 03:36:52.733081  1616 net.cpp:446] Concat11 <- Pooling4_Pooling4_0_split_1
I0415 03:36:52.733084  1616 net.cpp:446] Concat11 <- ConvolutionDepthwise13
I0415 03:36:52.733088  1616 net.cpp:420] Concat11 -> Concat11
I0415 03:36:52.733108  1616 net.cpp:162] Setting up Concat11
I0415 03:36:52.733110  1616 net.cpp:169] Top shape: 8 192 19 19 (554496)
I0415 03:36:52.733114  1616 net.cpp:177] Memory required for data: 2006552736
I0415 03:36:52.733115  1616 layer_factory.hpp:77] Creating layer Concat11_Concat11_0_split
I0415 03:36:52.733119  1616 net.cpp:112] Creating Layer Concat11_Concat11_0_split
I0415 03:36:52.733121  1616 net.cpp:446] Concat11_Concat11_0_split <- Concat11
I0415 03:36:52.733125  1616 net.cpp:420] Concat11_Concat11_0_split -> Concat11_Concat11_0_split_0
I0415 03:36:52.733130  1616 net.cpp:420] Concat11_Concat11_0_split -> Concat11_Concat11_0_split_1
I0415 03:36:52.733153  1616 net.cpp:162] Setting up Concat11_Concat11_0_split
I0415 03:36:52.733156  1616 net.cpp:169] Top shape: 8 192 19 19 (554496)
I0415 03:36:52.733160  1616 net.cpp:169] Top shape: 8 192 19 19 (554496)
I0415 03:36:52.733170  1616 net.cpp:177] Memory required for data: 2010988704
I0415 03:36:52.733173  1616 layer_factory.hpp:77] Creating layer Convolution18
I0415 03:36:52.733180  1616 net.cpp:112] Creating Layer Convolution18
I0415 03:36:52.733183  1616 net.cpp:446] Convolution18 <- Concat11_Concat11_0_split_0
I0415 03:36:52.733187  1616 net.cpp:420] Convolution18 -> Convolution18
I0415 03:36:52.735469  1616 net.cpp:162] Setting up Convolution18
I0415 03:36:52.735478  1616 net.cpp:169] Top shape: 8 64 19 19 (184832)
I0415 03:36:52.735482  1616 net.cpp:177] Memory required for data: 2011728032
I0415 03:36:52.735487  1616 layer_factory.hpp:77] Creating layer BatchNorm29
I0415 03:36:52.735492  1616 net.cpp:112] Creating Layer BatchNorm29
I0415 03:36:52.735496  1616 net.cpp:446] BatchNorm29 <- Convolution18
I0415 03:36:52.735500  1616 net.cpp:407] BatchNorm29 -> Convolution18 (in-place)
I0415 03:36:52.735639  1616 net.cpp:162] Setting up BatchNorm29
I0415 03:36:52.735643  1616 net.cpp:169] Top shape: 8 64 19 19 (184832)
I0415 03:36:52.735647  1616 net.cpp:177] Memory required for data: 2012467360
I0415 03:36:52.735652  1616 layer_factory.hpp:77] Creating layer Scale29
I0415 03:36:52.735657  1616 net.cpp:112] Creating Layer Scale29
I0415 03:36:52.735661  1616 net.cpp:446] Scale29 <- Convolution18
I0415 03:36:52.735664  1616 net.cpp:407] Scale29 -> Convolution18 (in-place)
I0415 03:36:52.735690  1616 layer_factory.hpp:77] Creating layer Scale29
I0415 03:36:52.735764  1616 net.cpp:162] Setting up Scale29
I0415 03:36:52.735767  1616 net.cpp:169] Top shape: 8 64 19 19 (184832)
I0415 03:36:52.735771  1616 net.cpp:177] Memory required for data: 2013206688
I0415 03:36:52.735774  1616 layer_factory.hpp:77] Creating layer ConvolutionDepthwise14
I0415 03:36:52.735780  1616 net.cpp:112] Creating Layer ConvolutionDepthwise14
I0415 03:36:52.735783  1616 net.cpp:446] ConvolutionDepthwise14 <- Convolution18
I0415 03:36:52.735787  1616 net.cpp:420] ConvolutionDepthwise14 -> ConvolutionDepthwise14
I0415 03:36:52.735858  1616 net.cpp:162] Setting up ConvolutionDepthwise14
I0415 03:36:52.735862  1616 net.cpp:169] Top shape: 8 64 19 19 (184832)
I0415 03:36:52.735865  1616 net.cpp:177] Memory required for data: 2013946016
I0415 03:36:52.735878  1616 layer_factory.hpp:77] Creating layer BatchNorm30
I0415 03:36:52.735882  1616 net.cpp:112] Creating Layer BatchNorm30
I0415 03:36:52.735883  1616 net.cpp:446] BatchNorm30 <- ConvolutionDepthwise14
I0415 03:36:52.735886  1616 net.cpp:407] BatchNorm30 -> ConvolutionDepthwise14 (in-place)
I0415 03:36:52.736016  1616 net.cpp:162] Setting up BatchNorm30
I0415 03:36:52.736019  1616 net.cpp:169] Top shape: 8 64 19 19 (184832)
I0415 03:36:52.736022  1616 net.cpp:177] Memory required for data: 2014685344
I0415 03:36:52.736037  1616 layer_factory.hpp:77] Creating layer Scale30
I0415 03:36:52.736040  1616 net.cpp:112] Creating Layer Scale30
I0415 03:36:52.736042  1616 net.cpp:446] Scale30 <- ConvolutionDepthwise14
I0415 03:36:52.736045  1616 net.cpp:407] Scale30 -> ConvolutionDepthwise14 (in-place)
I0415 03:36:52.736079  1616 layer_factory.hpp:77] Creating layer Scale30
I0415 03:36:52.736167  1616 net.cpp:162] Setting up Scale30
I0415 03:36:52.736171  1616 net.cpp:169] Top shape: 8 64 19 19 (184832)
I0415 03:36:52.736173  1616 net.cpp:177] Memory required for data: 2015424672
I0415 03:36:52.736186  1616 layer_factory.hpp:77] Creating layer ReLU17
I0415 03:36:52.736191  1616 net.cpp:112] Creating Layer ReLU17
I0415 03:36:52.736194  1616 net.cpp:446] ReLU17 <- ConvolutionDepthwise14
I0415 03:36:52.736196  1616 net.cpp:407] ReLU17 -> ConvolutionDepthwise14 (in-place)
I0415 03:36:52.736506  1616 net.cpp:162] Setting up ReLU17
I0415 03:36:52.736511  1616 net.cpp:169] Top shape: 8 64 19 19 (184832)
I0415 03:36:52.736515  1616 net.cpp:177] Memory required for data: 2016164000
I0415 03:36:52.736517  1616 layer_factory.hpp:77] Creating layer Concat12
I0415 03:36:52.736522  1616 net.cpp:112] Creating Layer Concat12
I0415 03:36:52.736526  1616 net.cpp:446] Concat12 <- Concat11_Concat11_0_split_1
I0415 03:36:52.736541  1616 net.cpp:446] Concat12 <- ConvolutionDepthwise14
I0415 03:36:52.736544  1616 net.cpp:420] Concat12 -> Concat12
I0415 03:36:52.736564  1616 net.cpp:162] Setting up Concat12
I0415 03:36:52.736577  1616 net.cpp:169] Top shape: 8 256 19 19 (739328)
I0415 03:36:52.736579  1616 net.cpp:177] Memory required for data: 2019121312
I0415 03:36:52.736582  1616 layer_factory.hpp:77] Creating layer Concat12_Concat12_0_split
I0415 03:36:52.736596  1616 net.cpp:112] Creating Layer Concat12_Concat12_0_split
I0415 03:36:52.736598  1616 net.cpp:446] Concat12_Concat12_0_split <- Concat12
I0415 03:36:52.736601  1616 net.cpp:420] Concat12_Concat12_0_split -> Concat12_Concat12_0_split_0
I0415 03:36:52.736605  1616 net.cpp:420] Concat12_Concat12_0_split -> Concat12_Concat12_0_split_1
I0415 03:36:52.736629  1616 net.cpp:162] Setting up Concat12_Concat12_0_split
I0415 03:36:52.736631  1616 net.cpp:169] Top shape: 8 256 19 19 (739328)
I0415 03:36:52.736634  1616 net.cpp:169] Top shape: 8 256 19 19 (739328)
I0415 03:36:52.736637  1616 net.cpp:177] Memory required for data: 2025035936
I0415 03:36:52.736639  1616 layer_factory.hpp:77] Creating layer Convolution19
I0415 03:36:52.736646  1616 net.cpp:112] Creating Layer Convolution19
I0415 03:36:52.736649  1616 net.cpp:446] Convolution19 <- Concat12_Concat12_0_split_0
I0415 03:36:52.736652  1616 net.cpp:420] Convolution19 -> Convolution19
I0415 03:36:52.738284  1616 net.cpp:162] Setting up Convolution19
I0415 03:36:52.738292  1616 net.cpp:169] Top shape: 8 64 19 19 (184832)
I0415 03:36:52.738296  1616 net.cpp:177] Memory required for data: 2025775264
I0415 03:36:52.738301  1616 layer_factory.hpp:77] Creating layer BatchNorm31
I0415 03:36:52.738304  1616 net.cpp:112] Creating Layer BatchNorm31
I0415 03:36:52.738307  1616 net.cpp:446] BatchNorm31 <- Convolution19
I0415 03:36:52.738312  1616 net.cpp:407] BatchNorm31 -> Convolution19 (in-place)
I0415 03:36:52.738437  1616 net.cpp:162] Setting up BatchNorm31
I0415 03:36:52.738441  1616 net.cpp:169] Top shape: 8 64 19 19 (184832)
I0415 03:36:52.738445  1616 net.cpp:177] Memory required for data: 2026514592
I0415 03:36:52.738448  1616 layer_factory.hpp:77] Creating layer Scale31
I0415 03:36:52.738454  1616 net.cpp:112] Creating Layer Scale31
I0415 03:36:52.738457  1616 net.cpp:446] Scale31 <- Convolution19
I0415 03:36:52.738461  1616 net.cpp:407] Scale31 -> Convolution19 (in-place)
I0415 03:36:52.738494  1616 layer_factory.hpp:77] Creating layer Scale31
I0415 03:36:52.738584  1616 net.cpp:162] Setting up Scale31
I0415 03:36:52.738587  1616 net.cpp:169] Top shape: 8 64 19 19 (184832)
I0415 03:36:52.738590  1616 net.cpp:177] Memory required for data: 2027253920
I0415 03:36:52.738593  1616 layer_factory.hpp:77] Creating layer ConvolutionDepthwise15
I0415 03:36:52.738612  1616 net.cpp:112] Creating Layer ConvolutionDepthwise15
I0415 03:36:52.738615  1616 net.cpp:446] ConvolutionDepthwise15 <- Convolution19
I0415 03:36:52.738620  1616 net.cpp:420] ConvolutionDepthwise15 -> ConvolutionDepthwise15
I0415 03:36:52.738698  1616 net.cpp:162] Setting up ConvolutionDepthwise15
I0415 03:36:52.738701  1616 net.cpp:169] Top shape: 8 64 19 19 (184832)
I0415 03:36:52.738703  1616 net.cpp:177] Memory required for data: 2027993248
I0415 03:36:52.738716  1616 layer_factory.hpp:77] Creating layer BatchNorm32
I0415 03:36:52.738720  1616 net.cpp:112] Creating Layer BatchNorm32
I0415 03:36:52.738723  1616 net.cpp:446] BatchNorm32 <- ConvolutionDepthwise15
I0415 03:36:52.738725  1616 net.cpp:407] BatchNorm32 -> ConvolutionDepthwise15 (in-place)
I0415 03:36:52.738869  1616 net.cpp:162] Setting up BatchNorm32
I0415 03:36:52.738873  1616 net.cpp:169] Top shape: 8 64 19 19 (184832)
I0415 03:36:52.738875  1616 net.cpp:177] Memory required for data: 2028732576
I0415 03:36:52.738890  1616 layer_factory.hpp:77] Creating layer Scale32
I0415 03:36:52.738894  1616 net.cpp:112] Creating Layer Scale32
I0415 03:36:52.738896  1616 net.cpp:446] Scale32 <- ConvolutionDepthwise15
I0415 03:36:52.738909  1616 net.cpp:407] Scale32 -> ConvolutionDepthwise15 (in-place)
I0415 03:36:52.738955  1616 layer_factory.hpp:77] Creating layer Scale32
I0415 03:36:52.739043  1616 net.cpp:162] Setting up Scale32
I0415 03:36:52.739048  1616 net.cpp:169] Top shape: 8 64 19 19 (184832)
I0415 03:36:52.739050  1616 net.cpp:177] Memory required for data: 2029471904
I0415 03:36:52.739053  1616 layer_factory.hpp:77] Creating layer ReLU18
I0415 03:36:52.739058  1616 net.cpp:112] Creating Layer ReLU18
I0415 03:36:52.739059  1616 net.cpp:446] ReLU18 <- ConvolutionDepthwise15
I0415 03:36:52.739063  1616 net.cpp:407] ReLU18 -> ConvolutionDepthwise15 (in-place)
I0415 03:36:52.739464  1616 net.cpp:162] Setting up ReLU18
I0415 03:36:52.739470  1616 net.cpp:169] Top shape: 8 64 19 19 (184832)
I0415 03:36:52.739475  1616 net.cpp:177] Memory required for data: 2030211232
I0415 03:36:52.739476  1616 layer_factory.hpp:77] Creating layer Concat13
I0415 03:36:52.739482  1616 net.cpp:112] Creating Layer Concat13
I0415 03:36:52.739486  1616 net.cpp:446] Concat13 <- Concat12_Concat12_0_split_1
I0415 03:36:52.739490  1616 net.cpp:446] Concat13 <- ConvolutionDepthwise15
I0415 03:36:52.739492  1616 net.cpp:420] Concat13 -> Concat13
I0415 03:36:52.739529  1616 net.cpp:162] Setting up Concat13
I0415 03:36:52.739532  1616 net.cpp:169] Top shape: 8 320 19 19 (924160)
I0415 03:36:52.739536  1616 net.cpp:177] Memory required for data: 2033907872
I0415 03:36:52.739547  1616 layer_factory.hpp:77] Creating layer Concat13_Concat13_0_split
I0415 03:36:52.739552  1616 net.cpp:112] Creating Layer Concat13_Concat13_0_split
I0415 03:36:52.739553  1616 net.cpp:446] Concat13_Concat13_0_split <- Concat13
I0415 03:36:52.739567  1616 net.cpp:420] Concat13_Concat13_0_split -> Concat13_Concat13_0_split_0
I0415 03:36:52.739573  1616 net.cpp:420] Concat13_Concat13_0_split -> Concat13_Concat13_0_split_1
I0415 03:36:52.739622  1616 net.cpp:162] Setting up Concat13_Concat13_0_split
I0415 03:36:52.739626  1616 net.cpp:169] Top shape: 8 320 19 19 (924160)
I0415 03:36:52.739629  1616 net.cpp:169] Top shape: 8 320 19 19 (924160)
I0415 03:36:52.739632  1616 net.cpp:177] Memory required for data: 2041301152
I0415 03:36:52.739634  1616 layer_factory.hpp:77] Creating layer Convolution20
I0415 03:36:52.739639  1616 net.cpp:112] Creating Layer Convolution20
I0415 03:36:52.739642  1616 net.cpp:446] Convolution20 <- Concat13_Concat13_0_split_0
I0415 03:36:52.739647  1616 net.cpp:420] Convolution20 -> Convolution20
I0415 03:36:52.740932  1616 net.cpp:162] Setting up Convolution20
I0415 03:36:52.740941  1616 net.cpp:169] Top shape: 8 64 19 19 (184832)
I0415 03:36:52.740944  1616 net.cpp:177] Memory required for data: 2042040480
I0415 03:36:52.740948  1616 layer_factory.hpp:77] Creating layer BatchNorm33
I0415 03:36:52.740953  1616 net.cpp:112] Creating Layer BatchNorm33
I0415 03:36:52.740957  1616 net.cpp:446] BatchNorm33 <- Convolution20
I0415 03:36:52.740969  1616 net.cpp:407] BatchNorm33 -> Convolution20 (in-place)
I0415 03:36:52.741103  1616 net.cpp:162] Setting up BatchNorm33
I0415 03:36:52.741107  1616 net.cpp:169] Top shape: 8 64 19 19 (184832)
I0415 03:36:52.741111  1616 net.cpp:177] Memory required for data: 2042779808
I0415 03:36:52.741124  1616 layer_factory.hpp:77] Creating layer Scale33
I0415 03:36:52.741129  1616 net.cpp:112] Creating Layer Scale33
I0415 03:36:52.741132  1616 net.cpp:446] Scale33 <- Convolution20
I0415 03:36:52.741135  1616 net.cpp:407] Scale33 -> Convolution20 (in-place)
I0415 03:36:52.741180  1616 layer_factory.hpp:77] Creating layer Scale33
I0415 03:36:52.741258  1616 net.cpp:162] Setting up Scale33
I0415 03:36:52.741262  1616 net.cpp:169] Top shape: 8 64 19 19 (184832)
I0415 03:36:52.741266  1616 net.cpp:177] Memory required for data: 2043519136
I0415 03:36:52.741268  1616 layer_factory.hpp:77] Creating layer ConvolutionDepthwise16
I0415 03:36:52.741274  1616 net.cpp:112] Creating Layer ConvolutionDepthwise16
I0415 03:36:52.741277  1616 net.cpp:446] ConvolutionDepthwise16 <- Convolution20
I0415 03:36:52.741281  1616 net.cpp:420] ConvolutionDepthwise16 -> ConvolutionDepthwise16
I0415 03:36:52.741338  1616 net.cpp:162] Setting up ConvolutionDepthwise16
I0415 03:36:52.741351  1616 net.cpp:169] Top shape: 8 64 19 19 (184832)
I0415 03:36:52.741354  1616 net.cpp:177] Memory required for data: 2044258464
I0415 03:36:52.741358  1616 layer_factory.hpp:77] Creating layer BatchNorm34
I0415 03:36:52.741361  1616 net.cpp:112] Creating Layer BatchNorm34
I0415 03:36:52.741364  1616 net.cpp:446] BatchNorm34 <- ConvolutionDepthwise16
I0415 03:36:52.741367  1616 net.cpp:407] BatchNorm34 -> ConvolutionDepthwise16 (in-place)
I0415 03:36:52.741494  1616 net.cpp:162] Setting up BatchNorm34
I0415 03:36:52.741497  1616 net.cpp:169] Top shape: 8 64 19 19 (184832)
I0415 03:36:52.741500  1616 net.cpp:177] Memory required for data: 2044997792
I0415 03:36:52.741514  1616 layer_factory.hpp:77] Creating layer Scale34
I0415 03:36:52.741518  1616 net.cpp:112] Creating Layer Scale34
I0415 03:36:52.741521  1616 net.cpp:446] Scale34 <- ConvolutionDepthwise16
I0415 03:36:52.741524  1616 net.cpp:407] Scale34 -> ConvolutionDepthwise16 (in-place)
I0415 03:36:52.741567  1616 layer_factory.hpp:77] Creating layer Scale34
I0415 03:36:52.741683  1616 net.cpp:162] Setting up Scale34
I0415 03:36:52.741686  1616 net.cpp:169] Top shape: 8 64 19 19 (184832)
I0415 03:36:52.741689  1616 net.cpp:177] Memory required for data: 2045737120
I0415 03:36:52.741703  1616 layer_factory.hpp:77] Creating layer ReLU19
I0415 03:36:52.741706  1616 net.cpp:112] Creating Layer ReLU19
I0415 03:36:52.741709  1616 net.cpp:446] ReLU19 <- ConvolutionDepthwise16
I0415 03:36:52.741713  1616 net.cpp:407] ReLU19 -> ConvolutionDepthwise16 (in-place)
I0415 03:36:52.742910  1616 net.cpp:162] Setting up ReLU19
I0415 03:36:52.742918  1616 net.cpp:169] Top shape: 8 64 19 19 (184832)
I0415 03:36:52.742923  1616 net.cpp:177] Memory required for data: 2046476448
I0415 03:36:52.742934  1616 layer_factory.hpp:77] Creating layer Concat14
I0415 03:36:52.742943  1616 net.cpp:112] Creating Layer Concat14
I0415 03:36:52.742945  1616 net.cpp:446] Concat14 <- Concat13_Concat13_0_split_1
I0415 03:36:52.742949  1616 net.cpp:446] Concat14 <- ConvolutionDepthwise16
I0415 03:36:52.742954  1616 net.cpp:420] Concat14 -> Concat14
I0415 03:36:52.742990  1616 net.cpp:162] Setting up Concat14
I0415 03:36:52.742993  1616 net.cpp:169] Top shape: 8 384 19 19 (1108992)
I0415 03:36:52.742996  1616 net.cpp:177] Memory required for data: 2050912416
I0415 03:36:52.743010  1616 layer_factory.hpp:77] Creating layer Concat14_Concat14_0_split
I0415 03:36:52.743012  1616 net.cpp:112] Creating Layer Concat14_Concat14_0_split
I0415 03:36:52.743014  1616 net.cpp:446] Concat14_Concat14_0_split <- Concat14
I0415 03:36:52.743019  1616 net.cpp:420] Concat14_Concat14_0_split -> Concat14_Concat14_0_split_0
I0415 03:36:52.743033  1616 net.cpp:420] Concat14_Concat14_0_split -> Concat14_Concat14_0_split_1
I0415 03:36:52.743065  1616 net.cpp:162] Setting up Concat14_Concat14_0_split
I0415 03:36:52.743068  1616 net.cpp:169] Top shape: 8 384 19 19 (1108992)
I0415 03:36:52.743072  1616 net.cpp:169] Top shape: 8 384 19 19 (1108992)
I0415 03:36:52.743083  1616 net.cpp:177] Memory required for data: 2059784352
I0415 03:36:52.743085  1616 layer_factory.hpp:77] Creating layer Convolution21
I0415 03:36:52.743091  1616 net.cpp:112] Creating Layer Convolution21
I0415 03:36:52.743103  1616 net.cpp:446] Convolution21 <- Concat14_Concat14_0_split_0
I0415 03:36:52.743106  1616 net.cpp:420] Convolution21 -> Convolution21
I0415 03:36:52.744426  1616 net.cpp:162] Setting up Convolution21
I0415 03:36:52.744433  1616 net.cpp:169] Top shape: 8 64 19 19 (184832)
I0415 03:36:52.744437  1616 net.cpp:177] Memory required for data: 2060523680
I0415 03:36:52.744451  1616 layer_factory.hpp:77] Creating layer BatchNorm35
I0415 03:36:52.744457  1616 net.cpp:112] Creating Layer BatchNorm35
I0415 03:36:52.744470  1616 net.cpp:446] BatchNorm35 <- Convolution21
I0415 03:36:52.744474  1616 net.cpp:407] BatchNorm35 -> Convolution21 (in-place)
I0415 03:36:52.744612  1616 net.cpp:162] Setting up BatchNorm35
I0415 03:36:52.744616  1616 net.cpp:169] Top shape: 8 64 19 19 (184832)
I0415 03:36:52.744618  1616 net.cpp:177] Memory required for data: 2061263008
I0415 03:36:52.744655  1616 layer_factory.hpp:77] Creating layer Scale35
I0415 03:36:52.744659  1616 net.cpp:112] Creating Layer Scale35
I0415 03:36:52.744673  1616 net.cpp:446] Scale35 <- Convolution21
I0415 03:36:52.744676  1616 net.cpp:407] Scale35 -> Convolution21 (in-place)
I0415 03:36:52.744735  1616 layer_factory.hpp:77] Creating layer Scale35
I0415 03:36:52.744814  1616 net.cpp:162] Setting up Scale35
I0415 03:36:52.744817  1616 net.cpp:169] Top shape: 8 64 19 19 (184832)
I0415 03:36:52.744822  1616 net.cpp:177] Memory required for data: 2062002336
I0415 03:36:52.744824  1616 layer_factory.hpp:77] Creating layer ConvolutionDepthwise17
I0415 03:36:52.744843  1616 net.cpp:112] Creating Layer ConvolutionDepthwise17
I0415 03:36:52.744845  1616 net.cpp:446] ConvolutionDepthwise17 <- Convolution21
I0415 03:36:52.744849  1616 net.cpp:420] ConvolutionDepthwise17 -> ConvolutionDepthwise17
I0415 03:36:52.744941  1616 net.cpp:162] Setting up ConvolutionDepthwise17
I0415 03:36:52.744944  1616 net.cpp:169] Top shape: 8 64 19 19 (184832)
I0415 03:36:52.744948  1616 net.cpp:177] Memory required for data: 2062741664
I0415 03:36:52.744961  1616 layer_factory.hpp:77] Creating layer BatchNorm36
I0415 03:36:52.744964  1616 net.cpp:112] Creating Layer BatchNorm36
I0415 03:36:52.744966  1616 net.cpp:446] BatchNorm36 <- ConvolutionDepthwise17
I0415 03:36:52.744969  1616 net.cpp:407] BatchNorm36 -> ConvolutionDepthwise17 (in-place)
I0415 03:36:52.745110  1616 net.cpp:162] Setting up BatchNorm36
I0415 03:36:52.745112  1616 net.cpp:169] Top shape: 8 64 19 19 (184832)
I0415 03:36:52.745115  1616 net.cpp:177] Memory required for data: 2063480992
I0415 03:36:52.745121  1616 layer_factory.hpp:77] Creating layer Scale36
I0415 03:36:52.745123  1616 net.cpp:112] Creating Layer Scale36
I0415 03:36:52.745126  1616 net.cpp:446] Scale36 <- ConvolutionDepthwise17
I0415 03:36:52.745129  1616 net.cpp:407] Scale36 -> ConvolutionDepthwise17 (in-place)
I0415 03:36:52.745164  1616 layer_factory.hpp:77] Creating layer Scale36
I0415 03:36:52.745282  1616 net.cpp:162] Setting up Scale36
I0415 03:36:52.745285  1616 net.cpp:169] Top shape: 8 64 19 19 (184832)
I0415 03:36:52.745288  1616 net.cpp:177] Memory required for data: 2064220320
I0415 03:36:52.745301  1616 layer_factory.hpp:77] Creating layer ReLU20
I0415 03:36:52.745306  1616 net.cpp:112] Creating Layer ReLU20
I0415 03:36:52.745308  1616 net.cpp:446] ReLU20 <- ConvolutionDepthwise17
I0415 03:36:52.745311  1616 net.cpp:407] ReLU20 -> ConvolutionDepthwise17 (in-place)
I0415 03:36:52.745728  1616 net.cpp:162] Setting up ReLU20
I0415 03:36:52.745733  1616 net.cpp:169] Top shape: 8 64 19 19 (184832)
I0415 03:36:52.745738  1616 net.cpp:177] Memory required for data: 2064959648
I0415 03:36:52.745741  1616 layer_factory.hpp:77] Creating layer Concat15
I0415 03:36:52.745746  1616 net.cpp:112] Creating Layer Concat15
I0415 03:36:52.745759  1616 net.cpp:446] Concat15 <- Concat14_Concat14_0_split_1
I0415 03:36:52.745764  1616 net.cpp:446] Concat15 <- ConvolutionDepthwise17
I0415 03:36:52.745766  1616 net.cpp:420] Concat15 -> Concat15
I0415 03:36:52.745785  1616 net.cpp:162] Setting up Concat15
I0415 03:36:52.745797  1616 net.cpp:169] Top shape: 8 448 19 19 (1293824)
I0415 03:36:52.745800  1616 net.cpp:177] Memory required for data: 2070134944
I0415 03:36:52.745803  1616 layer_factory.hpp:77] Creating layer Concat15_Concat15_0_split
I0415 03:36:52.745816  1616 net.cpp:112] Creating Layer Concat15_Concat15_0_split
I0415 03:36:52.745820  1616 net.cpp:446] Concat15_Concat15_0_split <- Concat15
I0415 03:36:52.745822  1616 net.cpp:420] Concat15_Concat15_0_split -> Concat15_Concat15_0_split_0
I0415 03:36:52.745826  1616 net.cpp:420] Concat15_Concat15_0_split -> Concat15_Concat15_0_split_1
I0415 03:36:52.745867  1616 net.cpp:162] Setting up Concat15_Concat15_0_split
I0415 03:36:52.745870  1616 net.cpp:169] Top shape: 8 448 19 19 (1293824)
I0415 03:36:52.745874  1616 net.cpp:169] Top shape: 8 448 19 19 (1293824)
I0415 03:36:52.745887  1616 net.cpp:177] Memory required for data: 2080485536
I0415 03:36:52.745908  1616 layer_factory.hpp:77] Creating layer Convolution22
I0415 03:36:52.745926  1616 net.cpp:112] Creating Layer Convolution22
I0415 03:36:52.745929  1616 net.cpp:446] Convolution22 <- Concat15_Concat15_0_split_0
I0415 03:36:52.745942  1616 net.cpp:420] Convolution22 -> Convolution22
I0415 03:36:52.747297  1616 net.cpp:162] Setting up Convolution22
I0415 03:36:52.747304  1616 net.cpp:169] Top shape: 8 64 19 19 (184832)
I0415 03:36:52.747309  1616 net.cpp:177] Memory required for data: 2081224864
I0415 03:36:52.747313  1616 layer_factory.hpp:77] Creating layer BatchNorm37
I0415 03:36:52.747318  1616 net.cpp:112] Creating Layer BatchNorm37
I0415 03:36:52.747320  1616 net.cpp:446] BatchNorm37 <- Convolution22
I0415 03:36:52.747324  1616 net.cpp:407] BatchNorm37 -> Convolution22 (in-place)
I0415 03:36:52.747458  1616 net.cpp:162] Setting up BatchNorm37
I0415 03:36:52.747462  1616 net.cpp:169] Top shape: 8 64 19 19 (184832)
I0415 03:36:52.747465  1616 net.cpp:177] Memory required for data: 2081964192
I0415 03:36:52.747479  1616 layer_factory.hpp:77] Creating layer Scale37
I0415 03:36:52.747484  1616 net.cpp:112] Creating Layer Scale37
I0415 03:36:52.747486  1616 net.cpp:446] Scale37 <- Convolution22
I0415 03:36:52.747489  1616 net.cpp:407] Scale37 -> Convolution22 (in-place)
I0415 03:36:52.747524  1616 layer_factory.hpp:77] Creating layer Scale37
I0415 03:36:52.747624  1616 net.cpp:162] Setting up Scale37
I0415 03:36:52.747629  1616 net.cpp:169] Top shape: 8 64 19 19 (184832)
I0415 03:36:52.747632  1616 net.cpp:177] Memory required for data: 2082703520
I0415 03:36:52.747637  1616 layer_factory.hpp:77] Creating layer ConvolutionDepthwise18
I0415 03:36:52.747650  1616 net.cpp:112] Creating Layer ConvolutionDepthwise18
I0415 03:36:52.747653  1616 net.cpp:446] ConvolutionDepthwise18 <- Convolution22
I0415 03:36:52.747659  1616 net.cpp:420] ConvolutionDepthwise18 -> ConvolutionDepthwise18
I0415 03:36:52.747740  1616 net.cpp:162] Setting up ConvolutionDepthwise18
I0415 03:36:52.747743  1616 net.cpp:169] Top shape: 8 64 19 19 (184832)
I0415 03:36:52.747746  1616 net.cpp:177] Memory required for data: 2083442848
I0415 03:36:52.747759  1616 layer_factory.hpp:77] Creating layer BatchNorm38
I0415 03:36:52.747763  1616 net.cpp:112] Creating Layer BatchNorm38
I0415 03:36:52.747766  1616 net.cpp:446] BatchNorm38 <- ConvolutionDepthwise18
I0415 03:36:52.747769  1616 net.cpp:407] BatchNorm38 -> ConvolutionDepthwise18 (in-place)
I0415 03:36:52.747915  1616 net.cpp:162] Setting up BatchNorm38
I0415 03:36:52.747917  1616 net.cpp:169] Top shape: 8 64 19 19 (184832)
I0415 03:36:52.747920  1616 net.cpp:177] Memory required for data: 2084182176
I0415 03:36:52.747936  1616 layer_factory.hpp:77] Creating layer Scale38
I0415 03:36:52.747938  1616 net.cpp:112] Creating Layer Scale38
I0415 03:36:52.747941  1616 net.cpp:446] Scale38 <- ConvolutionDepthwise18
I0415 03:36:52.747944  1616 net.cpp:407] Scale38 -> ConvolutionDepthwise18 (in-place)
I0415 03:36:52.747987  1616 layer_factory.hpp:77] Creating layer Scale38
I0415 03:36:52.748107  1616 net.cpp:162] Setting up Scale38
I0415 03:36:52.748111  1616 net.cpp:169] Top shape: 8 64 19 19 (184832)
I0415 03:36:52.748113  1616 net.cpp:177] Memory required for data: 2084921504
I0415 03:36:52.748116  1616 layer_factory.hpp:77] Creating layer ReLU21
I0415 03:36:52.748119  1616 net.cpp:112] Creating Layer ReLU21
I0415 03:36:52.748122  1616 net.cpp:446] ReLU21 <- ConvolutionDepthwise18
I0415 03:36:52.748124  1616 net.cpp:407] ReLU21 -> ConvolutionDepthwise18 (in-place)
I0415 03:36:52.748554  1616 net.cpp:162] Setting up ReLU21
I0415 03:36:52.748561  1616 net.cpp:169] Top shape: 8 64 19 19 (184832)
I0415 03:36:52.748564  1616 net.cpp:177] Memory required for data: 2085660832
I0415 03:36:52.748567  1616 layer_factory.hpp:77] Creating layer Concat16
I0415 03:36:52.748572  1616 net.cpp:112] Creating Layer Concat16
I0415 03:36:52.748574  1616 net.cpp:446] Concat16 <- Concat15_Concat15_0_split_1
I0415 03:36:52.748579  1616 net.cpp:446] Concat16 <- ConvolutionDepthwise18
I0415 03:36:52.748581  1616 net.cpp:420] Concat16 -> Concat16
I0415 03:36:52.748644  1616 net.cpp:162] Setting up Concat16
I0415 03:36:52.748648  1616 net.cpp:169] Top shape: 8 512 19 19 (1478656)
I0415 03:36:52.748664  1616 net.cpp:177] Memory required for data: 2091575456
I0415 03:36:52.748667  1616 layer_factory.hpp:77] Creating layer Convolution23
I0415 03:36:52.748672  1616 net.cpp:112] Creating Layer Convolution23
I0415 03:36:52.748674  1616 net.cpp:446] Convolution23 <- Concat16
I0415 03:36:52.748678  1616 net.cpp:420] Convolution23 -> Convolution23
I0415 03:36:52.751972  1616 net.cpp:162] Setting up Convolution23
I0415 03:36:52.751981  1616 net.cpp:169] Top shape: 8 256 19 19 (739328)
I0415 03:36:52.751986  1616 net.cpp:177] Memory required for data: 2094532768
I0415 03:36:52.751989  1616 layer_factory.hpp:77] Creating layer BatchNorm39
I0415 03:36:52.752004  1616 net.cpp:112] Creating Layer BatchNorm39
I0415 03:36:52.752007  1616 net.cpp:446] BatchNorm39 <- Convolution23
I0415 03:36:52.752012  1616 net.cpp:420] BatchNorm39 -> BatchNorm39
I0415 03:36:52.752161  1616 net.cpp:162] Setting up BatchNorm39
I0415 03:36:52.752163  1616 net.cpp:169] Top shape: 8 256 19 19 (739328)
I0415 03:36:52.752177  1616 net.cpp:177] Memory required for data: 2097490080
I0415 03:36:52.752182  1616 layer_factory.hpp:77] Creating layer Scale39
I0415 03:36:52.752187  1616 net.cpp:112] Creating Layer Scale39
I0415 03:36:52.752188  1616 net.cpp:446] Scale39 <- BatchNorm39
I0415 03:36:52.752202  1616 net.cpp:407] Scale39 -> BatchNorm39 (in-place)
I0415 03:36:52.752236  1616 layer_factory.hpp:77] Creating layer Scale39
I0415 03:36:52.752351  1616 net.cpp:162] Setting up Scale39
I0415 03:36:52.752353  1616 net.cpp:169] Top shape: 8 256 19 19 (739328)
I0415 03:36:52.752357  1616 net.cpp:177] Memory required for data: 2100447392
I0415 03:36:52.752370  1616 layer_factory.hpp:77] Creating layer ReLU22
I0415 03:36:52.752373  1616 net.cpp:112] Creating Layer ReLU22
I0415 03:36:52.752375  1616 net.cpp:446] ReLU22 <- BatchNorm39
I0415 03:36:52.752380  1616 net.cpp:420] ReLU22 -> ReLU22
I0415 03:36:52.752717  1616 net.cpp:162] Setting up ReLU22
I0415 03:36:52.752723  1616 net.cpp:169] Top shape: 8 256 19 19 (739328)
I0415 03:36:52.752737  1616 net.cpp:177] Memory required for data: 2103404704
I0415 03:36:52.752739  1616 layer_factory.hpp:77] Creating layer ReLU22_ReLU22_0_split
I0415 03:36:52.752745  1616 net.cpp:112] Creating Layer ReLU22_ReLU22_0_split
I0415 03:36:52.752748  1616 net.cpp:446] ReLU22_ReLU22_0_split <- ReLU22
I0415 03:36:52.752761  1616 net.cpp:420] ReLU22_ReLU22_0_split -> ReLU22_ReLU22_0_split_0
I0415 03:36:52.752766  1616 net.cpp:420] ReLU22_ReLU22_0_split -> ReLU22_ReLU22_0_split_1
I0415 03:36:52.752801  1616 net.cpp:162] Setting up ReLU22_ReLU22_0_split
I0415 03:36:52.752804  1616 net.cpp:169] Top shape: 8 256 19 19 (739328)
I0415 03:36:52.752816  1616 net.cpp:169] Top shape: 8 256 19 19 (739328)
I0415 03:36:52.752818  1616 net.cpp:177] Memory required for data: 2109319328
I0415 03:36:52.752820  1616 layer_factory.hpp:77] Creating layer Convolution24
I0415 03:36:52.752836  1616 net.cpp:112] Creating Layer Convolution24
I0415 03:36:52.752840  1616 net.cpp:446] Convolution24 <- ReLU22_ReLU22_0_split_0
I0415 03:36:52.752843  1616 net.cpp:420] Convolution24 -> Convolution24
I0415 03:36:52.754243  1616 net.cpp:162] Setting up Convolution24
I0415 03:36:52.754251  1616 net.cpp:169] Top shape: 8 80 19 19 (231040)
I0415 03:36:52.754264  1616 net.cpp:177] Memory required for data: 2110243488
I0415 03:36:52.754268  1616 layer_factory.hpp:77] Creating layer BatchNorm40
I0415 03:36:52.754273  1616 net.cpp:112] Creating Layer BatchNorm40
I0415 03:36:52.754276  1616 net.cpp:446] BatchNorm40 <- Convolution24
I0415 03:36:52.754289  1616 net.cpp:407] BatchNorm40 -> Convolution24 (in-place)
I0415 03:36:52.754441  1616 net.cpp:162] Setting up BatchNorm40
I0415 03:36:52.754444  1616 net.cpp:169] Top shape: 8 80 19 19 (231040)
I0415 03:36:52.754447  1616 net.cpp:177] Memory required for data: 2111167648
I0415 03:36:52.754462  1616 layer_factory.hpp:77] Creating layer Scale40
I0415 03:36:52.754485  1616 net.cpp:112] Creating Layer Scale40
I0415 03:36:52.754488  1616 net.cpp:446] Scale40 <- Convolution24
I0415 03:36:52.754492  1616 net.cpp:407] Scale40 -> Convolution24 (in-place)
I0415 03:36:52.754529  1616 layer_factory.hpp:77] Creating layer Scale40
I0415 03:36:52.754650  1616 net.cpp:162] Setting up Scale40
I0415 03:36:52.754653  1616 net.cpp:169] Top shape: 8 80 19 19 (231040)
I0415 03:36:52.754657  1616 net.cpp:177] Memory required for data: 2112091808
I0415 03:36:52.754670  1616 layer_factory.hpp:77] Creating layer ConvolutionDepthwise19
I0415 03:36:52.754675  1616 net.cpp:112] Creating Layer ConvolutionDepthwise19
I0415 03:36:52.754678  1616 net.cpp:446] ConvolutionDepthwise19 <- Convolution24
I0415 03:36:52.754693  1616 net.cpp:420] ConvolutionDepthwise19 -> ConvolutionDepthwise19
I0415 03:36:52.754755  1616 net.cpp:162] Setting up ConvolutionDepthwise19
I0415 03:36:52.754758  1616 net.cpp:169] Top shape: 8 80 19 19 (231040)
I0415 03:36:52.754761  1616 net.cpp:177] Memory required for data: 2113015968
I0415 03:36:52.754765  1616 layer_factory.hpp:77] Creating layer BatchNorm41
I0415 03:36:52.754767  1616 net.cpp:112] Creating Layer BatchNorm41
I0415 03:36:52.754770  1616 net.cpp:446] BatchNorm41 <- ConvolutionDepthwise19
I0415 03:36:52.754773  1616 net.cpp:407] BatchNorm41 -> ConvolutionDepthwise19 (in-place)
I0415 03:36:52.754904  1616 net.cpp:162] Setting up BatchNorm41
I0415 03:36:52.754907  1616 net.cpp:169] Top shape: 8 80 19 19 (231040)
I0415 03:36:52.754910  1616 net.cpp:177] Memory required for data: 2113940128
I0415 03:36:52.754925  1616 layer_factory.hpp:77] Creating layer Scale41
I0415 03:36:52.754930  1616 net.cpp:112] Creating Layer Scale41
I0415 03:36:52.754932  1616 net.cpp:446] Scale41 <- ConvolutionDepthwise19
I0415 03:36:52.754935  1616 net.cpp:407] Scale41 -> ConvolutionDepthwise19 (in-place)
I0415 03:36:52.754972  1616 layer_factory.hpp:77] Creating layer Scale41
I0415 03:36:52.755105  1616 net.cpp:162] Setting up Scale41
I0415 03:36:52.755107  1616 net.cpp:169] Top shape: 8 80 19 19 (231040)
I0415 03:36:52.755110  1616 net.cpp:177] Memory required for data: 2114864288
I0415 03:36:52.755125  1616 layer_factory.hpp:77] Creating layer ReLU23
I0415 03:36:52.755127  1616 net.cpp:112] Creating Layer ReLU23
I0415 03:36:52.755129  1616 net.cpp:446] ReLU23 <- ConvolutionDepthwise19
I0415 03:36:52.755133  1616 net.cpp:407] ReLU23 -> ConvolutionDepthwise19 (in-place)
I0415 03:36:52.755453  1616 net.cpp:162] Setting up ReLU23
I0415 03:36:52.755458  1616 net.cpp:169] Top shape: 8 80 19 19 (231040)
I0415 03:36:52.755462  1616 net.cpp:177] Memory required for data: 2115788448
I0415 03:36:52.755465  1616 layer_factory.hpp:77] Creating layer Concat17
I0415 03:36:52.755470  1616 net.cpp:112] Creating Layer Concat17
I0415 03:36:52.755475  1616 net.cpp:446] Concat17 <- ReLU22_ReLU22_0_split_1
I0415 03:36:52.755477  1616 net.cpp:446] Concat17 <- ConvolutionDepthwise19
I0415 03:36:52.755481  1616 net.cpp:420] Concat17 -> Concat17
I0415 03:36:52.755509  1616 net.cpp:162] Setting up Concat17
I0415 03:36:52.755513  1616 net.cpp:169] Top shape: 8 336 19 19 (970368)
I0415 03:36:52.755517  1616 net.cpp:177] Memory required for data: 2119669920
I0415 03:36:52.755528  1616 layer_factory.hpp:77] Creating layer Concat17_Concat17_0_split
I0415 03:36:52.755532  1616 net.cpp:112] Creating Layer Concat17_Concat17_0_split
I0415 03:36:52.755534  1616 net.cpp:446] Concat17_Concat17_0_split <- Concat17
I0415 03:36:52.755537  1616 net.cpp:420] Concat17_Concat17_0_split -> Concat17_Concat17_0_split_0
I0415 03:36:52.755542  1616 net.cpp:420] Concat17_Concat17_0_split -> Concat17_Concat17_0_split_1
I0415 03:36:52.755564  1616 net.cpp:162] Setting up Concat17_Concat17_0_split
I0415 03:36:52.755568  1616 net.cpp:169] Top shape: 8 336 19 19 (970368)
I0415 03:36:52.755570  1616 net.cpp:169] Top shape: 8 336 19 19 (970368)
I0415 03:36:52.755573  1616 net.cpp:177] Memory required for data: 2127432864
I0415 03:36:52.755575  1616 layer_factory.hpp:77] Creating layer Convolution25
I0415 03:36:52.755581  1616 net.cpp:112] Creating Layer Convolution25
I0415 03:36:52.755592  1616 net.cpp:446] Convolution25 <- Concat17_Concat17_0_split_0
I0415 03:36:52.755597  1616 net.cpp:420] Convolution25 -> Convolution25
I0415 03:36:52.757045  1616 net.cpp:162] Setting up Convolution25
I0415 03:36:52.757052  1616 net.cpp:169] Top shape: 8 80 19 19 (231040)
I0415 03:36:52.757057  1616 net.cpp:177] Memory required for data: 2128357024
I0415 03:36:52.757071  1616 layer_factory.hpp:77] Creating layer BatchNorm42
I0415 03:36:52.757076  1616 net.cpp:112] Creating Layer BatchNorm42
I0415 03:36:52.757079  1616 net.cpp:446] BatchNorm42 <- Convolution25
I0415 03:36:52.757082  1616 net.cpp:407] BatchNorm42 -> Convolution25 (in-place)
I0415 03:36:52.757222  1616 net.cpp:162] Setting up BatchNorm42
I0415 03:36:52.757225  1616 net.cpp:169] Top shape: 8 80 19 19 (231040)
I0415 03:36:52.757230  1616 net.cpp:177] Memory required for data: 2129281184
I0415 03:36:52.757242  1616 layer_factory.hpp:77] Creating layer Scale42
I0415 03:36:52.757247  1616 net.cpp:112] Creating Layer Scale42
I0415 03:36:52.757251  1616 net.cpp:446] Scale42 <- Convolution25
I0415 03:36:52.757253  1616 net.cpp:407] Scale42 -> Convolution25 (in-place)
I0415 03:36:52.757282  1616 layer_factory.hpp:77] Creating layer Scale42
I0415 03:36:52.757356  1616 net.cpp:162] Setting up Scale42
I0415 03:36:52.757360  1616 net.cpp:169] Top shape: 8 80 19 19 (231040)
I0415 03:36:52.757364  1616 net.cpp:177] Memory required for data: 2130205344
I0415 03:36:52.757367  1616 layer_factory.hpp:77] Creating layer ConvolutionDepthwise20
I0415 03:36:52.757374  1616 net.cpp:112] Creating Layer ConvolutionDepthwise20
I0415 03:36:52.757377  1616 net.cpp:446] ConvolutionDepthwise20 <- Convolution25
I0415 03:36:52.757381  1616 net.cpp:420] ConvolutionDepthwise20 -> ConvolutionDepthwise20
I0415 03:36:52.757452  1616 net.cpp:162] Setting up ConvolutionDepthwise20
I0415 03:36:52.757457  1616 net.cpp:169] Top shape: 8 80 19 19 (231040)
I0415 03:36:52.757459  1616 net.cpp:177] Memory required for data: 2131129504
I0415 03:36:52.757472  1616 layer_factory.hpp:77] Creating layer BatchNorm43
I0415 03:36:52.757477  1616 net.cpp:112] Creating Layer BatchNorm43
I0415 03:36:52.757478  1616 net.cpp:446] BatchNorm43 <- ConvolutionDepthwise20
I0415 03:36:52.757483  1616 net.cpp:407] BatchNorm43 -> ConvolutionDepthwise20 (in-place)
I0415 03:36:52.757617  1616 net.cpp:162] Setting up BatchNorm43
I0415 03:36:52.757622  1616 net.cpp:169] Top shape: 8 80 19 19 (231040)
I0415 03:36:52.757624  1616 net.cpp:177] Memory required for data: 2132053664
I0415 03:36:52.757647  1616 layer_factory.hpp:77] Creating layer Scale43
I0415 03:36:52.757655  1616 net.cpp:112] Creating Layer Scale43
I0415 03:36:52.757658  1616 net.cpp:446] Scale43 <- ConvolutionDepthwise20
I0415 03:36:52.757661  1616 net.cpp:407] Scale43 -> ConvolutionDepthwise20 (in-place)
I0415 03:36:52.757696  1616 layer_factory.hpp:77] Creating layer Scale43
I0415 03:36:52.757791  1616 net.cpp:162] Setting up Scale43
I0415 03:36:52.757793  1616 net.cpp:169] Top shape: 8 80 19 19 (231040)
I0415 03:36:52.757797  1616 net.cpp:177] Memory required for data: 2132977824
I0415 03:36:52.757810  1616 layer_factory.hpp:77] Creating layer ReLU24
I0415 03:36:52.757813  1616 net.cpp:112] Creating Layer ReLU24
I0415 03:36:52.757817  1616 net.cpp:446] ReLU24 <- ConvolutionDepthwise20
I0415 03:36:52.757819  1616 net.cpp:407] ReLU24 -> ConvolutionDepthwise20 (in-place)
I0415 03:36:52.759019  1616 net.cpp:162] Setting up ReLU24
I0415 03:36:52.759027  1616 net.cpp:169] Top shape: 8 80 19 19 (231040)
I0415 03:36:52.759032  1616 net.cpp:177] Memory required for data: 2133901984
I0415 03:36:52.759035  1616 layer_factory.hpp:77] Creating layer Concat18
I0415 03:36:52.759042  1616 net.cpp:112] Creating Layer Concat18
I0415 03:36:52.759047  1616 net.cpp:446] Concat18 <- Concat17_Concat17_0_split_1
I0415 03:36:52.759050  1616 net.cpp:446] Concat18 <- ConvolutionDepthwise20
I0415 03:36:52.759053  1616 net.cpp:420] Concat18 -> Concat18
I0415 03:36:52.759073  1616 net.cpp:162] Setting up Concat18
I0415 03:36:52.759086  1616 net.cpp:169] Top shape: 8 416 19 19 (1201408)
I0415 03:36:52.759109  1616 net.cpp:177] Memory required for data: 2138707616
I0415 03:36:52.759111  1616 layer_factory.hpp:77] Creating layer Concat18_Concat18_0_split
I0415 03:36:52.759116  1616 net.cpp:112] Creating Layer Concat18_Concat18_0_split
I0415 03:36:52.759119  1616 net.cpp:446] Concat18_Concat18_0_split <- Concat18
I0415 03:36:52.759122  1616 net.cpp:420] Concat18_Concat18_0_split -> Concat18_Concat18_0_split_0
I0415 03:36:52.759127  1616 net.cpp:420] Concat18_Concat18_0_split -> Concat18_Concat18_0_split_1
I0415 03:36:52.759153  1616 net.cpp:162] Setting up Concat18_Concat18_0_split
I0415 03:36:52.759156  1616 net.cpp:169] Top shape: 8 416 19 19 (1201408)
I0415 03:36:52.759160  1616 net.cpp:169] Top shape: 8 416 19 19 (1201408)
I0415 03:36:52.759162  1616 net.cpp:177] Memory required for data: 2148318880
I0415 03:36:52.759165  1616 layer_factory.hpp:77] Creating layer Convolution26
I0415 03:36:52.759171  1616 net.cpp:112] Creating Layer Convolution26
I0415 03:36:52.759173  1616 net.cpp:446] Convolution26 <- Concat18_Concat18_0_split_0
I0415 03:36:52.759178  1616 net.cpp:420] Convolution26 -> Convolution26
I0415 03:36:52.760577  1616 net.cpp:162] Setting up Convolution26
I0415 03:36:52.760586  1616 net.cpp:169] Top shape: 8 80 19 19 (231040)
I0415 03:36:52.760589  1616 net.cpp:177] Memory required for data: 2149243040
I0415 03:36:52.760593  1616 layer_factory.hpp:77] Creating layer BatchNorm44
I0415 03:36:52.760598  1616 net.cpp:112] Creating Layer BatchNorm44
I0415 03:36:52.760602  1616 net.cpp:446] BatchNorm44 <- Convolution26
I0415 03:36:52.760605  1616 net.cpp:407] BatchNorm44 -> Convolution26 (in-place)
I0415 03:36:52.760741  1616 net.cpp:162] Setting up BatchNorm44
I0415 03:36:52.760746  1616 net.cpp:169] Top shape: 8 80 19 19 (231040)
I0415 03:36:52.760748  1616 net.cpp:177] Memory required for data: 2150167200
I0415 03:36:52.760753  1616 layer_factory.hpp:77] Creating layer Scale44
I0415 03:36:52.760757  1616 net.cpp:112] Creating Layer Scale44
I0415 03:36:52.760761  1616 net.cpp:446] Scale44 <- Convolution26
I0415 03:36:52.760764  1616 net.cpp:407] Scale44 -> Convolution26 (in-place)
I0415 03:36:52.760789  1616 layer_factory.hpp:77] Creating layer Scale44
I0415 03:36:52.760867  1616 net.cpp:162] Setting up Scale44
I0415 03:36:52.760870  1616 net.cpp:169] Top shape: 8 80 19 19 (231040)
I0415 03:36:52.760874  1616 net.cpp:177] Memory required for data: 2151091360
I0415 03:36:52.760877  1616 layer_factory.hpp:77] Creating layer ConvolutionDepthwise21
I0415 03:36:52.760884  1616 net.cpp:112] Creating Layer ConvolutionDepthwise21
I0415 03:36:52.760886  1616 net.cpp:446] ConvolutionDepthwise21 <- Convolution26
I0415 03:36:52.760890  1616 net.cpp:420] ConvolutionDepthwise21 -> ConvolutionDepthwise21
I0415 03:36:52.760965  1616 net.cpp:162] Setting up ConvolutionDepthwise21
I0415 03:36:52.760968  1616 net.cpp:169] Top shape: 8 80 19 19 (231040)
I0415 03:36:52.760972  1616 net.cpp:177] Memory required for data: 2152015520
I0415 03:36:52.760985  1616 layer_factory.hpp:77] Creating layer BatchNorm45
I0415 03:36:52.760989  1616 net.cpp:112] Creating Layer BatchNorm45
I0415 03:36:52.760991  1616 net.cpp:446] BatchNorm45 <- ConvolutionDepthwise21
I0415 03:36:52.760994  1616 net.cpp:407] BatchNorm45 -> ConvolutionDepthwise21 (in-place)
I0415 03:36:52.761133  1616 net.cpp:162] Setting up BatchNorm45
I0415 03:36:52.761137  1616 net.cpp:169] Top shape: 8 80 19 19 (231040)
I0415 03:36:52.761139  1616 net.cpp:177] Memory required for data: 2152939680
I0415 03:36:52.761154  1616 layer_factory.hpp:77] Creating layer Scale45
I0415 03:36:52.761158  1616 net.cpp:112] Creating Layer Scale45
I0415 03:36:52.761160  1616 net.cpp:446] Scale45 <- ConvolutionDepthwise21
I0415 03:36:52.761164  1616 net.cpp:407] Scale45 -> ConvolutionDepthwise21 (in-place)
I0415 03:36:52.761198  1616 layer_factory.hpp:77] Creating layer Scale45
I0415 03:36:52.761292  1616 net.cpp:162] Setting up Scale45
I0415 03:36:52.761296  1616 net.cpp:169] Top shape: 8 80 19 19 (231040)
I0415 03:36:52.761298  1616 net.cpp:177] Memory required for data: 2153863840
I0415 03:36:52.761322  1616 layer_factory.hpp:77] Creating layer ReLU25
I0415 03:36:52.761327  1616 net.cpp:112] Creating Layer ReLU25
I0415 03:36:52.761330  1616 net.cpp:446] ReLU25 <- ConvolutionDepthwise21
I0415 03:36:52.761333  1616 net.cpp:407] ReLU25 -> ConvolutionDepthwise21 (in-place)
I0415 03:36:52.761742  1616 net.cpp:162] Setting up ReLU25
I0415 03:36:52.761749  1616 net.cpp:169] Top shape: 8 80 19 19 (231040)
I0415 03:36:52.761754  1616 net.cpp:177] Memory required for data: 2154788000
I0415 03:36:52.761755  1616 layer_factory.hpp:77] Creating layer Concat19
I0415 03:36:52.761762  1616 net.cpp:112] Creating Layer Concat19
I0415 03:36:52.761765  1616 net.cpp:446] Concat19 <- Concat18_Concat18_0_split_1
I0415 03:36:52.761770  1616 net.cpp:446] Concat19 <- ConvolutionDepthwise21
I0415 03:36:52.761773  1616 net.cpp:420] Concat19 -> Concat19
I0415 03:36:52.761802  1616 net.cpp:162] Setting up Concat19
I0415 03:36:52.761806  1616 net.cpp:169] Top shape: 8 496 19 19 (1432448)
I0415 03:36:52.761808  1616 net.cpp:177] Memory required for data: 2160517792
I0415 03:36:52.761821  1616 layer_factory.hpp:77] Creating layer Concat19_Concat19_0_split
I0415 03:36:52.761826  1616 net.cpp:112] Creating Layer Concat19_Concat19_0_split
I0415 03:36:52.761827  1616 net.cpp:446] Concat19_Concat19_0_split <- Concat19
I0415 03:36:52.761831  1616 net.cpp:420] Concat19_Concat19_0_split -> Concat19_Concat19_0_split_0
I0415 03:36:52.761837  1616 net.cpp:420] Concat19_Concat19_0_split -> Concat19_Concat19_0_split_1
I0415 03:36:52.761859  1616 net.cpp:162] Setting up Concat19_Concat19_0_split
I0415 03:36:52.761862  1616 net.cpp:169] Top shape: 8 496 19 19 (1432448)
I0415 03:36:52.761865  1616 net.cpp:169] Top shape: 8 496 19 19 (1432448)
I0415 03:36:52.761868  1616 net.cpp:177] Memory required for data: 2171977376
I0415 03:36:52.761870  1616 layer_factory.hpp:77] Creating layer Convolution27
I0415 03:36:52.761878  1616 net.cpp:112] Creating Layer Convolution27
I0415 03:36:52.761880  1616 net.cpp:446] Convolution27 <- Concat19_Concat19_0_split_0
I0415 03:36:52.761884  1616 net.cpp:420] Convolution27 -> Convolution27
I0415 03:36:52.763300  1616 net.cpp:162] Setting up Convolution27
I0415 03:36:52.763308  1616 net.cpp:169] Top shape: 8 80 19 19 (231040)
I0415 03:36:52.763312  1616 net.cpp:177] Memory required for data: 2172901536
I0415 03:36:52.763316  1616 layer_factory.hpp:77] Creating layer BatchNorm46
I0415 03:36:52.763320  1616 net.cpp:112] Creating Layer BatchNorm46
I0415 03:36:52.763324  1616 net.cpp:446] BatchNorm46 <- Convolution27
I0415 03:36:52.763329  1616 net.cpp:407] BatchNorm46 -> Convolution27 (in-place)
I0415 03:36:52.763463  1616 net.cpp:162] Setting up BatchNorm46
I0415 03:36:52.763468  1616 net.cpp:169] Top shape: 8 80 19 19 (231040)
I0415 03:36:52.763470  1616 net.cpp:177] Memory required for data: 2173825696
I0415 03:36:52.763475  1616 layer_factory.hpp:77] Creating layer Scale46
I0415 03:36:52.763480  1616 net.cpp:112] Creating Layer Scale46
I0415 03:36:52.763484  1616 net.cpp:446] Scale46 <- Convolution27
I0415 03:36:52.763486  1616 net.cpp:407] Scale46 -> Convolution27 (in-place)
I0415 03:36:52.763512  1616 layer_factory.hpp:77] Creating layer Scale46
I0415 03:36:52.763589  1616 net.cpp:162] Setting up Scale46
I0415 03:36:52.763593  1616 net.cpp:169] Top shape: 8 80 19 19 (231040)
I0415 03:36:52.763597  1616 net.cpp:177] Memory required for data: 2174749856
I0415 03:36:52.763602  1616 layer_factory.hpp:77] Creating layer ConvolutionDepthwise22
I0415 03:36:52.763610  1616 net.cpp:112] Creating Layer ConvolutionDepthwise22
I0415 03:36:52.763613  1616 net.cpp:446] ConvolutionDepthwise22 <- Convolution27
I0415 03:36:52.763618  1616 net.cpp:420] ConvolutionDepthwise22 -> ConvolutionDepthwise22
I0415 03:36:52.763691  1616 net.cpp:162] Setting up ConvolutionDepthwise22
I0415 03:36:52.763695  1616 net.cpp:169] Top shape: 8 80 19 19 (231040)
I0415 03:36:52.763698  1616 net.cpp:177] Memory required for data: 2175674016
I0415 03:36:52.763711  1616 layer_factory.hpp:77] Creating layer BatchNorm47
I0415 03:36:52.763725  1616 net.cpp:112] Creating Layer BatchNorm47
I0415 03:36:52.763727  1616 net.cpp:446] BatchNorm47 <- ConvolutionDepthwise22
I0415 03:36:52.763731  1616 net.cpp:407] BatchNorm47 -> ConvolutionDepthwise22 (in-place)
I0415 03:36:52.763860  1616 net.cpp:162] Setting up BatchNorm47
I0415 03:36:52.763864  1616 net.cpp:169] Top shape: 8 80 19 19 (231040)
I0415 03:36:52.763867  1616 net.cpp:177] Memory required for data: 2176598176
I0415 03:36:52.763871  1616 layer_factory.hpp:77] Creating layer Scale47
I0415 03:36:52.763876  1616 net.cpp:112] Creating Layer Scale47
I0415 03:36:52.763880  1616 net.cpp:446] Scale47 <- ConvolutionDepthwise22
I0415 03:36:52.763883  1616 net.cpp:407] Scale47 -> ConvolutionDepthwise22 (in-place)
I0415 03:36:52.763916  1616 layer_factory.hpp:77] Creating layer Scale47
I0415 03:36:52.764004  1616 net.cpp:162] Setting up Scale47
I0415 03:36:52.764008  1616 net.cpp:169] Top shape: 8 80 19 19 (231040)
I0415 03:36:52.764010  1616 net.cpp:177] Memory required for data: 2177522336
I0415 03:36:52.764014  1616 layer_factory.hpp:77] Creating layer ReLU26
I0415 03:36:52.764017  1616 net.cpp:112] Creating Layer ReLU26
I0415 03:36:52.764020  1616 net.cpp:446] ReLU26 <- ConvolutionDepthwise22
I0415 03:36:52.764024  1616 net.cpp:407] ReLU26 -> ConvolutionDepthwise22 (in-place)
I0415 03:36:52.764518  1616 net.cpp:162] Setting up ReLU26
I0415 03:36:52.764524  1616 net.cpp:169] Top shape: 8 80 19 19 (231040)
I0415 03:36:52.764528  1616 net.cpp:177] Memory required for data: 2178446496
I0415 03:36:52.764530  1616 layer_factory.hpp:77] Creating layer Concat20
I0415 03:36:52.764536  1616 net.cpp:112] Creating Layer Concat20
I0415 03:36:52.764540  1616 net.cpp:446] Concat20 <- Concat19_Concat19_0_split_1
I0415 03:36:52.764544  1616 net.cpp:446] Concat20 <- ConvolutionDepthwise22
I0415 03:36:52.764547  1616 net.cpp:420] Concat20 -> Concat20
I0415 03:36:52.764577  1616 net.cpp:162] Setting up Concat20
I0415 03:36:52.764580  1616 net.cpp:169] Top shape: 8 576 19 19 (1663488)
I0415 03:36:52.764583  1616 net.cpp:177] Memory required for data: 2185100448
I0415 03:36:52.764596  1616 layer_factory.hpp:77] Creating layer Concat20_Concat20_0_split
I0415 03:36:52.764600  1616 net.cpp:112] Creating Layer Concat20_Concat20_0_split
I0415 03:36:52.764602  1616 net.cpp:446] Concat20_Concat20_0_split <- Concat20
I0415 03:36:52.764605  1616 net.cpp:420] Concat20_Concat20_0_split -> Concat20_Concat20_0_split_0
…
I0415 03:36:53.081630  1616 layer_factory.hpp:77] Creating layer Second_out_norm_mbox_loc_sb_flat
I0415 03:36:53.081634  1616 net.cpp:112] Creating Layer Second_out_norm_mbox_loc_sb_flat
I0415 03:36:53.081637  1616 net.cpp:446] Second_out_norm_mbox_loc_sb_flat <- Second_out_norm_mbox_loc_sb_perm
I0415 03:36:53.081640  1616 net.cpp:420] Second_out_norm_mbox_loc_sb_flat -> Second_out_norm_mbox_loc_sb_flat
I0415 03:36:53.081655  1616 net.cpp:162] Setting up Second_out_norm_mbox_loc_sb_flat
I0415 03:36:53.081658  1616 net.cpp:169] Top shape: 2 8664 (17328)
I0415 03:36:53.081661  1616 net.cpp:177] Memory required for data: 590216768
I0415 03:36:53.081663  1616 layer_factory.hpp:77] Creating layer Second_out_norm_mbox_conf_1x1_conv
I0415 03:36:53.081670  1616 net.cpp:112] Creating Layer Second_out_norm_mbox_conf_1x1_conv
I0415 03:36:53.081672  1616 net.cpp:446] Second_out_norm_mbox_conf_1x1_conv <- Second_out_norm_Second_out_norm_0_split_1
I0415 03:36:53.081677  1616 net.cpp:420] Second_out_norm_mbox_conf_1x1_conv -> Second_out_norm_mbox_conf_1x1_conv
I0415 03:36:53.083075  1616 net.cpp:162] Setting up Second_out_norm_mbox_conf_1x1_conv
I0415 03:36:53.083082  1616 net.cpp:169] Top shape: 2 126 19 19 (90972)
I0415 03:36:53.083086  1616 net.cpp:177] Memory required for data: 590580656
I0415 03:36:53.083091  1616 layer_factory.hpp:77] Creating layer Second_out_norm_mbox_conf_dw_conv
I0415 03:36:53.083097  1616 net.cpp:112] Creating Layer Second_out_norm_mbox_conf_dw_conv
I0415 03:36:53.083101  1616 net.cpp:446] Second_out_norm_mbox_conf_dw_conv <- Second_out_norm_mbox_conf_1x1_conv
I0415 03:36:53.083106  1616 net.cpp:420] Second_out_norm_mbox_conf_dw_conv -> Second_out_norm_mbox_conf_dw_conv
I0415 03:36:53.083178  1616 net.cpp:162] Setting up Second_out_norm_mbox_conf_dw_conv
I0415 03:36:53.083181  1616 net.cpp:169] Top shape: 2 126 19 19 (90972)
I0415 03:36:53.083184  1616 net.cpp:177] Memory required for data: 590944544
I0415 03:36:53.083187  1616 layer_factory.hpp:77] Creating layer Second_out_norm_mbox_conf_bn
I0415 03:36:53.083192  1616 net.cpp:112] Creating Layer Second_out_norm_mbox_conf_bn
I0415 03:36:53.083195  1616 net.cpp:446] Second_out_norm_mbox_conf_bn <- Second_out_norm_mbox_conf_dw_conv
I0415 03:36:53.083199  1616 net.cpp:407] Second_out_norm_mbox_conf_bn -> Second_out_norm_mbox_conf_dw_conv (in-place)
I0415 03:36:53.083343  1616 net.cpp:162] Setting up Second_out_norm_mbox_conf_bn
I0415 03:36:53.083348  1616 net.cpp:169] Top shape: 2 126 19 19 (90972)
I0415 03:36:53.083350  1616 net.cpp:177] Memory required for data: 591308432
I0415 03:36:53.083364  1616 layer_factory.hpp:77] Creating layer Second_out_norm_mbox_conf_sb
I0415 03:36:53.083371  1616 net.cpp:112] Creating Layer Second_out_norm_mbox_conf_sb
I0415 03:36:53.083374  1616 net.cpp:446] Second_out_norm_mbox_conf_sb <- Second_out_norm_mbox_conf_dw_conv
I0415 03:36:53.083377  1616 net.cpp:407] Second_out_norm_mbox_conf_sb -> Second_out_norm_mbox_conf_dw_conv (in-place)
I0415 03:36:53.083415  1616 layer_factory.hpp:77] Creating layer Second_out_norm_mbox_conf_sb
I0415 03:36:53.083516  1616 net.cpp:162] Setting up Second_out_norm_mbox_conf_sb
I0415 03:36:53.083519  1616 net.cpp:169] Top shape: 2 126 19 19 (90972)
I0415 03:36:53.083523  1616 net.cpp:177] Memory required for data: 591672320
I0415 03:36:53.083526  1616 layer_factory.hpp:77] Creating layer Second_out_norm_mbox_conf_sb_perm
I0415 03:36:53.083531  1616 net.cpp:112] Creating Layer Second_out_norm_mbox_conf_sb_perm
I0415 03:36:53.083534  1616 net.cpp:446] Second_out_norm_mbox_conf_sb_perm <- Second_out_norm_mbox_conf_dw_conv
I0415 03:36:53.083556  1616 net.cpp:420] Second_out_norm_mbox_conf_sb_perm -> Second_out_norm_mbox_conf_sb_perm
I0415 03:36:53.083636  1616 net.cpp:162] Setting up Second_out_norm_mbox_conf_sb_perm
I0415 03:36:53.083642  1616 net.cpp:169] Top shape: 2 19 19 126 (90972)
I0415 03:36:53.083644  1616 net.cpp:177] Memory required for data: 592036208
I0415 03:36:53.083647  1616 layer_factory.hpp:77] Creating layer Second_out_norm_mbox_conf_sb_flat
I0415 03:36:53.083660  1616 net.cpp:112] Creating Layer Second_out_norm_mbox_conf_sb_flat
I0415 03:36:53.083664  1616 net.cpp:446] Second_out_norm_mbox_conf_sb_flat <- Second_out_norm_mbox_conf_sb_perm
I0415 03:36:53.083667  1616 net.cpp:420] Second_out_norm_mbox_conf_sb_flat -> Second_out_norm_mbox_conf_sb_flat
I0415 03:36:53.083684  1616 net.cpp:162] Setting up Second_out_norm_mbox_conf_sb_flat
I0415 03:36:53.083698  1616 net.cpp:169] Top shape: 2 45486 (90972)
I0415 03:36:53.083700  1616 net.cpp:177] Memory required for data: 592400096
I0415 03:36:53.083703  1616 layer_factory.hpp:77] Creating layer Second_out_norm_mbox_priorbox
I0415 03:36:53.083708  1616 net.cpp:112] Creating Layer Second_out_norm_mbox_priorbox
I0415 03:36:53.083709  1616 net.cpp:446] Second_out_norm_mbox_priorbox <- Second_out_norm_Second_out_norm_0_split_2
I0415 03:36:53.083712  1616 net.cpp:446] Second_out_norm_mbox_priorbox <- data_data_0_split_2
I0415 03:36:53.083716  1616 net.cpp:420] Second_out_norm_mbox_priorbox -> Second_out_norm_mbox_priorbox
I0415 03:36:53.083742  1616 net.cpp:162] Setting up Second_out_norm_mbox_priorbox
I0415 03:36:53.083745  1616 net.cpp:169] Top shape: 1 2 8664 (17328)
I0415 03:36:53.083748  1616 net.cpp:177] Memory required for data: 592469408
I0415 03:36:53.083760  1616 layer_factory.hpp:77] Creating layer Third_out_norm
I0415 03:36:53.083765  1616 net.cpp:112] Creating Layer Third_out_norm
I0415 03:36:53.083768  1616 net.cpp:446] Third_out_norm <- Eltwise3_Third_out_0_split_1
I0415 03:36:53.083771  1616 net.cpp:420] Third_out_norm -> Third_out_norm
I0415 03:36:53.083887  1616 net.cpp:162] Setting up Third_out_norm
I0415 03:36:53.083891  1616 net.cpp:169] Top shape: 2 128 10 10 (25600)
I0415 03:36:53.083894  1616 net.cpp:177] Memory required for data: 592571808
I0415 03:36:53.083907  1616 layer_factory.hpp:77] Creating layer Third_out_norm_Third_out_norm_0_split
I0415 03:36:53.083911  1616 net.cpp:112] Creating Layer Third_out_norm_Third_out_norm_0_split
I0415 03:36:53.083915  1616 net.cpp:446] Third_out_norm_Third_out_norm_0_split <- Third_out_norm
I0415 03:36:53.083920  1616 net.cpp:420] Third_out_norm_Third_out_norm_0_split -> Third_out_norm_Third_out_norm_0_split_0
I0415 03:36:53.083923  1616 net.cpp:420] Third_out_norm_Third_out_norm_0_split -> Third_out_norm_Third_out_norm_0_split_1
I0415 03:36:53.083928  1616 net.cpp:420] Third_out_norm_Third_out_norm_0_split -> Third_out_norm_Third_out_norm_0_split_2
I0415 03:36:53.083967  1616 net.cpp:162] Setting up Third_out_norm_Third_out_norm_0_split
I0415 03:36:53.083971  1616 net.cpp:169] Top shape: 2 128 10 10 (25600)
I0415 03:36:53.083974  1616 net.cpp:169] Top shape: 2 128 10 10 (25600)
I0415 03:36:53.083976  1616 net.cpp:169] Top shape: 2 128 10 10 (25600)
I0415 03:36:53.083979  1616 net.cpp:177] Memory required for data: 592879008
I0415 03:36:53.083981  1616 layer_factory.hpp:77] Creating layer Third_out_norm_mbox_loc_1x1_conv
I0415 03:36:53.083998  1616 net.cpp:112] Creating Layer Third_out_norm_mbox_loc_1x1_conv
I0415 03:36:53.084002  1616 net.cpp:446] Third_out_norm_mbox_loc_1x1_conv <- Third_out_norm_Third_out_norm_0_split_0
I0415 03:36:53.084005  1616 net.cpp:420] Third_out_norm_mbox_loc_1x1_conv -> Third_out_norm_mbox_loc_1x1_conv
I0415 03:36:53.086519  1616 net.cpp:162] Setting up Third_out_norm_mbox_loc_1x1_conv
I0415 03:36:53.086526  1616 net.cpp:169] Top shape: 2 24 10 10 (4800)
I0415 03:36:53.086531  1616 net.cpp:177] Memory required for data: 592898208
I0415 03:36:53.086535  1616 layer_factory.hpp:77] Creating layer Third_out_norm_mbox_loc_dw_conv
I0415 03:36:53.086544  1616 net.cpp:112] Creating Layer Third_out_norm_mbox_loc_dw_conv
I0415 03:36:53.086566  1616 net.cpp:446] Third_out_norm_mbox_loc_dw_conv <- Third_out_norm_mbox_loc_1x1_conv
I0415 03:36:53.086571  1616 net.cpp:420] Third_out_norm_mbox_loc_dw_conv -> Third_out_norm_mbox_loc_dw_conv
I0415 03:36:53.086645  1616 net.cpp:162] Setting up Third_out_norm_mbox_loc_dw_conv
I0415 03:36:53.086649  1616 net.cpp:169] Top shape: 2 24 10 10 (4800)
I0415 03:36:53.086652  1616 net.cpp:177] Memory required for data: 592917408
I0415 03:36:53.086655  1616 layer_factory.hpp:77] Creating layer Third_out_norm_mbox_loc_bn
I0415 03:36:53.086660  1616 net.cpp:112] Creating Layer Third_out_norm_mbox_loc_bn
I0415 03:36:53.086673  1616 net.cpp:446] Third_out_norm_mbox_loc_bn <- Third_out_norm_mbox_loc_dw_conv
I0415 03:36:53.086678  1616 net.cpp:407] Third_out_norm_mbox_loc_bn -> Third_out_norm_mbox_loc_dw_conv (in-place)
I0415 03:36:53.086820  1616 net.cpp:162] Setting up Third_out_norm_mbox_loc_bn
I0415 03:36:53.086824  1616 net.cpp:169] Top shape: 2 24 10 10 (4800)
I0415 03:36:53.086827  1616 net.cpp:177] Memory required for data: 592936608
I0415 03:36:53.086832  1616 layer_factory.hpp:77] Creating layer Third_out_norm_mbox_loc_sb
I0415 03:36:53.086838  1616 net.cpp:112] Creating Layer Third_out_norm_mbox_loc_sb
I0415 03:36:53.086850  1616 net.cpp:446] Third_out_norm_mbox_loc_sb <- Third_out_norm_mbox_loc_dw_conv
I0415 03:36:53.086853  1616 net.cpp:407] Third_out_norm_mbox_loc_sb -> Third_out_norm_mbox_loc_dw_conv (in-place)
I0415 03:36:53.086910  1616 layer_factory.hpp:77] Creating layer Third_out_norm_mbox_loc_sb
I0415 03:36:53.087011  1616 net.cpp:162] Setting up Third_out_norm_mbox_loc_sb
I0415 03:36:53.087014  1616 net.cpp:169] Top shape: 2 24 10 10 (4800)
I0415 03:36:53.087018  1616 net.cpp:177] Memory required for data: 592955808
I0415 03:36:53.087021  1616 layer_factory.hpp:77] Creating layer Third_out_norm_mbox_loc_sb_perm
I0415 03:36:53.087025  1616 net.cpp:112] Creating Layer Third_out_norm_mbox_loc_sb_perm
I0415 03:36:53.087028  1616 net.cpp:446] Third_out_norm_mbox_loc_sb_perm <- Third_out_norm_mbox_loc_dw_conv
I0415 03:36:53.087031  1616 net.cpp:420] Third_out_norm_mbox_loc_sb_perm -> Third_out_norm_mbox_loc_sb_perm
I0415 03:36:53.087102  1616 net.cpp:162] Setting up Third_out_norm_mbox_loc_sb_perm
I0415 03:36:53.087105  1616 net.cpp:169] Top shape: 2 10 10 24 (4800)
I0415 03:36:53.087108  1616 net.cpp:177] Memory required for data: 592975008
I0415 03:36:53.087110  1616 layer_factory.hpp:77] Creating layer Third_out_norm_mbox_loc_sb_flat
I0415 03:36:53.087114  1616 net.cpp:112] Creating Layer Third_out_norm_mbox_loc_sb_flat
I0415 03:36:53.087118  1616 net.cpp:446] Third_out_norm_mbox_loc_sb_flat <- Third_out_norm_mbox_loc_sb_perm
I0415 03:36:53.087121  1616 net.cpp:420] Third_out_norm_mbox_loc_sb_flat -> Third_out_norm_mbox_loc_sb_flat
I0415 03:36:53.087136  1616 net.cpp:162] Setting up Third_out_norm_mbox_loc_sb_flat
I0415 03:36:53.087141  1616 net.cpp:169] Top shape: 2 2400 (4800)
I0415 03:36:53.087142  1616 net.cpp:177] Memory required for data: 592994208
I0415 03:36:53.087146  1616 layer_factory.hpp:77] Creating layer Third_out_norm_mbox_conf_1x1_conv
I0415 03:36:53.087152  1616 net.cpp:112] Creating Layer Third_out_norm_mbox_conf_1x1_conv
I0415 03:36:53.087154  1616 net.cpp:446] Third_out_norm_mbox_conf_1x1_conv <- Third_out_norm_Third_out_norm_0_split_1
I0415 03:36:53.087159  1616 net.cpp:420] Third_out_norm_mbox_conf_1x1_conv -> Third_out_norm_mbox_conf_1x1_conv
I0415 03:36:53.088565  1616 net.cpp:162] Setting up Third_out_norm_mbox_conf_1x1_conv
I0415 03:36:53.088573  1616 net.cpp:169] Top shape: 2 126 10 10 (25200)
I0415 03:36:53.088577  1616 net.cpp:177] Memory required for data: 593095008
I0415 03:36:53.088582  1616 layer_factory.hpp:77] Creating layer Third_out_norm_mbox_conf_dw_conv
I0415 03:36:53.088588  1616 net.cpp:112] Creating Layer Third_out_norm_mbox_conf_dw_conv
I0415 03:36:53.088593  1616 net.cpp:446] Third_out_norm_mbox_conf_dw_conv <- Third_out_norm_mbox_conf_1x1_conv
I0415 03:36:53.088598  1616 net.cpp:420] Third_out_norm_mbox_conf_dw_conv -> Third_out_norm_mbox_conf_dw_conv
I0415 03:36:53.088681  1616 net.cpp:162] Setting up Third_out_norm_mbox_conf_dw_conv
I0415 03:36:53.088685  1616 net.cpp:169] Top shape: 2 126 10 10 (25200)
I0415 03:36:53.088688  1616 net.cpp:177] Memory required for data: 593195808
I0415 03:36:53.088692  1616 layer_factory.hpp:77] Creating layer Third_out_norm_mbox_conf_bn
I0415 03:36:53.088697  1616 net.cpp:112] Creating Layer Third_out_norm_mbox_conf_bn
I0415 03:36:53.088701  1616 net.cpp:446] Third_out_norm_mbox_conf_bn <- Third_out_norm_mbox_conf_dw_conv
I0415 03:36:53.088703  1616 net.cpp:407] Third_out_norm_mbox_conf_bn -> Third_out_norm_mbox_conf_dw_conv (in-place)
I0415 03:36:53.088840  1616 net.cpp:162] Setting up Third_out_norm_mbox_conf_bn
I0415 03:36:53.088843  1616 net.cpp:169] Top shape: 2 126 10 10 (25200)
I0415 03:36:53.088846  1616 net.cpp:177] Memory required for data: 593296608
I0415 03:36:53.088850  1616 layer_factory.hpp:77] Creating layer Third_out_norm_mbox_conf_sb
I0415 03:36:53.088856  1616 net.cpp:112] Creating Layer Third_out_norm_mbox_conf_sb
I0415 03:36:53.088860  1616 net.cpp:446] Third_out_norm_mbox_conf_sb <- Third_out_norm_mbox_conf_dw_conv
I0415 03:36:53.088863  1616 net.cpp:407] Third_out_norm_mbox_conf_sb -> Third_out_norm_mbox_conf_dw_conv (in-place)
I0415 03:36:53.088901  1616 layer_factory.hpp:77] Creating layer Third_out_norm_mbox_conf_sb
I0415 03:36:53.088999  1616 net.cpp:162] Setting up Third_out_norm_mbox_conf_sb
I0415 03:36:53.089002  1616 net.cpp:169] Top shape: 2 126 10 10 (25200)
I0415 03:36:53.089005  1616 net.cpp:177] Memory required for data: 593397408
I0415 03:36:53.089020  1616 layer_factory.hpp:77] Creating layer Third_out_norm_mbox_conf_sb_perm
I0415 03:36:53.089025  1616 net.cpp:112] Creating Layer Third_out_norm_mbox_conf_sb_perm
I0415 03:36:53.089027  1616 net.cpp:446] Third_out_norm_mbox_conf_sb_perm <- Third_out_norm_mbox_conf_dw_conv
I0415 03:36:53.089030  1616 net.cpp:420] Third_out_norm_mbox_conf_sb_perm -> Third_out_norm_mbox_conf_sb_perm
I0415 03:36:53.089100  1616 net.cpp:162] Setting up Third_out_norm_mbox_conf_sb_perm
I0415 03:36:53.089103  1616 net.cpp:169] Top shape: 2 10 10 126 (25200)
I0415 03:36:53.089107  1616 net.cpp:177] Memory required for data: 593498208
I0415 03:36:53.089109  1616 layer_factory.hpp:77] Creating layer Third_out_norm_mbox_conf_sb_flat
I0415 03:36:53.089123  1616 net.cpp:112] Creating Layer Third_out_norm_mbox_conf_sb_flat
I0415 03:36:53.089126  1616 net.cpp:446] Third_out_norm_mbox_conf_sb_flat <- Third_out_norm_mbox_conf_sb_perm
I0415 03:36:53.089130  1616 net.cpp:420] Third_out_norm_mbox_conf_sb_flat -> Third_out_norm_mbox_conf_sb_flat
I0415 03:36:53.089145  1616 net.cpp:162] Setting up Third_out_norm_mbox_conf_sb_flat
I0415 03:36:53.089159  1616 net.cpp:169] Top shape: 2 12600 (25200)
I0415 03:36:53.089160  1616 net.cpp:177] Memory required for data: 593599008
I0415 03:36:53.089162  1616 layer_factory.hpp:77] Creating layer Third_out_norm_mbox_priorbox
I0415 03:36:53.089179  1616 net.cpp:112] Creating Layer Third_out_norm_mbox_priorbox
I0415 03:36:53.089180  1616 net.cpp:446] Third_out_norm_mbox_priorbox <- Third_out_norm_Third_out_norm_0_split_2
I0415 03:36:53.089184  1616 net.cpp:446] Third_out_norm_mbox_priorbox <- data_data_0_split_3
I0415 03:36:53.089187  1616 net.cpp:420] Third_out_norm_mbox_priorbox -> Third_out_norm_mbox_priorbox
I0415 03:36:53.089223  1616 net.cpp:162] Setting up Third_out_norm_mbox_priorbox
I0415 03:36:53.089227  1616 net.cpp:169] Top shape: 1 2 2400 (4800)
I0415 03:36:53.089231  1616 net.cpp:177] Memory required for data: 593618208
I0415 03:36:53.089242  1616 layer_factory.hpp:77] Creating layer Fourth_norm
I0415 03:36:53.089247  1616 net.cpp:112] Creating Layer Fourth_norm
I0415 03:36:53.089249  1616 net.cpp:446] Fourth_norm <- Fourth_Fourth_0_split_4
I0415 03:36:53.089253  1616 net.cpp:420] Fourth_norm -> Fourth_norm
I0415 03:36:53.089354  1616 net.cpp:162] Setting up Fourth_norm
I0415 03:36:53.089357  1616 net.cpp:169] Top shape: 2 128 5 5 (6400)
I0415 03:36:53.089360  1616 net.cpp:177] Memory required for data: 593643808
I0415 03:36:53.089373  1616 layer_factory.hpp:77] Creating layer Fourth_norm_Fourth_norm_0_split
I0415 03:36:53.089377  1616 net.cpp:112] Creating Layer Fourth_norm_Fourth_norm_0_split
I0415 03:36:53.089380  1616 net.cpp:446] Fourth_norm_Fourth_norm_0_split <- Fourth_norm
I0415 03:36:53.089385  1616 net.cpp:420] Fourth_norm_Fourth_norm_0_split -> Fourth_norm_Fourth_norm_0_split_0
I0415 03:36:53.089390  1616 net.cpp:420] Fourth_norm_Fourth_norm_0_split -> Fourth_norm_Fourth_norm_0_split_1
I0415 03:36:53.089395  1616 net.cpp:420] Fourth_norm_Fourth_norm_0_split -> Fourth_norm_Fourth_norm_0_split_2
I0415 03:36:53.089426  1616 net.cpp:162] Setting up Fourth_norm_Fourth_norm_0_split
I0415 03:36:53.089431  1616 net.cpp:169] Top shape: 2 128 5 5 (6400)
I0415 03:36:53.089433  1616 net.cpp:169] Top shape: 2 128 5 5 (6400)
I0415 03:36:53.089435  1616 net.cpp:169] Top shape: 2 128 5 5 (6400)
I0415 03:36:53.089438  1616 net.cpp:177] Memory required for data: 593720608
I0415 03:36:53.089440  1616 layer_factory.hpp:77] Creating layer Fourth_norm_mbox_loc_1x1_conv
I0415 03:36:53.089447  1616 net.cpp:112] Creating Layer Fourth_norm_mbox_loc_1x1_conv
I0415 03:36:53.089450  1616 net.cpp:446] Fourth_norm_mbox_loc_1x1_conv <- Fourth_norm_Fourth_norm_0_split_0
I0415 03:36:53.089453  1616 net.cpp:420] Fourth_norm_mbox_loc_1x1_conv -> Fourth_norm_mbox_loc_1x1_conv
I0415 03:36:53.090857  1616 net.cpp:162] Setting up Fourth_norm_mbox_loc_1x1_conv
I0415 03:36:53.090864  1616 net.cpp:169] Top shape: 2 24 5 5 (1200)
I0415 03:36:53.090867  1616 net.cpp:177] Memory required for data: 593725408
I0415 03:36:53.090871  1616 layer_factory.hpp:77] Creating layer Fourth_norm_mbox_loc_dw_conv
I0415 03:36:53.090878  1616 net.cpp:112] Creating Layer Fourth_norm_mbox_loc_dw_conv
I0415 03:36:53.090880  1616 net.cpp:446] Fourth_norm_mbox_loc_dw_conv <- Fourth_norm_mbox_loc_1x1_conv
I0415 03:36:53.090886  1616 net.cpp:420] Fourth_norm_mbox_loc_dw_conv -> Fourth_norm_mbox_loc_dw_conv
I0415 03:36:53.090965  1616 net.cpp:162] Setting up Fourth_norm_mbox_loc_dw_conv
I0415 03:36:53.090968  1616 net.cpp:169] Top shape: 2 24 5 5 (1200)
I0415 03:36:53.090971  1616 net.cpp:177] Memory required for data: 593730208
I0415 03:36:53.090975  1616 layer_factory.hpp:77] Creating layer Fourth_norm_mbox_loc_bn
I0415 03:36:53.090979  1616 net.cpp:112] Creating Layer Fourth_norm_mbox_loc_bn
I0415 03:36:53.090983  1616 net.cpp:446] Fourth_norm_mbox_loc_bn <- Fourth_norm_mbox_loc_dw_conv
I0415 03:36:53.090986  1616 net.cpp:407] Fourth_norm_mbox_loc_bn -> Fourth_norm_mbox_loc_dw_conv (in-place)
I0415 03:36:53.091128  1616 net.cpp:162] Setting up Fourth_norm_mbox_loc_bn
I0415 03:36:53.091131  1616 net.cpp:169] Top shape: 2 24 5 5 (1200)
I0415 03:36:53.091135  1616 net.cpp:177] Memory required for data: 593735008
I0415 03:36:53.091140  1616 layer_factory.hpp:77] Creating layer Fourth_norm_mbox_loc_sb
I0415 03:36:53.091145  1616 net.cpp:112] Creating Layer Fourth_norm_mbox_loc_sb
I0415 03:36:53.091148  1616 net.cpp:446] Fourth_norm_mbox_loc_sb <- Fourth_norm_mbox_loc_dw_conv
I0415 03:36:53.091152  1616 net.cpp:407] Fourth_norm_mbox_loc_sb -> Fourth_norm_mbox_loc_dw_conv (in-place)
I0415 03:36:53.091188  1616 layer_factory.hpp:77] Creating layer Fourth_norm_mbox_loc_sb
I0415 03:36:53.091286  1616 net.cpp:162] Setting up Fourth_norm_mbox_loc_sb
I0415 03:36:53.091289  1616 net.cpp:169] Top shape: 2 24 5 5 (1200)
I0415 03:36:53.091292  1616 net.cpp:177] Memory required for data: 593739808
I0415 03:36:53.091306  1616 layer_factory.hpp:77] Creating layer Fourth_norm_mbox_loc_sb_perm
I0415 03:36:53.091311  1616 net.cpp:112] Creating Layer Fourth_norm_mbox_loc_sb_perm
I0415 03:36:53.091313  1616 net.cpp:446] Fourth_norm_mbox_loc_sb_perm <- Fourth_norm_mbox_loc_dw_conv
I0415 03:36:53.091317  1616 net.cpp:420] Fourth_norm_mbox_loc_sb_perm -> Fourth_norm_mbox_loc_sb_perm
I0415 03:36:53.091388  1616 net.cpp:162] Setting up Fourth_norm_mbox_loc_sb_perm
I0415 03:36:53.091392  1616 net.cpp:169] Top shape: 2 5 5 24 (1200)
I0415 03:36:53.091394  1616 net.cpp:177] Memory required for data: 593744608
I0415 03:36:53.091415  1616 layer_factory.hpp:77] Creating layer Fourth_norm_mbox_loc_sb_flat
I0415 03:36:53.091419  1616 net.cpp:112] Creating Layer Fourth_norm_mbox_loc_sb_flat
I0415 03:36:53.091423  1616 net.cpp:446] Fourth_norm_mbox_loc_sb_flat <- Fourth_norm_mbox_loc_sb_perm
I0415 03:36:53.091425  1616 net.cpp:420] Fourth_norm_mbox_loc_sb_flat -> Fourth_norm_mbox_loc_sb_flat
I0415 03:36:53.091444  1616 net.cpp:162] Setting up Fourth_norm_mbox_loc_sb_flat
I0415 03:36:53.091447  1616 net.cpp:169] Top shape: 2 600 (1200)
I0415 03:36:53.091450  1616 net.cpp:177] Memory required for data: 593749408
I0415 03:36:53.091452  1616 layer_factory.hpp:77] Creating layer Fourth_norm_mbox_conf_1x1_conv
I0415 03:36:53.091459  1616 net.cpp:112] Creating Layer Fourth_norm_mbox_conf_1x1_conv
I0415 03:36:53.091462  1616 net.cpp:446] Fourth_norm_mbox_conf_1x1_conv <- Fourth_norm_Fourth_norm_0_split_1
I0415 03:36:53.091465  1616 net.cpp:420] Fourth_norm_mbox_conf_1x1_conv -> Fourth_norm_mbox_conf_1x1_conv
I0415 03:36:53.094012  1616 net.cpp:162] Setting up Fourth_norm_mbox_conf_1x1_conv
I0415 03:36:53.094019  1616 net.cpp:169] Top shape: 2 126 5 5 (6300)
I0415 03:36:53.094024  1616 net.cpp:177] Memory required for data: 593774608
I0415 03:36:53.094028  1616 layer_factory.hpp:77] Creating layer Fourth_norm_mbox_conf_dw_conv
I0415 03:36:53.094035  1616 net.cpp:112] Creating Layer Fourth_norm_mbox_conf_dw_conv
I0415 03:36:53.094039  1616 net.cpp:446] Fourth_norm_mbox_conf_dw_conv <- Fourth_norm_mbox_conf_1x1_conv
I0415 03:36:53.094044  1616 net.cpp:420] Fourth_norm_mbox_conf_dw_conv -> Fourth_norm_mbox_conf_dw_conv
I0415 03:36:53.094126  1616 net.cpp:162] Setting up Fourth_norm_mbox_conf_dw_conv
I0415 03:36:53.094130  1616 net.cpp:169] Top shape: 2 126 5 5 (6300)
I0415 03:36:53.094133  1616 net.cpp:177] Memory required for data: 593799808
I0415 03:36:53.094137  1616 layer_factory.hpp:77] Creating layer Fourth_norm_mbox_conf_bn
I0415 03:36:53.094141  1616 net.cpp:112] Creating Layer Fourth_norm_mbox_conf_bn
I0415 03:36:53.094143  1616 net.cpp:446] Fourth_norm_mbox_conf_bn <- Fourth_norm_mbox_conf_dw_conv
I0415 03:36:53.094148  1616 net.cpp:407] Fourth_norm_mbox_conf_bn -> Fourth_norm_mbox_conf_dw_conv (in-place)
I0415 03:36:53.094286  1616 net.cpp:162] Setting up Fourth_norm_mbox_conf_bn
I0415 03:36:53.094290  1616 net.cpp:169] Top shape: 2 126 5 5 (6300)
I0415 03:36:53.094293  1616 net.cpp:177] Memory required for data: 593825008
I0415 03:36:53.094297  1616 layer_factory.hpp:77] Creating layer Fourth_norm_mbox_conf_sb
I0415 03:36:53.094302  1616 net.cpp:112] Creating Layer Fourth_norm_mbox_conf_sb
I0415 03:36:53.094305  1616 net.cpp:446] Fourth_norm_mbox_conf_sb <- Fourth_norm_mbox_conf_dw_conv
I0415 03:36:53.094311  1616 net.cpp:407] Fourth_norm_mbox_conf_sb -> Fourth_norm_mbox_conf_dw_conv (in-place)
I0415 03:36:53.094348  1616 layer_factory.hpp:77] Creating layer Fourth_norm_mbox_conf_sb
I0415 03:36:53.094449  1616 net.cpp:162] Setting up Fourth_norm_mbox_conf_sb
I0415 03:36:53.094453  1616 net.cpp:169] Top shape: 2 126 5 5 (6300)
I0415 03:36:53.094456  1616 net.cpp:177] Memory required for data: 593850208
I0415 03:36:53.094470  1616 layer_factory.hpp:77] Creating layer Fourth_norm_mbox_conf_sb_perm
I0415 03:36:53.094475  1616 net.cpp:112] Creating Layer Fourth_norm_mbox_conf_sb_perm
I0415 03:36:53.094477  1616 net.cpp:446] Fourth_norm_mbox_conf_sb_perm <- Fourth_norm_mbox_conf_dw_conv
I0415 03:36:53.094481  1616 net.cpp:420] Fourth_norm_mbox_conf_sb_perm -> Fourth_norm_mbox_conf_sb_perm
I0415 03:36:53.094547  1616 net.cpp:162] Setting up Fourth_norm_mbox_conf_sb_perm
I0415 03:36:53.094550  1616 net.cpp:169] Top shape: 2 5 5 126 (6300)
I0415 03:36:53.094553  1616 net.cpp:177] Memory required for data: 593875408
I0415 03:36:53.094555  1616 layer_factory.hpp:77] Creating layer Fourth_norm_mbox_conf_sb_flat
I0415 03:36:53.094559  1616 net.cpp:112] Creating Layer Fourth_norm_mbox_conf_sb_flat
I0415 03:36:53.094563  1616 net.cpp:446] Fourth_norm_mbox_conf_sb_flat <- Fourth_norm_mbox_conf_sb_perm
I0415 03:36:53.094565  1616 net.cpp:420] Fourth_norm_mbox_conf_sb_flat -> Fourth_norm_mbox_conf_sb_flat
I0415 03:36:53.094594  1616 net.cpp:162] Setting up Fourth_norm_mbox_conf_sb_flat
I0415 03:36:53.094599  1616 net.cpp:169] Top shape: 2 3150 (6300)
I0415 03:36:53.094610  1616 net.cpp:177] Memory required for data: 593900608
I0415 03:36:53.094612  1616 layer_factory.hpp:77] Creating layer Fourth_norm_mbox_priorbox
I0415 03:36:53.094619  1616 net.cpp:112] Creating Layer Fourth_norm_mbox_priorbox
I0415 03:36:53.094631  1616 net.cpp:446] Fourth_norm_mbox_priorbox <- Fourth_norm_Fourth_norm_0_split_2
I0415 03:36:53.094635  1616 net.cpp:446] Fourth_norm_mbox_priorbox <- data_data_0_split_4
I0415 03:36:53.094640  1616 net.cpp:420] Fourth_norm_mbox_priorbox -> Fourth_norm_mbox_priorbox
I0415 03:36:53.094657  1616 net.cpp:162] Setting up Fourth_norm_mbox_priorbox
I0415 03:36:53.094660  1616 net.cpp:169] Top shape: 1 2 600 (1200)
I0415 03:36:53.094663  1616 net.cpp:177] Memory required for data: 593905408
I0415 03:36:53.094666  1616 layer_factory.hpp:77] Creating layer Fifth_norm
I0415 03:36:53.094669  1616 net.cpp:112] Creating Layer Fifth_norm
I0415 03:36:53.094673  1616 net.cpp:446] Fifth_norm <- Fifth_Fifth_0_split_4
I0415 03:36:53.094677  1616 net.cpp:420] Fifth_norm -> Fifth_norm
I0415 03:36:53.094779  1616 net.cpp:162] Setting up Fifth_norm
I0415 03:36:53.094782  1616 net.cpp:169] Top shape: 2 128 3 3 (2304)
I0415 03:36:53.094785  1616 net.cpp:177] Memory required for data: 593914624
I0415 03:36:53.094789  1616 layer_factory.hpp:77] Creating layer Fifth_norm_Fifth_norm_0_split
I0415 03:36:53.094794  1616 net.cpp:112] Creating Layer Fifth_norm_Fifth_norm_0_split
I0415 03:36:53.094796  1616 net.cpp:446] Fifth_norm_Fifth_norm_0_split <- Fifth_norm
I0415 03:36:53.094800  1616 net.cpp:420] Fifth_norm_Fifth_norm_0_split -> Fifth_norm_Fifth_norm_0_split_0
I0415 03:36:53.094805  1616 net.cpp:420] Fifth_norm_Fifth_norm_0_split -> Fifth_norm_Fifth_norm_0_split_1
I0415 03:36:53.094810  1616 net.cpp:420] Fifth_norm_Fifth_norm_0_split -> Fifth_norm_Fifth_norm_0_split_2
I0415 03:36:53.094838  1616 net.cpp:162] Setting up Fifth_norm_Fifth_norm_0_split
I0415 03:36:53.094841  1616 net.cpp:169] Top shape: 2 128 3 3 (2304)
I0415 03:36:53.094844  1616 net.cpp:169] Top shape: 2 128 3 3 (2304)
I0415 03:36:53.094847  1616 net.cpp:169] Top shape: 2 128 3 3 (2304)
I0415 03:36:53.094849  1616 net.cpp:177] Memory required for data: 593942272
I0415 03:36:53.094851  1616 layer_factory.hpp:77] Creating layer Fifth_norm_mbox_loc_1x1_conv
I0415 03:36:53.094858  1616 net.cpp:112] Creating Layer Fifth_norm_mbox_loc_1x1_conv
I0415 03:36:53.094862  1616 net.cpp:446] Fifth_norm_mbox_loc_1x1_conv <- Fifth_norm_Fifth_norm_0_split_0
I0415 03:36:53.094866  1616 net.cpp:420] Fifth_norm_mbox_loc_1x1_conv -> Fifth_norm_mbox_loc_1x1_conv
I0415 03:36:53.096304  1616 net.cpp:162] Setting up Fifth_norm_mbox_loc_1x1_conv
I0415 03:36:53.096312  1616 net.cpp:169] Top shape: 2 16 3 3 (288)
I0415 03:36:53.096315  1616 net.cpp:177] Memory required for data: 593943424
I0415 03:36:53.096320  1616 layer_factory.hpp:77] Creating layer Fifth_norm_mbox_loc_dw_conv
I0415 03:36:53.096328  1616 net.cpp:112] Creating Layer Fifth_norm_mbox_loc_dw_conv
I0415 03:36:53.096331  1616 net.cpp:446] Fifth_norm_mbox_loc_dw_conv <- Fifth_norm_mbox_loc_1x1_conv
I0415 03:36:53.096335  1616 net.cpp:420] Fifth_norm_mbox_loc_dw_conv -> Fifth_norm_mbox_loc_dw_conv
I0415 03:36:53.096411  1616 net.cpp:162] Setting up Fifth_norm_mbox_loc_dw_conv
I0415 03:36:53.096415  1616 net.cpp:169] Top shape: 2 16 3 3 (288)
I0415 03:36:53.096418  1616 net.cpp:177] Memory required for data: 593944576
I0415 03:36:53.096421  1616 layer_factory.hpp:77] Creating layer Fifth_norm_mbox_loc_bn
I0415 03:36:53.096426  1616 net.cpp:112] Creating Layer Fifth_norm_mbox_loc_bn
I0415 03:36:53.096429  1616 net.cpp:446] Fifth_norm_mbox_loc_bn <- Fifth_norm_mbox_loc_dw_conv
I0415 03:36:53.096432  1616 net.cpp:407] Fifth_norm_mbox_loc_bn -> Fifth_norm_mbox_loc_dw_conv (in-place)
I0415 03:36:53.096577  1616 net.cpp:162] Setting up Fifth_norm_mbox_loc_bn
I0415 03:36:53.096590  1616 net.cpp:169] Top shape: 2 16 3 3 (288)
I0415 03:36:53.096604  1616 net.cpp:177] Memory required for data: 593945728
I0415 03:36:53.096609  1616 layer_factory.hpp:77] Creating layer Fifth_norm_mbox_loc_sb
I0415 03:36:53.096616  1616 net.cpp:112] Creating Layer Fifth_norm_mbox_loc_sb
I0415 03:36:53.096617  1616 net.cpp:446] Fifth_norm_mbox_loc_sb <- Fifth_norm_mbox_loc_dw_conv
I0415 03:36:53.096621  1616 net.cpp:407] Fifth_norm_mbox_loc_sb -> Fifth_norm_mbox_loc_dw_conv (in-place)
I0415 03:36:53.096659  1616 layer_factory.hpp:77] Creating layer Fifth_norm_mbox_loc_sb
I0415 03:36:53.096760  1616 net.cpp:162] Setting up Fifth_norm_mbox_loc_sb
I0415 03:36:53.096763  1616 net.cpp:169] Top shape: 2 16 3 3 (288)
I0415 03:36:53.096765  1616 net.cpp:177] Memory required for data: 593946880
I0415 03:36:53.096779  1616 layer_factory.hpp:77] Creating layer Fifth_norm_mbox_loc_sb_perm
I0415 03:36:53.096783  1616 net.cpp:112] Creating Layer Fifth_norm_mbox_loc_sb_perm
I0415 03:36:53.096786  1616 net.cpp:446] Fifth_norm_mbox_loc_sb_perm <- Fifth_norm_mbox_loc_dw_conv
I0415 03:36:53.096791  1616 net.cpp:420] Fifth_norm_mbox_loc_sb_perm -> Fifth_norm_mbox_loc_sb_perm
I0415 03:36:53.096863  1616 net.cpp:162] Setting up Fifth_norm_mbox_loc_sb_perm
I0415 03:36:53.096868  1616 net.cpp:169] Top shape: 2 3 3 16 (288)
I0415 03:36:53.096869  1616 net.cpp:177] Memory required for data: 593948032
I0415 03:36:53.096871  1616 layer_factory.hpp:77] Creating layer Fifth_norm_mbox_loc_sb_flat
I0415 03:36:53.096875  1616 net.cpp:112] Creating Layer Fifth_norm_mbox_loc_sb_flat
I0415 03:36:53.096879  1616 net.cpp:446] Fifth_norm_mbox_loc_sb_flat <- Fifth_norm_mbox_loc_sb_perm
I0415 03:36:53.096881  1616 net.cpp:420] Fifth_norm_mbox_loc_sb_flat -> Fifth_norm_mbox_loc_sb_flat
I0415 03:36:53.096906  1616 net.cpp:162] Setting up Fifth_norm_mbox_loc_sb_flat
I0415 03:36:53.096909  1616 net.cpp:169] Top shape: 2 144 (288)
I0415 03:36:53.096912  1616 net.cpp:177] Memory required for data: 593949184
I0415 03:36:53.096915  1616 layer_factory.hpp:77] Creating layer Fifth_norm_mbox_conf_1x1_conv
I0415 03:36:53.096933  1616 net.cpp:112] Creating Layer Fifth_norm_mbox_conf_1x1_conv
I0415 03:36:53.096935  1616 net.cpp:446] Fifth_norm_mbox_conf_1x1_conv <- Fifth_norm_Fifth_norm_0_split_1
I0415 03:36:53.096940  1616 net.cpp:420] Fifth_norm_mbox_conf_1x1_conv -> Fifth_norm_mbox_conf_1x1_conv
I0415 03:36:53.098289  1616 net.cpp:162] Setting up Fifth_norm_mbox_conf_1x1_conv
I0415 03:36:53.098296  1616 net.cpp:169] Top shape: 2 84 3 3 (1512)
I0415 03:36:53.098299  1616 net.cpp:177] Memory required for data: 593955232
I0415 03:36:53.098314  1616 layer_factory.hpp:77] Creating layer Fifth_norm_mbox_conf_dw_conv
I0415 03:36:53.098322  1616 net.cpp:112] Creating Layer Fifth_norm_mbox_conf_dw_conv
I0415 03:36:53.098326  1616 net.cpp:446] Fifth_norm_mbox_conf_dw_conv <- Fifth_norm_mbox_conf_1x1_conv
I0415 03:36:53.098331  1616 net.cpp:420] Fifth_norm_mbox_conf_dw_conv -> Fifth_norm_mbox_conf_dw_conv
I0415 03:36:53.098412  1616 net.cpp:162] Setting up Fifth_norm_mbox_conf_dw_conv
I0415 03:36:53.098415  1616 net.cpp:169] Top shape: 2 84 3 3 (1512)
I0415 03:36:53.098418  1616 net.cpp:177] Memory required for data: 593961280
I0415 03:36:53.098431  1616 layer_factory.hpp:77] Creating layer Fifth_norm_mbox_conf_bn
I0415 03:36:53.098436  1616 net.cpp:112] Creating Layer Fifth_norm_mbox_conf_bn
I0415 03:36:53.098440  1616 net.cpp:446] Fifth_norm_mbox_conf_bn <- Fifth_norm_mbox_conf_dw_conv
I0415 03:36:53.098443  1616 net.cpp:407] Fifth_norm_mbox_conf_bn -> Fifth_norm_mbox_conf_dw_conv (in-place)
I0415 03:36:53.098603  1616 net.cpp:162] Setting up Fifth_norm_mbox_conf_bn
I0415 03:36:53.098606  1616 net.cpp:169] Top shape: 2 84 3 3 (1512)
I0415 03:36:53.098609  1616 net.cpp:177] Memory required for data: 593967328
I0415 03:36:53.098623  1616 layer_factory.hpp:77] Creating layer Fifth_norm_mbox_conf_sb
I0415 03:36:53.098629  1616 net.cpp:112] Creating Layer Fifth_norm_mbox_conf_sb
I0415 03:36:53.098632  1616 net.cpp:446] Fifth_norm_mbox_conf_sb <- Fifth_norm_mbox_conf_dw_conv
I0415 03:36:53.098655  1616 net.cpp:407] Fifth_norm_mbox_conf_sb -> Fifth_norm_mbox_conf_dw_conv (in-place)
I0415 03:36:53.098726  1616 layer_factory.hpp:77] Creating layer Fifth_norm_mbox_conf_sb
I0415 03:36:53.098814  1616 net.cpp:162] Setting up Fifth_norm_mbox_conf_sb
I0415 03:36:53.098819  1616 net.cpp:169] Top shape: 2 84 3 3 (1512)
I0415 03:36:53.098820  1616 net.cpp:177] Memory required for data: 593973376
I0415 03:36:53.098824  1616 layer_factory.hpp:77] Creating layer Fifth_norm_mbox_conf_sb_perm
I0415 03:36:53.098839  1616 net.cpp:112] Creating Layer Fifth_norm_mbox_conf_sb_perm
I0415 03:36:53.098842  1616 net.cpp:446] Fifth_norm_mbox_conf_sb_perm <- Fifth_norm_mbox_conf_dw_conv
I0415 03:36:53.098845  1616 net.cpp:420] Fifth_norm_mbox_conf_sb_perm -> Fifth_norm_mbox_conf_sb_perm
I0415 03:36:53.098928  1616 net.cpp:162] Setting up Fifth_norm_mbox_conf_sb_perm
I0415 03:36:53.098932  1616 net.cpp:169] Top shape: 2 3 3 84 (1512)
I0415 03:36:53.098933  1616 net.cpp:177] Memory required for data: 593979424
I0415 03:36:53.098947  1616 layer_factory.hpp:77] Creating layer Fifth_norm_mbox_conf_sb_flat
I0415 03:36:53.098950  1616 net.cpp:112] Creating Layer Fifth_norm_mbox_conf_sb_flat
I0415 03:36:53.098953  1616 net.cpp:446] Fifth_norm_mbox_conf_sb_flat <- Fifth_norm_mbox_conf_sb_perm
I0415 03:36:53.098956  1616 net.cpp:420] Fifth_norm_mbox_conf_sb_flat -> Fifth_norm_mbox_conf_sb_flat
I0415 03:36:53.098982  1616 net.cpp:162] Setting up Fifth_norm_mbox_conf_sb_flat
I0415 03:36:53.098985  1616 net.cpp:169] Top shape: 2 756 (1512)
I0415 03:36:53.098987  1616 net.cpp:177] Memory required for data: 593985472
I0415 03:36:53.098999  1616 layer_factory.hpp:77] Creating layer Fifth_norm_mbox_priorbox
I0415 03:36:53.099004  1616 net.cpp:112] Creating Layer Fifth_norm_mbox_priorbox
I0415 03:36:53.099005  1616 net.cpp:446] Fifth_norm_mbox_priorbox <- Fifth_norm_Fifth_norm_0_split_2
I0415 03:36:53.099009  1616 net.cpp:446] Fifth_norm_mbox_priorbox <- data_data_0_split_5
I0415 03:36:53.099014  1616 net.cpp:420] Fifth_norm_mbox_priorbox -> Fifth_norm_mbox_priorbox
I0415 03:36:53.099040  1616 net.cpp:162] Setting up Fifth_norm_mbox_priorbox
I0415 03:36:53.099042  1616 net.cpp:169] Top shape: 1 2 144 (288)
I0415 03:36:53.099045  1616 net.cpp:177] Memory required for data: 593986624
I0415 03:36:53.099047  1616 layer_factory.hpp:77] Creating layer Sixth_norm
I0415 03:36:53.099052  1616 net.cpp:112] Creating Layer Sixth_norm
I0415 03:36:53.099056  1616 net.cpp:446] Sixth_norm <- Sixth_Sixth_0_split_1
I0415 03:36:53.099059  1616 net.cpp:420] Sixth_norm -> Sixth_norm
I0415 03:36:53.099160  1616 net.cpp:162] Setting up Sixth_norm
I0415 03:36:53.099164  1616 net.cpp:169] Top shape: 2 128 2 2 (1024)
I0415 03:36:53.099167  1616 net.cpp:177] Memory required for data: 593990720
I0415 03:36:53.099181  1616 layer_factory.hpp:77] Creating layer Sixth_norm_Sixth_norm_0_split
I0415 03:36:53.099184  1616 net.cpp:112] Creating Layer Sixth_norm_Sixth_norm_0_split
I0415 03:36:53.099187  1616 net.cpp:446] Sixth_norm_Sixth_norm_0_split <- Sixth_norm
I0415 03:36:53.099192  1616 net.cpp:420] Sixth_norm_Sixth_norm_0_split -> Sixth_norm_Sixth_norm_0_split_0
I0415 03:36:53.099197  1616 net.cpp:420] Sixth_norm_Sixth_norm_0_split -> Sixth_norm_Sixth_norm_0_split_1
I0415 03:36:53.099200  1616 net.cpp:420] Sixth_norm_Sixth_norm_0_split -> Sixth_norm_Sixth_norm_0_split_2
I0415 03:36:53.099238  1616 net.cpp:162] Setting up Sixth_norm_Sixth_norm_0_split
I0415 03:36:53.099242  1616 net.cpp:169] Top shape: 2 128 2 2 (1024)
I0415 03:36:53.099244  1616 net.cpp:169] Top shape: 2 128 2 2 (1024)
I0415 03:36:53.099258  1616 net.cpp:169] Top shape: 2 128 2 2 (1024)
I0415 03:36:53.099261  1616 net.cpp:177] Memory required for data: 594003008
I0415 03:36:53.099263  1616 layer_factory.hpp:77] Creating layer Sixth_norm_mbox_loc_1x1_conv
I0415 03:36:53.099268  1616 net.cpp:112] Creating Layer Sixth_norm_mbox_loc_1x1_conv
I0415 03:36:53.099272  1616 net.cpp:446] Sixth_norm_mbox_loc_1x1_conv <- Sixth_norm_Sixth_norm_0_split_0
I0415 03:36:53.099274  1616 net.cpp:420] Sixth_norm_mbox_loc_1x1_conv -> Sixth_norm_mbox_loc_1x1_conv
I0415 03:36:53.100582  1616 net.cpp:162] Setting up Sixth_norm_mbox_loc_1x1_conv
I0415 03:36:53.100590  1616 net.cpp:169] Top shape: 2 16 2 2 (128)
I0415 03:36:53.100594  1616 net.cpp:177] Memory required for data: 594003520
I0415 03:36:53.100597  1616 layer_factory.hpp:77] Creating layer Sixth_norm_mbox_loc_dw_conv
I0415 03:36:53.100603  1616 net.cpp:112] Creating Layer Sixth_norm_mbox_loc_dw_conv
I0415 03:36:53.100607  1616 net.cpp:446] Sixth_norm_mbox_loc_dw_conv <- Sixth_norm_mbox_loc_1x1_conv
I0415 03:36:53.100611  1616 net.cpp:420] Sixth_norm_mbox_loc_dw_conv -> Sixth_norm_mbox_loc_dw_conv
I0415 03:36:53.100703  1616 net.cpp:162] Setting up Sixth_norm_mbox_loc_dw_conv
I0415 03:36:53.100708  1616 net.cpp:169] Top shape: 2 16 2 2 (128)
I0415 03:36:53.100709  1616 net.cpp:177] Memory required for data: 594004032
I0415 03:36:53.100723  1616 layer_factory.hpp:77] Creating layer Sixth_norm_mbox_loc_bn
I0415 03:36:53.100726  1616 net.cpp:112] Creating Layer Sixth_norm_mbox_loc_bn
I0415 03:36:53.100729  1616 net.cpp:446] Sixth_norm_mbox_loc_bn <- Sixth_norm_mbox_loc_dw_conv
I0415 03:36:53.100733  1616 net.cpp:407] Sixth_norm_mbox_loc_bn -> Sixth_norm_mbox_loc_dw_conv (in-place)
I0415 03:36:53.100903  1616 net.cpp:162] Setting up Sixth_norm_mbox_loc_bn
I0415 03:36:53.100908  1616 net.cpp:169] Top shape: 2 16 2 2 (128)
I0415 03:36:53.100909  1616 net.cpp:177] Memory required for data: 594004544
I0415 03:36:53.100924  1616 layer_factory.hpp:77] Creating layer Sixth_norm_mbox_loc_sb
I0415 03:36:53.100929  1616 net.cpp:112] Creating Layer Sixth_norm_mbox_loc_sb
I0415 03:36:53.100931  1616 net.cpp:446] Sixth_norm_mbox_loc_sb <- Sixth_norm_mbox_loc_dw_conv
I0415 03:36:53.100934  1616 net.cpp:407] Sixth_norm_mbox_loc_sb -> Sixth_norm_mbox_loc_dw_conv (in-place)
I0415 03:36:53.100984  1616 layer_factory.hpp:77] Creating layer Sixth_norm_mbox_loc_sb
I0415 03:36:53.101109  1616 net.cpp:162] Setting up Sixth_norm_mbox_loc_sb
I0415 03:36:53.101112  1616 net.cpp:169] Top shape: 2 16 2 2 (128)
I0415 03:36:53.101115  1616 net.cpp:177] Memory required for data: 594005056
I0415 03:36:53.101128  1616 layer_factory.hpp:77] Creating layer Sixth_norm_mbox_loc_sb_perm
I0415 03:36:53.101133  1616 net.cpp:112] Creating Layer Sixth_norm_mbox_loc_sb_perm
I0415 03:36:53.101136  1616 net.cpp:446] Sixth_norm_mbox_loc_sb_perm <- Sixth_norm_mbox_loc_dw_conv
I0415 03:36:53.101150  1616 net.cpp:420] Sixth_norm_mbox_loc_sb_perm -> Sixth_norm_mbox_loc_sb_perm
I0415 03:36:53.101228  1616 net.cpp:162] Setting up Sixth_norm_mbox_loc_sb_perm
I0415 03:36:53.101231  1616 net.cpp:169] Top shape: 2 2 2 16 (128)
I0415 03:36:53.101234  1616 net.cpp:177] Memory required for data: 594005568
I0415 03:36:53.101246  1616 layer_factory.hpp:77] Creating layer Sixth_norm_mbox_loc_sb_flat
I0415 03:36:53.101251  1616 net.cpp:112] Creating Layer Sixth_norm_mbox_loc_sb_flat
I0415 03:36:53.101253  1616 net.cpp:446] Sixth_norm_mbox_loc_sb_flat <- Sixth_norm_mbox_loc_sb_perm
I0415 03:36:53.101258  1616 net.cpp:420] Sixth_norm_mbox_loc_sb_flat -> Sixth_norm_mbox_loc_sb_flat
I0415 03:36:53.101281  1616 net.cpp:162] Setting up Sixth_norm_mbox_loc_sb_flat
I0415 03:36:53.101284  1616 net.cpp:169] Top shape: 2 64 (128)
I0415 03:36:53.101287  1616 net.cpp:177] Memory required for data: 594006080
I0415 03:36:53.101300  1616 layer_factory.hpp:77] Creating layer Sixth_norm_mbox_conf_1x1_conv
I0415 03:36:53.101307  1616 net.cpp:112] Creating Layer Sixth_norm_mbox_conf_1x1_conv
I0415 03:36:53.101310  1616 net.cpp:446] Sixth_norm_mbox_conf_1x1_conv <- Sixth_norm_Sixth_norm_0_split_1
I0415 03:36:53.101312  1616 net.cpp:420] Sixth_norm_mbox_conf_1x1_conv -> Sixth_norm_mbox_conf_1x1_conv
I0415 03:36:53.104027  1616 net.cpp:162] Setting up Sixth_norm_mbox_conf_1x1_conv
I0415 03:36:53.104035  1616 net.cpp:169] Top shape: 2 84 2 2 (672)
I0415 03:36:53.104039  1616 net.cpp:177] Memory required for data: 594008768
I0415 03:36:53.104043  1616 layer_factory.hpp:77] Creating layer Sixth_norm_mbox_conf_dw_conv
I0415 03:36:53.104059  1616 net.cpp:112] Creating Layer Sixth_norm_mbox_conf_dw_conv
I0415 03:36:53.104074  1616 net.cpp:446] Sixth_norm_mbox_conf_dw_conv <- Sixth_norm_mbox_conf_1x1_conv
I0415 03:36:53.104090  1616 net.cpp:420] Sixth_norm_mbox_conf_dw_conv -> Sixth_norm_mbox_conf_dw_conv
I0415 03:36:53.104207  1616 net.cpp:162] Setting up Sixth_norm_mbox_conf_dw_conv
I0415 03:36:53.104219  1616 net.cpp:169] Top shape: 2 84 2 2 (672)
I0415 03:36:53.104223  1616 net.cpp:177] Memory required for data: 594011456
I0415 03:36:53.104225  1616 layer_factory.hpp:77] Creating layer Sixth_norm_mbox_conf_bn
I0415 03:36:53.104229  1616 net.cpp:112] Creating Layer Sixth_norm_mbox_conf_bn
I0415 03:36:53.104233  1616 net.cpp:446] Sixth_norm_mbox_conf_bn <- Sixth_norm_mbox_conf_dw_conv
I0415 03:36:53.104236  1616 net.cpp:407] Sixth_norm_mbox_conf_bn -> Sixth_norm_mbox_conf_dw_conv (in-place)
I0415 03:36:53.104389  1616 net.cpp:162] Setting up Sixth_norm_mbox_conf_bn
I0415 03:36:53.104393  1616 net.cpp:169] Top shape: 2 84 2 2 (672)
I0415 03:36:53.104396  1616 net.cpp:177] Memory required for data: 594014144
I0415 03:36:53.104411  1616 layer_factory.hpp:77] Creating layer Sixth_norm_mbox_conf_sb
I0415 03:36:53.104416  1616 net.cpp:112] Creating Layer Sixth_norm_mbox_conf_sb
I0415 03:36:53.104429  1616 net.cpp:446] Sixth_norm_mbox_conf_sb <- Sixth_norm_mbox_conf_dw_conv
I0415 03:36:53.104434  1616 net.cpp:407] Sixth_norm_mbox_conf_sb -> Sixth_norm_mbox_conf_dw_conv (in-place)
I0415 03:36:53.104471  1616 layer_factory.hpp:77] Creating layer Sixth_norm_mbox_conf_sb
I0415 03:36:53.104590  1616 net.cpp:162] Setting up Sixth_norm_mbox_conf_sb
I0415 03:36:53.104593  1616 net.cpp:169] Top shape: 2 84 2 2 (672)
I0415 03:36:53.104598  1616 net.cpp:177] Memory required for data: 594016832
I0415 03:36:53.104611  1616 layer_factory.hpp:77] Creating layer Sixth_norm_mbox_conf_sb_perm
I0415 03:36:53.104615  1616 net.cpp:112] Creating Layer Sixth_norm_mbox_conf_sb_perm
I0415 03:36:53.104619  1616 net.cpp:446] Sixth_norm_mbox_conf_sb_perm <- Sixth_norm_mbox_conf_dw_conv
I0415 03:36:53.104624  1616 net.cpp:420] Sixth_norm_mbox_conf_sb_perm -> Sixth_norm_mbox_conf_sb_perm
I0415 03:36:53.104712  1616 net.cpp:162] Setting up Sixth_norm_mbox_conf_sb_perm
I0415 03:36:53.104717  1616 net.cpp:169] Top shape: 2 2 2 84 (672)
I0415 03:36:53.104718  1616 net.cpp:177] Memory required for data: 594019520
I0415 03:36:53.104732  1616 layer_factory.hpp:77] Creating layer Sixth_norm_mbox_conf_sb_flat
I0415 03:36:53.104735  1616 net.cpp:112] Creating Layer Sixth_norm_mbox_conf_sb_flat
I0415 03:36:53.104737  1616 net.cpp:446] Sixth_norm_mbox_conf_sb_flat <- Sixth_norm_mbox_conf_sb_perm
I0415 03:36:53.104743  1616 net.cpp:420] Sixth_norm_mbox_conf_sb_flat -> Sixth_norm_mbox_conf_sb_flat
I0415 03:36:53.104773  1616 net.cpp:162] Setting up Sixth_norm_mbox_conf_sb_flat
I0415 03:36:53.104785  1616 net.cpp:169] Top shape: 2 336 (672)
I0415 03:36:53.104789  1616 net.cpp:177] Memory required for data: 594022208
I0415 03:36:53.104790  1616 layer_factory.hpp:77] Creating layer Sixth_norm_mbox_priorbox
I0415 03:36:53.104805  1616 net.cpp:112] Creating Layer Sixth_norm_mbox_priorbox
I0415 03:36:53.104809  1616 net.cpp:446] Sixth_norm_mbox_priorbox <- Sixth_norm_Sixth_norm_0_split_2
I0415 03:36:53.104811  1616 net.cpp:446] Sixth_norm_mbox_priorbox <- data_data_0_split_6
I0415 03:36:53.104826  1616 net.cpp:420] Sixth_norm_mbox_priorbox -> Sixth_norm_mbox_priorbox
I0415 03:36:53.104859  1616 net.cpp:162] Setting up Sixth_norm_mbox_priorbox
I0415 03:36:53.104872  1616 net.cpp:169] Top shape: 1 2 64 (128)
I0415 03:36:53.104876  1616 net.cpp:177] Memory required for data: 594022720
I0415 03:36:53.104877  1616 layer_factory.hpp:77] Creating layer mbox_loc
I0415 03:36:53.104893  1616 net.cpp:112] Creating Layer mbox_loc
I0415 03:36:53.104897  1616 net.cpp:446] mbox_loc <- First_out_norm_mbox_loc_sb_flat
I0415 03:36:53.104909  1616 net.cpp:446] mbox_loc <- Second_out_norm_mbox_loc_sb_flat
I0415 03:36:53.104915  1616 net.cpp:446] mbox_loc <- Third_out_norm_mbox_loc_sb_flat
I0415 03:36:53.104930  1616 net.cpp:446] mbox_loc <- Fourth_norm_mbox_loc_sb_flat
I0415 03:36:53.104943  1616 net.cpp:446] mbox_loc <- Fifth_norm_mbox_loc_sb_flat
I0415 03:36:53.104948  1616 net.cpp:446] mbox_loc <- Sixth_norm_mbox_loc_sb_flat
I0415 03:36:53.104954  1616 net.cpp:420] mbox_loc -> mbox_loc
I0415 03:36:53.104977  1616 net.cpp:162] Setting up mbox_loc
I0415 03:36:53.104981  1616 net.cpp:169] Top shape: 2 34976 (69952)
I0415 03:36:53.104985  1616 net.cpp:177] Memory required for data: 594302528
I0415 03:36:53.104988  1616 layer_factory.hpp:77] Creating layer mbox_conf
I0415 03:36:53.104993  1616 net.cpp:112] Creating Layer mbox_conf
I0415 03:36:53.104997  1616 net.cpp:446] mbox_conf <- First_out_norm_mbox_conf_sb_flat
I0415 03:36:53.105000  1616 net.cpp:446] mbox_conf <- Second_out_norm_mbox_conf_sb_flat
I0415 03:36:53.105003  1616 net.cpp:446] mbox_conf <- Third_out_norm_mbox_conf_sb_flat
I0415 03:36:53.105006  1616 net.cpp:446] mbox_conf <- Fourth_norm_mbox_conf_sb_flat
I0415 03:36:53.105010  1616 net.cpp:446] mbox_conf <- Fifth_norm_mbox_conf_sb_flat
I0415 03:36:53.105011  1616 net.cpp:446] mbox_conf <- Sixth_norm_mbox_conf_sb_flat
I0415 03:36:53.105015  1616 net.cpp:420] mbox_conf -> mbox_conf
I0415 03:36:53.105031  1616 net.cpp:162] Setting up mbox_conf
I0415 03:36:53.105034  1616 net.cpp:169] Top shape: 2 183624 (367248)
I0415 03:36:53.105037  1616 net.cpp:177] Memory required for data: 595771520
I0415 03:36:53.105049  1616 layer_factory.hpp:77] Creating layer mbox_priorbox
I0415 03:36:53.105054  1616 net.cpp:112] Creating Layer mbox_priorbox
I0415 03:36:53.105068  1616 net.cpp:446] mbox_priorbox <- First_out_norm_mbox_priorbox
I0415 03:36:53.105072  1616 net.cpp:446] mbox_priorbox <- Second_out_norm_mbox_priorbox
I0415 03:36:53.105073  1616 net.cpp:446] mbox_priorbox <- Third_out_norm_mbox_priorbox
I0415 03:36:53.105077  1616 net.cpp:446] mbox_priorbox <- Fourth_norm_mbox_priorbox
I0415 03:36:53.105079  1616 net.cpp:446] mbox_priorbox <- Fifth_norm_mbox_priorbox
I0415 03:36:53.105082  1616 net.cpp:446] mbox_priorbox <- Sixth_norm_mbox_priorbox
I0415 03:36:53.105084  1616 net.cpp:420] mbox_priorbox -> mbox_priorbox
I0415 03:36:53.105101  1616 net.cpp:162] Setting up mbox_priorbox
I0415 03:36:53.105104  1616 net.cpp:169] Top shape: 1 2 34976 (69952)
I0415 03:36:53.105108  1616 net.cpp:177] Memory required for data: 596051328
I0415 03:36:53.105111  1616 layer_factory.hpp:77] Creating layer mbox_conf_reshape
I0415 03:36:53.105116  1616 net.cpp:112] Creating Layer mbox_conf_reshape
I0415 03:36:53.105120  1616 net.cpp:446] mbox_conf_reshape <- mbox_conf
I0415 03:36:53.105127  1616 net.cpp:420] mbox_conf_reshape -> mbox_conf_reshape
I0415 03:36:53.105183  1616 net.cpp:162] Setting up mbox_conf_reshape
I0415 03:36:53.105188  1616 net.cpp:169] Top shape: 2 8744 21 (367248)
I0415 03:36:53.105191  1616 net.cpp:177] Memory required for data: 597520320
I0415 03:36:53.105195  1616 layer_factory.hpp:77] Creating layer mbox_conf_softmax
I0415 03:36:53.105198  1616 net.cpp:112] Creating Layer mbox_conf_softmax
I0415 03:36:53.105201  1616 net.cpp:446] mbox_conf_softmax <- mbox_conf_reshape
I0415 03:36:53.105206  1616 net.cpp:420] mbox_conf_softmax -> mbox_conf_softmax
I0415 03:36:53.105689  1616 net.cpp:162] Setting up mbox_conf_softmax
I0415 03:36:53.105695  1616 net.cpp:169] Top shape: 2 8744 21 (367248)
I0415 03:36:53.105701  1616 net.cpp:177] Memory required for data: 598989312
I0415 03:36:53.105705  1616 layer_factory.hpp:77] Creating layer mbox_conf_flatten
I0415 03:36:53.105711  1616 net.cpp:112] Creating Layer mbox_conf_flatten
I0415 03:36:53.105715  1616 net.cpp:446] mbox_conf_flatten <- mbox_conf_softmax
I0415 03:36:53.105720  1616 net.cpp:420] mbox_conf_flatten -> mbox_conf_flatten
I0415 03:36:53.105738  1616 net.cpp:162] Setting up mbox_conf_flatten
I0415 03:36:53.105742  1616 net.cpp:169] Top shape: 2 183624 (367248)
I0415 03:36:53.105746  1616 net.cpp:177] Memory required for data: 600458304
I0415 03:36:53.105751  1616 layer_factory.hpp:77] Creating layer detection_out
I0415 03:36:53.105764  1616 net.cpp:112] Creating Layer detection_out
I0415 03:36:53.105767  1616 net.cpp:446] detection_out <- mbox_loc
I0415 03:36:53.105779  1616 net.cpp:446] detection_out <- mbox_conf_flatten
I0415 03:36:53.105782  1616 net.cpp:446] detection_out <- mbox_priorbox
I0415 03:36:53.105787  1616 net.cpp:420] detection_out -> detection_out
I0415 03:36:53.161607  1616 net.cpp:162] Setting up detection_out
I0415 03:36:53.161615  1616 net.cpp:169] Top shape: 1 1 1 7 (7)
I0415 03:36:53.161618  1616 net.cpp:177] Memory required for data: 600458332
I0415 03:36:53.161622  1616 layer_factory.hpp:77] Creating layer detection_eval
I0415 03:36:53.161638  1616 net.cpp:112] Creating Layer detection_eval
I0415 03:36:53.161645  1616 net.cpp:446] detection_eval <- detection_out
I0415 03:36:53.161659  1616 net.cpp:446] detection_eval <- label
I0415 03:36:53.161664  1616 net.cpp:420] detection_eval -> detection_eval
I0415 03:36:53.162490  1616 net.cpp:162] Setting up detection_eval
I0415 03:36:53.162494  1616 net.cpp:169] Top shape: 1 1 21 5 (105)
I0415 03:36:53.162497  1616 net.cpp:177] Memory required for data: 600458752
I0415 03:36:53.162500  1616 net.cpp:240] detection_eval does not need backward computation.
I0415 03:36:53.162513  1616 net.cpp:240] detection_out does not need backward computation.
I0415 03:36:53.162516  1616 net.cpp:240] mbox_conf_flatten does not need backward computation.
I0415 03:36:53.162518  1616 net.cpp:240] mbox_conf_softmax does not need backward computation.
…
